…
I0405 21:45:20.969252  4881 net.cpp:46] Initializing net from parameters: 
name: "StructureFeatureNet"
state {
  phase: TRAIN
}
layer {
  name: "data"
  type: "Data"
  top: "data"
  include {
    phase: TRAIN
  }
  transform_param {
    mirror: false
    mean_value: 128
    mean_value: 128
    mean_value: 128
  }
  data_param {
    source: "cache/lsp/LMDB/LMDB_train_data"
    batch_size: 1
    backend: LMDB
  }
}
layer {
  name: "data"
  type: "Data"
  top: "labelmask"
  include {
    phase: TRAIN
  }
  data_param {
    source: "cache/lsp/LMDB/LMDB_train_labelmap"
    batch_size: 1
    backend: LMDB
  }
}
layer {
  name: "slice_label_train"
  type: "Slice"
  bottom: "labelmask"
  top: "label0"
  top: "mask"
  include {
    phase: TRAIN
  }
  slice_param {
    slice_point: 26
    axis: 1
  }
}
layer {
  name: "mix"
  type: "Data"
  top: "mix"
  include {
    phase: TRAIN
  }
  data_param {
    source: "cache/lsp/LMDB/LMDB_train_mix"
    batch_size: 1
    backend: LMDB
  }
}
layer {
  name: "label2mix"
  type: "LabelMix"
  bottom: "label0"
  bottom: "mix"
  top: "label"
  include {
    phase: TRAIN
  }
  label_mix_param {
    mix_num: 13
  }
}
layer {
  name: "conv1_1"
  type: "Convolution"
  bottom: "data"
  top: "conv1_1"
  param {
    lr_mult: 1
    decay_mult: 1
  }
  param {
    lr_mult: 2
    decay_mult: 0
  }
  convolution_param {
    num_output: 64
    pad: 1
    kernel_size: 3
  }
}
layer {
  name: "relu1_1"
  type: "ReLU"
  bottom: "conv1_1"
  top: "conv1_1"
}
layer {
  name: "conv1_2"
  type: "Convolution"
  bottom: "conv1_1"
  top: "conv1_2"
  param {
    lr_mult: 1
    decay_mult: 1
  }
  param {
    lr_mult: 2
    decay_mult: 0
  }
  convolution_param {
    num_output: 64
    pad: 1
    kernel_size: 3
  }
}
layer {
  name: "relu1_2"
  type: "ReLU"
  bottom: "conv1_2"
  top: "conv1_2"
}
layer {
  name: "pool1"
  type: "Pooling"
  bottom: "conv1_2"
  top: "pool1"
  pooling_param {
    pool: MAX
    kernel_size: 2
    stride: 2
  }
}
layer {
  name: "conv2_1"
  type: "Convolution"
  bottom: "pool1"
  top: "conv2_1"
  param {
    lr_mult: 1
    decay_mult: 1
  }
  param {
    lr_mult: 2
    decay_mult: 0
  }
  convolution_param {
    num_output: 128
    pad: 1
    kernel_size: 3
  }
}
layer {
  name: "relu2_1"
  type: "ReLU"
  bottom: "conv2_1"
  top: "conv2_1"
}
layer {
  name: "conv2_2"
  type: "Convolution"
  bottom: "conv2_1"
  top: "conv2_2"
  param {
    lr_mult: 1
    decay_mult: 1
  }
  param {
    lr_mult: 2
    decay_mult: 0
  }
  convolution_param {
    num_output: 128
    pad: 1
    kernel_size: 3
  }
}
layer {
  name: "relu2_2"
  type: "ReLU"
  bottom: "conv2_2"
  top: "conv2_2"
}
layer {
  name: "pool2"
  type: "Pooling"
  bottom: "conv2_2"
  top: "pool2"
  pooling_param {
    pool: MAX
    kernel_size: 2
    stride: 2
  }
}
layer {
  name: "conv3_1"
  type: "Convolution"
  bottom: "pool2"
  top: "conv3_1"
  param {
    lr_mult: 1
    decay_mult: 1
  }
  param {
    lr_mult: 2
    decay_mult: 0
  }
  convolution_param {
    num_output: 256
    pad: 1
    kernel_size: 3
  }
}
layer {
  name: "relu3_1"
  type: "ReLU"
  bottom: "conv3_1"
  top: "conv3_1"
}
layer {
  name: "conv3_2"
  type: "Convolution"
  bottom: "conv3_1"
  top: "conv3_2"
  param {
    lr_mult: 1
    decay_mult: 1
  }
  param {
    lr_mult: 2
    decay_mult: 0
  }
  convolution_param {
    num_output: 256
    pad: 1
    kernel_size: 3
  }
}
layer {
  name: "relu3_2"
  type: "ReLU"
  bottom: "conv3_2"
  top: "conv3_2"
}
layer {
  name: "conv3_3"
  type: "Convolution"
  bottom: "conv3_2"
  top: "conv3_3"
  param {
    lr_mult: 1
    decay_mult: 1
  }
  param {
    lr_mult: 2
    decay_mult: 0
  }
  convolution_param {
    num_output: 256
    pad: 1
    kernel_size: 3
  }
}
layer {
  name: "relu3_3"
  type: "ReLU"
  bottom: "conv3_3"
  top: "conv3_3"
}
layer {
  name: "pool3"
  type: "Pooling"
  bottom: "conv3_3"
  top: "pool3"
  pooling_param {
    pool: MAX
    kernel_size: 2
    stride: 2
  }
}
layer {
  name: "conv4_1"
  type: "Convolution"
  bottom: "pool3"
  top: "conv4_1"
  param {
    lr_mult: 1
    decay_mult: 1
  }
  param {
    lr_mult: 2
    decay_mult: 0
  }
  convolution_param {
    num_output: 512
    pad: 1
    kernel_size: 3
  }
}
layer {
  name: "relu4_1"
  type: "ReLU"
  bottom: "conv4_1"
  top: "conv4_1"
}
layer {
  name: "conv4_2"
  type: "Convolution"
  bottom: "conv4_1"
  top: "conv4_2"
  param {
    lr_mult: 1
    decay_mult: 1
  }
  param {
    lr_mult: 2
    decay_mult: 0
  }
  convolution_param {
    num_output: 512
    pad: 1
    kernel_size: 3
  }
}
layer {
  name: "relu4_2"
  type: "ReLU"
  bottom: "conv4_2"
  top: "conv4_2"
}
layer {
  name: "conv4_3"
  type: "Convolution"
  bottom: "conv4_2"
  top: "conv4_3"
  param {
    lr_mult: 1
    decay_mult: 1
  }
  param {
    lr_mult: 2
    decay_mult: 0
  }
  convolution_param {
    num_output: 512
    pad: 1
    kernel_size: 3
  }
}
layer {
  name: "relu4_3"
  type: "ReLU"
  bottom: "conv4_3"
  top: "pool4"
}
layer {
  name: "conv5_1"
  type: "Convolution"
  bottom: "pool4"
  top: "conv5_1"
  param {
    lr_mult: 1
    decay_mult: 1
  }
  param {
    lr_mult: 2
    decay_mult: 0
  }
  convolution_param {
    num_output: 512
    pad: 1
    kernel_size: 3
  }
}
layer {
  name: "relu5_1"
  type: "ReLU"
  bottom: "conv5_1"
  top: "conv5_1"
}
layer {
  name: "conv5_2"
  type: "Convolution"
  bottom: "conv5_1"
  top: "conv5_2"
  param {
    lr_mult: 1
    decay_mult: 1
  }
  param {
    lr_mult: 2
    decay_mult: 0
  }
  convolution_param {
    num_output: 512
    pad: 1
    kernel_size: 3
  }
}
layer {
  name: "relu5_2"
  type: "ReLU"
  bottom: "conv5_2"
  top: "conv5_2"
}
layer {
  name: "conv5_3"
  type: "Convolution"
  bottom: "conv5_2"
  top: "conv5_3"
  param {
    lr_mult: 1
    decay_mult: 1
  }
  param {
    lr_mult: 2
    decay_mult: 0
  }
  convolution_param {
    num_output: 512
    pad: 1
    kernel_size: 3
  }
}
layer {
  name: "relu5_3"
  type: "ReLU"
  bottom: "conv5_3"
  top: "pool5"
}
layer {
  name: "fcn6_new"
  type: "Convolution"
  bottom: "pool5"
  top: "fconv6"
  param {
    lr_mult: 10
    decay_mult: 1
  }
  param {
    lr_mult: 20
    decay_mult: 0
  }
  convolution_param {
    num_output: 1024
    pad: 3
    kernel_size: 7
    weight_filler {
      type: "gaussian"
      std: 0.001
    }
    bias_filler {
      type: "constant"
      value: 0
    }
  }
}
layer {
  name: "fconv6_bn"
  type: "BN"
  bottom: "fconv6"
  top: "fconv6_bn"
  param {
    lr_mult: 1
    decay_mult: 0
  }
  param {
    lr_mult: 1
    decay_mult: 0
  }
  bn_param {
    slope_filler {
      type: "constant"
      value: 1
    }
    bias_filler {
      type: "constant"
      value: 0
    }
  }
}
layer {
  name: "relu6"
  type: "ReLU"
  bottom: "fconv6_bn"
  top: "fconv6_bn"
}
layer {
  name: "drop6"
  type: "ChannelDropout"
  bottom: "fconv6_bn"
  top: "fconv6_bn"
  dropout_param {
    dropout_ratio: 0.5
  }
}
layer {
  name: "fconv7_7"
  type: "Convolution"
  bottom: "fconv6_bn"
  top: "fconv7_7"
  param {
    lr_mult: 10
    decay_mult: 1
  }
  param {
    lr_mult: 20
    decay_mult: 0
  }
  convolution_param {
    num_output: 128
    pad: 0
    kernel_size: 1
    weight_filler {
      type: "gaussian"
      std: 0.01
    }
    bias_filler {
      type: "constant"
      value: 0
    }
  }
}
layer {
  name: "relu7_7"
  type: "ReLU"
  bottom: "fconv7_7"
  top: "fconv7_7+"
}
layer {
  name: "fconv7_7to6_step1"
  type: "Convolution"
  bottom: "fconv7_7+"
  top: "fconv7_7to6_step1"
  param {
    lr_mult: 10
    decay_mult: 2
  }
  param {
    lr_mult: 20
    decay_mult: 0
  }
  convolution_param {
    num_output: 64
    pad: 3
    kernel_size: 7
    weight_filler {
      type: "gaussian"
      std: 0.01
    }
    bias_filler {
      type: "constant"
      value: 0
    }
  }
}
layer {
  name: "relu7_7to6_step1"
  type: "ReLU"
  bottom: "fconv7_7to6_step1"
  top: "fconv7_7to6_step1"
}
layer {
  name: "fconv7_7to6_step2"
  type: "Convolution"
  bottom: "fconv7_7to6_step1"
  top: "fconv7_7to6_step2"
  param {
    lr_mult: 10
    decay_mult: 2
  }
  param {
    lr_mult: 20
    decay_mult: 0
  }
  convolution_param {
    num_output: 128
    pad: 3
    kernel_size: 7
    weight_filler {
      type: "gaussian"
      std: 0.01
    }
    bias_filler {
      type: "constant"
      value: 0
    }
  }
}
layer {
  name: "fconv7_6"
  type: "Convolution"
  bottom: "fconv6_bn"
  top: "fconv7_6"
  param {
    lr_mult: 10
    decay_mult: 1
  }
  param {
    lr_mult: 20
    decay_mult: 0
  }
  convolution_param {
    num_output: 128
    pad: 0
    kernel_size: 1
    weight_filler {
      type: "gaussian"
      std: 0.01
    }
    bias_filler {
      type: "constant"
      value: 0
    }
  }
}
layer {
  name: "Pass_7to6"
  type: "Eltwise"
  bottom: "fconv7_7to6_step2"
  bottom: "fconv7_6"
  top: "fconv7_6+"
}
layer {
  name: "relu7_6"
  type: "ReLU"
  bottom: "fconv7_6+"
  top: "fconv7_6+"
}
layer {
  name: "fconv7_6to5_step1"
  type: "Convolution"
  bottom: "fconv7_6+"
  top: "fconv7_6to5_step1"
  param {
    lr_mult: 10
    decay_mult: 2
  }
  param {
    lr_mult: 20
    decay_mult: 0
  }
  convolution_param {
    num_output: 64
    pad: 3
    kernel_size: 7
    weight_filler {
      type: "gaussian"
      std: 0.01
    }
    bias_filler {
      type: "constant"
      value: 0
    }
  }
}
layer {
  name: "relu7_6to5_step1"
  type: "ReLU"
  bottom: "fconv7_6to5_step1"
  top: "fconv7_6to5_step1"
}
layer {
  name: "fconv7_6to5_step2"
  type: "Convolution"
  bottom: "fconv7_6to5_step1"
  top: "fconv7_6to5_step2"
  param {
    lr_mult: 10
    decay_mult: 2
  }
  param {
    lr_mult: 20
    decay_mult: 0
  }
  convolution_param {
    num_output: 128
    pad: 3
    kernel_size: 7
    weight_filler {
      type: "gaussian"
      std: 0.01
    }
    bias_filler {
      type: "constant"
      value: 0
    }
  }
}
layer {
  name: "fconv7_5"
  type: "Convolution"
  bottom: "fconv6_bn"
  top: "fconv7_5"
  param {
    lr_mult: 10
    decay_mult: 1
  }
  param {
    lr_mult: 20
    decay_mult: 0
  }
  convolution_param {
    num_output: 128
    pad: 0
    kernel_size: 1
    weight_filler {
      type: "gaussian"
      std: 0.01
    }
    bias_filler {
      type: "constant"
      value: 0
    }
  }
}
layer {
  name: "Pass_6to5"
  type: "Eltwise"
  bottom: "fconv7_6to5_step2"
  bottom: "fconv7_5"
  top: "fconv7_5+"
}
layer {
  name: "relu7_5"
  type: "ReLU"
  bottom: "fconv7_5+"
  top: "fconv7_5+"
}
layer {
  name: "fconv7_5to4_step1"
  type: "Convolution"
  bottom: "fconv7_5+"
  top: "fconv7_5to4_step1"
  param {
    lr_mult: 10
    decay_mult: 2
  }
  param {
    lr_mult: 20
    decay_mult: 0
  }
  convolution_param {
    num_output: 64
    pad: 3
    kernel_size: 7
    weight_filler {
      type: "gaussian"
      std: 0.01
    }
    bias_filler {
      type: "constant"
      value: 0
    }
  }
}
layer {
  name: "relu7_5to4_step1"
  type: "ReLU"
  bottom: "fconv7_5to4_step1"
  top: "fconv7_5to4_step1"
}
layer {
  name: "fconv7_5to4_step2"
  type: "Convolution"
  bottom: "fconv7_5to4_step1"
  top: "fconv7_5to4_step2"
  param {
    lr_mult: 10
    decay_mult: 2
  }
  param {
    lr_mult: 20
    decay_mult: 0
  }
  convolution_param {
    num_output: 128
    pad: 3
    kernel_size: 7
    weight_filler {
      type: "gaussian"
      std: 0.01
    }
    bias_filler {
      type: "constant"
      value: 0
    }
  }
}
layer {
  name: "fconv7_4"
  type: "Convolution"
  bottom: "fconv6_bn"
  top: "fconv7_4"
  param {
    lr_mult: 10
    decay_mult: 1
  }
  param {
    lr_mult: 20
    decay_mult: 0
  }
  convolution_param {
    num_output: 128
    pad: 0
    kernel_size: 1
    weight_filler {
      type: "gaussian"
      std: 0.01
    }
    bias_filler {
      type: "constant"
      value: 0
    }
  }
}
layer {
  name: "Pass_5to4"
  type: "Eltwise"
  bottom: "fconv7_5to4_step2"
  bottom: "fconv7_4"
  top: "fconv7_4+"
}
layer {
  name: "relu7_4"
  type: "ReLU"
  bottom: "fconv7_4+"
  top: "fconv7_4+"
}
layer {
  name: "fconv7_4to3_step1"
  type: "Convolution"
  bottom: "fconv7_4+"
  top: "fconv7_4to3_step1"
  param {
    lr_mult: 10
    decay_mult: 2
  }
  param {
    lr_mult: 20
    decay_mult: 0
  }
  convolution_param {
    num_output: 64
    pad: 3
    kernel_size: 7
    weight_filler {
      type: "gaussian"
      std: 0.01
    }
    bias_filler {
      type: "constant"
      value: 0
    }
  }
}
layer {
  name: "relu7_4to3_step1"
  type: "ReLU"
  bottom: "fconv7_4to3_step1"
  top: "fconv7_4to3_step1"
}
layer {
  name: "fconv7_4to3_step2"
  type: "Convolution"
  bottom: "fconv7_4to3_step1"
  top: "fconv7_4to3_step2"
  param {
    lr_mult: 10
    decay_mult: 2
  }
  param {
    lr_mult: 20
    decay_mult: 0
  }
  convolution_param {
    num_output: 128
    pad: 3
    kernel_size: 7
    weight_filler {
      type: "gaussian"
      std: 0.01
    }
    bias_filler {
      type: "constant"
      value: 0
    }
  }
}
layer {
  name: "fconv7_14"
  type: "Convolution"
  bottom: "fconv6_bn"
  top: "fconv7_14"
  param {
    lr_mult: 10
    decay_mult: 1
  }
  param {
    lr_mult: 20
    decay_mult: 0
  }
  convolution_param {
    num_output: 128
    pad: 0
    kernel_size: 1
    weight_filler {
      type: "gaussian"
      std: 0.01
    }
    bias_filler {
      type: "constant"
      value: 0
    }
  }
}
layer {
  name: "relu7_14"
  type: "ReLU"
  bottom: "fconv7_14"
  top: "fconv7_14+"
}
layer {
  name: "fconv7_14to13_step1"
  type: "Convolution"
  bottom: "fconv7_14+"
  top: "fconv7_14to13_step1"
  param {
    lr_mult: 10
    decay_mult: 2
  }
  param {
    lr_mult: 20
    decay_mult: 0
  }
  convolution_param {
    num_output: 64
    pad: 3
    kernel_size: 7
    weight_filler {
      type: "gaussian"
      std: 0.01
    }
    bias_filler {
      type: "constant"
      value: 0
    }
  }
}
layer {
  name: "relu7_14to13_step1"
  type: "ReLU"
  bottom: "fconv7_14to13_step1"
  top: "fconv7_14to13_step1"
}
layer {
  name: "fconv7_14to13_step2"
  type: "Convolution"
  bottom: "fconv7_14to13_step1"
  top: "fconv7_14to13_step2"
  param {
    lr_mult: 10
    decay_mult: 2
  }
  param {
    lr_mult: 20
    decay_mult: 0
  }
  convolution_param {
    num_output: 128
    pad: 3
    kernel_size: 7
    weight_filler {
      type: "gaussian"
      std: 0.01
    }
    bias_filler {
      type: "constant"
      value: 0
    }
  }
}
layer {
  name: "fconv7_13"
  type: "Convolution"
  bottom: "fconv6_bn"
  top: "fconv7_13"
  param {
    lr_mult: 10
    decay_mult: 1
  }
  param {
    lr_mult: 20
    decay_mult: 0
  }
  convolution_param {
    num_output: 128
    pad: 0
    kernel_size: 1
    weight_filler {
      type: "gaussian"
      std: 0.01
    }
    bias_filler {
      type: "constant"
      value: 0
    }
  }
}
layer {
  name: "Pass_14to13"
  type: "Eltwise"
  bottom: "fconv7_14to13_step2"
  bottom: "fconv7_13"
  top: "fconv7_13+"
}
layer {
  name: "relu7_13"
  type: "ReLU"
  bottom: "fconv7_13+"
  top: "fconv7_13+"
}
layer {
  name: "fconv7_13to12_step1"
  type: "Convolution"
  bottom: "fconv7_13+"
  top: "fconv7_13to12_step1"
  param {
    lr_mult: 10
    decay_mult: 2
  }
  param {
    lr_mult: 20
    decay_mult: 0
  }
  convolution_param {
    num_output: 64
    pad: 3
    kernel_size: 7
    weight_filler {
      type: "gaussian"
      std: 0.01
    }
    bias_filler {
      type: "constant"
      value: 0
    }
  }
}
layer {
  name: "relu7_13to12_step1"
  type: "ReLU"
  bottom: "fconv7_13to12_step1"
  top: "fconv7_13to12_step1"
}
layer {
  name: "fconv7_13to12_step2"
  type: "Convolution"
  bottom: "fconv7_13to12_step1"
  top: "fconv7_13to12_step2"
  param {
    lr_mult: 10
    decay_mult: 2
  }
  param {
    lr_mult: 20
    decay_mult: 0
  }
  convolution_param {
    num_output: 128
    pad: 3
    kernel_size: 7
    weight_filler {
      type: "gaussian"
      std: 0.01
    }
    bias_filler {
      type: "constant"
      value: 0
    }
  }
}
layer {
  name: "fconv7_12"
  type: "Convolution"
  bottom: "fconv6_bn"
  top: "fconv7_12"
  param {
    lr_mult: 10
    decay_mult: 1
  }
  param {
    lr_mult: 20
    decay_mult: 0
  }
  convolution_param {
    num_output: 128
    pad: 0
    kernel_size: 1
    weight_filler {
      type: "gaussian"
      std: 0.01
    }
    bias_filler {
      type: "constant"
      value: 0
    }
  }
}
layer {
  name: "Pass_13to12"
  type: "Eltwise"
  bottom: "fconv7_13to12_step2"
  bottom: "fconv7_12"
  top: "fconv7_12+"
}
layer {
  name: "relu7_12"
  type: "ReLU"
  bottom: "fconv7_12+"
  top: "fconv7_12+"
}
layer {
  name: "fconv7_12to11_step1"
  type: "Convolution"
  bottom: "fconv7_12+"
  top: "fconv7_12to11_step1"
  param {
    lr_mult: 10
    decay_mult: 2
  }
  param {
    lr_mult: 20
    decay_mult: 0
  }
  convolution_param {
    num_output: 64
    pad: 3
    kernel_size: 7
    weight_filler {
      type: "gaussian"
      std: 0.01
    }
    bias_filler {
      type: "constant"
      value: 0
    }
  }
}
layer {
  name: "relu7_12to11_step1"
  type: "ReLU"
  bottom: "fconv7_12to11_step1"
  top: "fconv7_12to11_step1"
}
layer {
  name: "fconv7_12to11_step2"
  type: "Convolution"
  bottom: "fconv7_12to11_step1"
  top: "fconv7_12to11_step2"
  param {
    lr_mult: 10
    decay_mult: 2
  }
  param {
    lr_mult: 20
    decay_mult: 0
  }
  convolution_param {
    num_output: 128
    pad: 3
    kernel_size: 7
    weight_filler {
      type: "gaussian"
      std: 0.01
    }
    bias_filler {
      type: "constant"
      value: 0
    }
  }
}
layer {
  name: "fconv7_11"
  type: "Convolution"
  bottom: "fconv6_bn"
  top: "fconv7_11"
  param {
    lr_mult: 10
    decay_mult: 1
  }
  param {
    lr_mult: 20
    decay_mult: 0
  }
  convolution_param {
    num_output: 128
    pad: 0
    kernel_size: 1
    weight_filler {
      type: "gaussian"
      std: 0.01
    }
    bias_filler {
      type: "constant"
      value: 0
    }
  }
}
layer {
  name: "Pass_12to11"
  type: "Eltwise"
  bottom: "fconv7_12to11_step2"
  bottom: "fconv7_11"
  top: "fconv7_11+"
}
layer {
  name: "relu7_11"
  type: "ReLU"
  bottom: "fconv7_11+"
  top: "fconv7_11+"
}
layer {
  name: "fconv7_11to10_step1"
  type: "Convolution"
  bottom: "fconv7_11+"
  top: "fconv7_11to10_step1"
  param {
    lr_mult: 10
    decay_mult: 2
  }
  param {
    lr_mult: 20
    decay_mult: 0
  }
  convolution_param {
    num_output: 64
    pad: 3
    kernel_size: 7
    weight_filler {
      type: "gaussian"
      std: 0.01
    }
    bias_filler {
      type: "constant"
      value: 0
    }
  }
}
layer {
  name: "relu7_11to10_step1"
  type: "ReLU"
  bottom: "fconv7_11to10_step1"
  top: "fconv7_11to10_step1"
}
layer {
  name: "fconv7_11to10_step2"
  type: "Convolution"
  bottom: "fconv7_11to10_step1"
  top: "fconv7_11to10_step2"
  param {
    lr_mult: 10
    decay_mult: 2
  }
  param {
    lr_mult: 20
    decay_mult: 0
  }
  convolution_param {
    num_output: 128
    pad: 3
    kernel_size: 7
    weight_filler {
      type: "gaussian"
      std: 0.01
    }
    bias_filler {
      type: "constant"
      value: 0
    }
  }
}
layer {
  name: "fconv7_10"
  type: "Convolution"
  bottom: "fconv6_bn"
  top: "fconv7_10"
  param {
    lr_mult: 10
    decay_mult: 1
  }
  param {
    lr_mult: 20
    decay_mult: 0
  }
  convolution_param {
    num_output: 128
    pad: 0
    kernel_size: 1
    weight_filler {
      type: "gaussian"
      std: 0.01
    }
    bias_filler {
      type: "constant"
      value: 0
    }
  }
}
layer {
  name: "Pass_11to10"
  type: "Eltwise"
  bottom: "fconv7_11to10_step2"
  bottom: "fconv7_10"
  top: "fconv7_10+"
}
layer {
  name: "relu7_10"
  type: "ReLU"
  bottom: "fconv7_10+"
  top: "fconv7_10+"
}
layer {
  name: "fconv7_10to9_step1"
  type: "Convolution"
  bottom: "fconv7_10+"
  top: "fconv7_10to9_step1"
  param {
    lr_mult: 10
    decay_mult: 2
  }
  param {
    lr_mult: 20
    decay_mult: 0
  }
  convolution_param {
    num_output: 64
    pad: 3
    kernel_size: 7
    weight_filler {
      type: "gaussian"
      std: 0.01
    }
    bias_filler {
      type: "constant"
      value: 0
    }
  }
}
layer {
  name: "relu7_10to9_step1"
  type: "ReLU"
  bottom: "fconv7_10to9_step1"
  top: "fconv7_10to9_step1"
}
layer {
  name: "fconv7_10to9_step2"
  type: "Convolution"
  bottom: "fconv7_10to9_step1"
  top: "fconv7_10to9_step2"
  param {
    lr_mult: 10
    decay_mult: 2
  }
  param {
    lr_mult: 20
    decay_mult: 0
  }
  convolution_param {
    num_output: 128
    pad: 3
    kernel_size: 7
    weight_filler {
      type: "gaussian"
      std: 0.01
    }
    bias_filler {
      type: "constant"
      value: 0
    }
  }
}
layer {
  name: "fconv7_9"
  type: "Convolution"
  bottom: "fconv6_bn"
  top: "fconv7_9"
  param {
    lr_mult: 10
    decay_mult: 1
  }
  param {
    lr_mult: 20
    decay_mult: 0
  }
  convolution_param {
    num_output: 128
    pad: 0
    kernel_size: 1
    weight_filler {
      type: "gaussian"
      std: 0.01
    }
    bias_filler {
      type: "constant"
      value: 0
    }
  }
}
layer {
  name: "Pass_10to9"
  type: "Eltwise"
  bottom: "fconv7_10to9_step2"
  bottom: "fconv7_9"
  top: "fconv7_9+"
}
layer {
  name: "relu7_9"
  type: "ReLU"
  bottom: "fconv7_9+"
  top: "fconv7_9+"
}
layer {
  name: "fconv7_9to8_step1"
  type: "Convolution"
  bottom: "fconv7_9+"
  top: "fconv7_9to8_step1"
  param {
    lr_mult: 10
    decay_mult: 2
  }
  param {
    lr_mult: 20
    decay_mult: 0
  }
  convolution_param {
    num_output: 64
    pad: 3
    kernel_size: 7
    weight_filler {
      type: "gaussian"
      std: 0.01
    }
    bias_filler {
      type: "constant"
      value: 0
    }
  }
}
layer {
  name: "relu7_9to8_step1"
  type: "ReLU"
  bottom: "fconv7_9to8_step1"
  top: "fconv7_9to8_step1"
}
layer {
  name: "fconv7_9to8_step2"
  type: "Convolution"
  bottom: "fconv7_9to8_step1"
  top: "fconv7_9to8_step2"
  param {
    lr_mult: 10
    decay_mult: 2
  }
  param {
    lr_mult: 20
    decay_mult: 0
  }
  convolution_param {
    num_output: 128
    pad: 3
    kernel_size: 7
    weight_filler {
      type: "gaussian"
      std: 0.01
    }
    bias_filler {
      type: "constant"
      value: 0
    }
  }
}
layer {
  name: "fconv7_8"
  type: "Convolution"
  bottom: "fconv6_bn"
  top: "fconv7_8"
  param {
    lr_mult: 10
    decay_mult: 1
  }
  param {
    lr_mult: 20
    decay_mult: 0
  }
  convolution_param {
    num_output: 128
    pad: 0
    kernel_size: 1
    weight_filler {
      type: "gaussian"
      std: 0.01
    }
    bias_filler {
      type: "constant"
      value: 0
    }
  }
}
layer {
  name: "Pass_9to8"
  type: "Eltwise"
  bottom: "fconv7_9to8_step2"
  bottom: "fconv7_8"
  top: "fconv7_8+"
}
layer {
  name: "relu7_8"
  type: "ReLU"
  bottom: "fconv7_8+"
  top: "fconv7_8+"
}
layer {
  name: "fconv7_8to3_step1"
  type: "Convolution"
  bottom: "fconv7_8+"
  top: "fconv7_8to3_step1"
  param {
    lr_mult: 10
    decay_mult: 2
  }
  param {
    lr_mult: 20
    decay_mult: 0
  }
  convolution_param {
    num_output: 64
    pad: 3
    kernel_size: 7
    weight_filler {
      type: "gaussian"
      std: 0.01
    }
    bias_filler {
      type: "constant"
      value: 0
    }
  }
}
layer {
  name: "relu7_8to3_step1"
  type: "ReLU"
  bottom: "fconv7_8to3_step1"
  top: "fconv7_8to3_step1"
}
layer {
  name: "fconv7_8to3_step2"
  type: "Convolution"
  bottom: "fconv7_8to3_step1"
  top: "fconv7_8to3_step2"
  param {
    lr_mult: 10
    decay_mult: 2
  }
  param {
    lr_mult: 20
    decay_mult: 0
  }
  convolution_param {
    num_output: 128
    pad: 3
    kernel_size: 7
    weight_filler {
      type: "gaussian"
      std: 0.01
    }
    bias_filler {
      type: "constant"
      value: 0
    }
  }
}
layer {
  name: "fconv7_3"
  type: "Convolution"
  bottom: "fconv6_bn"
  top: "fconv7_3"
  param {
    lr_mult: 10
    decay_mult: 1
  }
  param {
    lr_mult: 20
    decay_mult: 0
  }
  convolution_param {
    num_output: 128
    pad: 0
    kernel_size: 1
    weight_filler {
      type: "gaussian"
      std: 0.01
    }
    bias_filler {
      type: "constant"
      value: 0
    }
  }
}
layer {
  name: "Pass_84to3"
  type: "Eltwise"
  bottom: "fconv7_8to3_step2"
  bottom: "fconv7_4to3_step2"
  bottom: "fconv7_3"
  top: "fconv7_3+"
}
layer {
  name: "relu7_3"
  type: "ReLU"
  bottom: "fconv7_3+"
  top: "fconv7_3+"
}
layer {
  name: "fconv7_3to2_step1"
  type: "Convolution"
  bottom: "fconv7_3+"
  top: "fconv7_3to2_step1"
  param {
    lr_mult: 10
    decay_mult: 2
  }
  param {
    lr_mult: 20
    decay_mult: 0
  }
  convolution_param {
    num_output: 64
    pad: 3
    kernel_size: 7
    weight_filler {
      type: "gaussian"
      std: 0.01
    }
    bias_filler {
      type: "constant"
      value: 0
    }
  }
}
layer {
  name: "relu7_3to2_step1"
  type: "ReLU"
  bottom: "fconv7_3to2_step1"
  top: "fconv7_3to2_step1"
}
layer {
  name: "fconv7_3to2_step2"
  type: "Convolution"
  bottom: "fconv7_3to2_step1"
  top: "fconv7_3to2_step2"
  param {
    lr_mult: 10
    decay_mult: 2
  }
  param {
    lr_mult: 20
    decay_mult: 0
  }
  convolution_param {
    num_output: 128
    pad: 3
    kernel_size: 7
    weight_filler {
      type: "gaussian"
      std: 0.01
    }
    bias_filler {
      type: "constant"
      value: 0
    }
  }
}
layer {
  name: "fconv7_19"
  type: "Convolution"
  bottom: "fconv6_bn"
  top: "fconv7_19"
  param {
    lr_mult: 10
    decay_mult: 1
  }
  param {
    lr_mult: 20
    decay_mult: 0
  }
  convolution_param {
    num_output: 128
    pad: 0
    kernel_size: 1
    weight_filler {
      type: "gaussian"
      std: 0.01
    }
    bias_filler {
      type: "constant"
      value: 0
    }
  }
}
layer {
  name: "relu7_19"
  type: "ReLU"
  bottom: "fconv7_19"
  top: "fconv7_19+"
}
layer {
  name: "fconv7_19to18_step1"
  type: "Convolution"
  bottom: "fconv7_19+"
  top: "fconv7_19to18_step1"
  param {
    lr_mult: 10
    decay_mult: 2
  }
  param {
    lr_mult: 20
    decay_mult: 0
  }
  convolution_param {
    num_output: 64
    pad: 3
    kernel_size: 7
    weight_filler {
      type: "gaussian"
      std: 0.01
    }
    bias_filler {
      type: "constant"
      value: 0
    }
  }
}
layer {
  name: "relu7_19to18_step1"
  type: "ReLU"
  bottom: "fconv7_19to18_step1"
  top: "fconv7_19to18_step1"
}
layer {
  name: "fconv7_19to18_step2"
  type: "Convolution"
  bottom: "fconv7_19to18_step1"
  top: "fconv7_19to18_step2"
  param {
    lr_mult: 10
    decay_mult: 2
  }
  param {
    lr_mult: 20
    decay_mult: 0
  }
  convolution_param {
    num_output: 128
    pad: 3
    kernel_size: 7
    weight_filler {
      type: "gaussian"
      std: 0.01
    }
    bias_filler {
      type: "constant"
      value: 0
    }
  }
}
layer {
  name: "fconv7_18"
  type: "Convolution"
  bottom: "fconv6_bn"
  top: "fconv7_18"
  param {
    lr_mult: 10
    decay_mult: 1
  }
  param {
    lr_mult: 20
    decay_mult: 0
  }
  convolution_param {
    num_output: 128
    pad: 0
    kernel_size: 1
    weight_filler {
      type: "gaussian"
      std: 0.01
    }
    bias_filler {
      type: "constant"
      value: 0
    }
  }
}
layer {
  name: "Pass_19to18"
  type: "Eltwise"
  bottom: "fconv7_19to18_step2"
  bottom: "fconv7_18"
  top: "fconv7_18+"
}
layer {
  name: "relu7_18"
  type: "ReLU"
  bottom: "fconv7_18+"
  top: "fconv7_18+"
}
layer {
  name: "fconv7_18to17_step1"
  type: "Convolution"
  bottom: "fconv7_18+"
  top: "fconv7_18to17_step1"
  param {
    lr_mult: 10
    decay_mult: 2
  }
  param {
    lr_mult: 20
    decay_mult: 0
  }
  convolution_param {
    num_output: 64
    pad: 3
    kernel_size: 7
    weight_filler {
      type: "gaussian"
      std: 0.01
    }
    bias_filler {
      type: "constant"
      value: 0
    }
  }
}
layer {
  name: "relu7_18to17_step1"
  type: "ReLU"
  bottom: "fconv7_18to17_step1"
  top: "fconv7_18to17_step1"
}
layer {
  name: "fconv7_18to17_step2"
  type: "Convolution"
  bottom: "fconv7_18to17_step1"
  top: "fconv7_18to17_step2"
  param {
    lr_mult: 10
    decay_mult: 2
  }
  param {
    lr_mult: 20
    decay_mult: 0
  }
  convolution_param {
    num_output: 128
    pad: 3
    kernel_size: 7
    weight_filler {
      type: "gaussian"
      std: 0.01
    }
    bias_filler {
      type: "constant"
      value: 0
    }
  }
}
layer {
  name: "fconv7_17"
  type: "Convolution"
  bottom: "fconv6_bn"
  top: "fconv7_17"
  param {
    lr_mult: 10
    decay_mult: 1
  }
  param {
    lr_mult: 20
    decay_mult: 0
  }
  convolution_param {
    num_output: 128
    pad: 0
    kernel_size: 1
    weight_filler {
      type: "gaussian"
      std: 0.01
    }
    bias_filler {
      type: "constant"
      value: 0
    }
  }
}
layer {
  name: "Pass_18to17"
  type: "Eltwise"
  bottom: "fconv7_18to17_step2"
  bottom: "fconv7_17"
  top: "fconv7_17+"
}
layer {
  name: "relu7_17"
  type: "ReLU"
  bottom: "fconv7_17+"
  top: "fconv7_17+"
}
layer {
  name: "fconv7_17to16_step1"
  type: "Convolution"
  bottom: "fconv7_17+"
  top: "fconv7_17to16_step1"
  param {
    lr_mult: 10
    decay_mult: 2
  }
  param {
    lr_mult: 20
    decay_mult: 0
  }
  convolution_param {
    num_output: 64
    pad: 3
    kernel_size: 7
    weight_filler {
      type: "gaussian"
      std: 0.01
    }
    bias_filler {
      type: "constant"
      value: 0
    }
  }
}
layer {
  name: "relu7_17to16_step1"
  type: "ReLU"
  bottom: "fconv7_17to16_step1"
  top: "fconv7_17to16_step1"
}
layer {
  name: "fconv7_17to16_step2"
  type: "Convolution"
  bottom: "fconv7_17to16_step1"
  top: "fconv7_17to16_step2"
  param {
    lr_mult: 10
    decay_mult: 2
  }
  param {
    lr_mult: 20
    decay_mult: 0
  }
  convolution_param {
    num_output: 128
    pad: 3
    kernel_size: 7
    weight_filler {
      type: "gaussian"
      std: 0.01
    }
    bias_filler {
      type: "constant"
      value: 0
    }
  }
}
layer {
  name: "fconv7_16"
  type: "Convolution"
  bottom: "fconv6_bn"
  top: "fconv7_16"
  param {
    lr_mult: 10
    decay_mult: 1
  }
  param {
    lr_mult: 20
    decay_mult: 0
  }
  convolution_param {
    num_output: 128
    pad: 0
    kernel_size: 1
    weight_filler {
      type: "gaussian"
      std: 0.01
    }
    bias_filler {
      type: "constant"
   
I0405 21:45:20.972395  4881 layer_factory.hpp:74] Creating layer data
I0405 21:45:20.972430  4881 net.cpp:102] Creating Layer data
I0405 21:45:20.972446  4881 net.cpp:380] data -> data
I0405 21:45:20.972488  4881 net.cpp:132] Setting up data
I0405 21:45:20.972599  4881 db_lmdb.cpp:22] Opened lmdb cache/lsp/LMDB/LMDB_train_data
I0405 21:45:20.972631  4881 data_layer.cpp:53] Skipping first 0 data points.
I0405 21:45:20.979367  4881 data_layer.cpp:74] Decoding Datum
I0405 21:45:20.979385  4881 data_layer.cpp:98] output data size: 1,3,336,336
I0405 21:45:20.979547  4881 net.cpp:139] Top shape: 1 3 336 336 (338688)
I0405 21:45:20.979559  4881 layer_factory.hpp:74] Creating layer data
I0405 21:45:20.979574  4881 net.cpp:102] Creating Layer data
I0405 21:45:20.979585  4881 net.cpp:380] data -> labelmask
I0405 21:45:20.979604  4881 net.cpp:132] Setting up data
I0405 21:45:20.979655  4881 db_lmdb.cpp:22] Opened lmdb cache/lsp/LMDB/LMDB_train_labelmap
I0405 21:45:20.979674  4881 data_layer.cpp:53] Skipping first 0 data points.
I0405 21:45:20.980002  4881 data_layer.cpp:98] output data size: 1,27,42,42
I0405 21:45:20.980046  4881 net.cpp:139] Top shape: 1 27 42 42 (47628)
I0405 21:45:20.980057  4881 layer_factory.hpp:74] Creating layer slice_label_train
I0405 21:45:20.980072  4881 net.cpp:102] Creating Layer slice_label_train
I0405 21:45:20.980083  4881 net.cpp:422] slice_label_train <- labelmask
I0405 21:45:20.980105  4881 net.cpp:380] slice_label_train -> label0
I0405 21:45:20.980123  4881 net.cpp:380] slice_label_train -> mask
I0405 21:45:20.980136  4881 net.cpp:132] Setting up slice_label_train
I0405 21:45:20.980154  4881 net.cpp:139] Top shape: 1 26 42 42 (45864)
I0405 21:45:20.980166  4881 net.cpp:139] Top shape: 1 1 42 42 (1764)
I0405 21:45:20.980175  4881 layer_factory.hpp:74] Creating layer mix
I0405 21:45:20.980186  4881 net.cpp:102] Creating Layer mix
I0405 21:45:20.980197  4881 net.cpp:380] mix -> mix
I0405 21:45:20.980211  4881 net.cpp:132] Setting up mix
I0405 21:45:20.980248  4881 db_lmdb.cpp:22] Opened lmdb cache/lsp/LMDB/LMDB_train_mix
I0405 21:45:20.980265  4881 data_layer.cpp:53] Skipping first 0 data points.
I0405 21:45:20.980281  4881 data_layer.cpp:98] output data size: 1,26,1,1
I0405 21:45:20.980314  4881 net.cpp:139] Top shape: 1 26 1 1 (26)
I0405 21:45:20.980324  4881 layer_factory.hpp:74] Creating layer label2mix
I0405 21:45:20.980340  4881 net.cpp:102] Creating Layer label2mix
I0405 21:45:20.980350  4881 net.cpp:422] label2mix <- label0
I0405 21:45:20.980361  4881 net.cpp:422] label2mix <- mix
I0405 21:45:20.980373  4881 net.cpp:380] label2mix -> label
I0405 21:45:20.980388  4881 net.cpp:132] Setting up label2mix
I0405 21:45:20.980406  4881 net.cpp:139] Top shape: 1 338 42 42 (596232)
I0405 21:45:20.980415  4881 layer_factory.hpp:74] Creating layer conv1_1
I0405 21:45:20.980432  4881 net.cpp:102] Creating Layer conv1_1
I0405 21:45:20.980443  4881 net.cpp:422] conv1_1 <- data
I0405 21:45:20.980454  4881 net.cpp:380] conv1_1 -> conv1_1
I0405 21:45:20.980469  4881 net.cpp:132] Setting up conv1_1
I0405 21:45:21.131844  4881 net.cpp:139] Top shape: 1 64 336 336 (7225344)
I0405 21:45:21.131881  4881 layer_factory.hpp:74] Creating layer relu1_1
I0405 21:45:21.131893  4881 net.cpp:102] Creating Layer relu1_1
I0405 21:45:21.131901  4881 net.cpp:422] relu1_1 <- conv1_1
I0405 21:45:21.131916  4881 net.cpp:369] relu1_1 -> conv1_1 (in-place)
I0405 21:45:21.131925  4881 net.cpp:132] Setting up relu1_1
I0405 21:45:21.132675  4881 net.cpp:139] Top shape: 1 64 336 336 (7225344)
I0405 21:45:21.132685  4881 layer_factory.hpp:74] Creating layer conv1_2
I0405 21:45:21.132695  4881 net.cpp:102] Creating Layer conv1_2
I0405 21:45:21.132699  4881 net.cpp:422] conv1_2 <- conv1_1
I0405 21:45:21.132709  4881 net.cpp:380] conv1_2 -> conv1_2
I0405 21:45:21.132717  4881 net.cpp:132] Setting up conv1_2
I0405 21:45:21.135109  4881 net.cpp:139] Top shape: 1 64 336 336 (7225344)
I0405 21:45:21.135125  4881 layer_factory.hpp:74] Creating layer relu1_2
I0405 21:45:21.135135  4881 net.cpp:102] Creating Layer relu1_2
I0405 21:45:21.135140  4881 net.cpp:422] relu1_2 <- conv1_2
I0405 21:45:21.135148  4881 net.cpp:369] relu1_2 -> conv1_2 (in-place)
I0405 21:45:21.135162  4881 net.cpp:132] Setting up relu1_2
I0405 21:45:21.136073  4881 net.cpp:139] Top shape: 1 64 336 336 (7225344)
I0405 21:45:21.136082  4881 layer_factory.hpp:74] Creating layer pool1
I0405 21:45:21.136092  4881 net.cpp:102] Creating Layer pool1
I0405 21:45:21.136097  4881 net.cpp:422] pool1 <- conv1_2
I0405 21:45:21.136104  4881 net.cpp:380] pool1 -> pool1
I0405 21:45:21.136112  4881 net.cpp:132] Setting up pool1
I0405 21:45:21.136867  4881 net.cpp:139] Top shape: 1 64 168 168 (1806336)
I0405 21:45:21.136875  4881 layer_factory.hpp:74] Creating layer conv2_1
I0405 21:45:21.136888  4881 net.cpp:102] Creating Layer conv2_1
I0405 21:45:21.136893  4881 net.cpp:422] conv2_1 <- pool1
I0405 21:45:21.136899  4881 net.cpp:380] conv2_1 -> conv2_1
I0405 21:45:21.136916  4881 net.cpp:132] Setting up conv2_1
I0405 21:45:21.139230  4881 net.cpp:139] Top shape: 1 128 168 168 (3612672)
I0405 21:45:21.139246  4881 layer_factory.hpp:74] Creating layer relu2_1
I0405 21:45:21.139253  4881 net.cpp:102] Creating Layer relu2_1
I0405 21:45:21.139257  4881 net.cpp:422] relu2_1 <- conv2_1
I0405 21:45:21.139266  4881 net.cpp:369] relu2_1 -> conv2_1 (in-place)
I0405 21:45:21.139272  4881 net.cpp:132] Setting up relu2_1
I0405 21:45:21.140007  4881 net.cpp:139] Top shape: 1 128 168 168 (3612672)
I0405 21:45:21.140017  4881 layer_factory.hpp:74] Creating layer conv2_2
I0405 21:45:21.140025  4881 net.cpp:102] Creating Layer conv2_2
I0405 21:45:21.140030  4881 net.cpp:422] conv2_2 <- conv2_1
I0405 21:45:21.140038  4881 net.cpp:380] conv2_2 -> conv2_2
I0405 21:45:21.140045  4881 net.cpp:132] Setting up conv2_2
I0405 21:45:21.142727  4881 net.cpp:139] Top shape: 1 128 168 168 (3612672)
I0405 21:45:21.142751  4881 layer_factory.hpp:74] Creating layer relu2_2
I0405 21:45:21.142760  4881 net.cpp:102] Creating Layer relu2_2
I0405 21:45:21.142765  4881 net.cpp:422] relu2_2 <- conv2_2
I0405 21:45:21.142772  4881 net.cpp:369] relu2_2 -> conv2_2 (in-place)
I0405 21:45:21.142778  4881 net.cpp:132] Setting up relu2_2
I0405 21:45:21.143705  4881 net.cpp:139] Top shape: 1 128 168 168 (3612672)
I0405 21:45:21.143718  4881 layer_factory.hpp:74] Creating layer pool2
I0405 21:45:21.143728  4881 net.cpp:102] Creating Layer pool2
I0405 21:45:21.143733  4881 net.cpp:422] pool2 <- conv2_2
I0405 21:45:21.143739  4881 net.cpp:380] pool2 -> pool2
I0405 21:45:21.143746  4881 net.cpp:132] Setting up pool2
I0405 21:45:21.144538  4881 net.cpp:139] Top shape: 1 128 84 84 (903168)
I0405 21:45:21.144549  4881 layer_factory.hpp:74] Creating layer conv3_1
I0405 21:45:21.144558  4881 net.cpp:102] Creating Layer conv3_1
I0405 21:45:21.144563  4881 net.cpp:422] conv3_1 <- pool2
I0405 21:45:21.144570  4881 net.cpp:380] conv3_1 -> conv3_1
I0405 21:45:21.144578  4881 net.cpp:132] Setting up conv3_1
I0405 21:45:21.148154  4881 net.cpp:139] Top shape: 1 256 84 84 (1806336)
I0405 21:45:21.148180  4881 layer_factory.hpp:74] Creating layer relu3_1
I0405 21:45:21.148192  4881 net.cpp:102] Creating Layer relu3_1
I0405 21:45:21.148198  4881 net.cpp:422] relu3_1 <- conv3_1
I0405 21:45:21.148207  4881 net.cpp:369] relu3_1 -> conv3_1 (in-place)
I0405 21:45:21.148216  4881 net.cpp:132] Setting up relu3_1
I0405 21:45:21.148972  4881 net.cpp:139] Top shape: 1 256 84 84 (1806336)
I0405 21:45:21.148982  4881 layer_factory.hpp:74] Creating layer conv3_2
I0405 21:45:21.148991  4881 net.cpp:102] Creating Layer conv3_2
I0405 21:45:21.148996  4881 net.cpp:422] conv3_2 <- conv3_1
I0405 21:45:21.149003  4881 net.cpp:380] conv3_2 -> conv3_2
I0405 21:45:21.149011  4881 net.cpp:132] Setting up conv3_2
I0405 21:45:21.151942  4881 net.cpp:139] Top shape: 1 256 84 84 (1806336)
I0405 21:45:21.151957  4881 layer_factory.hpp:74] Creating layer relu3_2
I0405 21:45:21.151967  4881 net.cpp:102] Creating Layer relu3_2
I0405 21:45:21.151971  4881 net.cpp:422] relu3_2 <- conv3_2
I0405 21:45:21.151978  4881 net.cpp:369] relu3_2 -> conv3_2 (in-place)
I0405 21:45:21.151985  4881 net.cpp:132] Setting up relu3_2
I0405 21:45:21.152735  4881 net.cpp:139] Top shape: 1 256 84 84 (1806336)
I0405 21:45:21.152745  4881 layer_factory.hpp:74] Creating layer conv3_3
I0405 21:45:21.152755  4881 net.cpp:102] Creating Layer conv3_3
I0405 21:45:21.152760  4881 net.cpp:422] conv3_3 <- conv3_2
I0405 21:45:21.152767  4881 net.cpp:380] conv3_3 -> conv3_3
I0405 21:45:21.152776  4881 net.cpp:132] Setting up conv3_3
I0405 21:45:21.155901  4881 net.cpp:139] Top shape: 1 256 84 84 (1806336)
I0405 21:45:21.155917  4881 layer_factory.hpp:74] Creating layer relu3_3
I0405 21:45:21.155926  4881 net.cpp:102] Creating Layer relu3_3
I0405 21:45:21.155931  4881 net.cpp:422] relu3_3 <- conv3_3
I0405 21:45:21.155938  4881 net.cpp:369] relu3_3 -> conv3_3 (in-place)
I0405 21:45:21.155954  4881 net.cpp:132] Setting up relu3_3
I0405 21:45:21.156723  4881 net.cpp:139] Top shape: 1 256 84 84 (1806336)
I0405 21:45:21.156733  4881 layer_factory.hpp:74] Creating layer pool3
I0405 21:45:21.156743  4881 net.cpp:102] Creating Layer pool3
I0405 21:45:21.156747  4881 net.cpp:422] pool3 <- conv3_3
I0405 21:45:21.156755  4881 net.cpp:380] pool3 -> pool3
I0405 21:45:21.156762  4881 net.cpp:132] Setting up pool3
I0405 21:45:21.157726  4881 net.cpp:139] Top shape: 1 256 42 42 (451584)
I0405 21:45:21.157735  4881 layer_factory.hpp:74] Creating layer conv4_1
I0405 21:45:21.157743  4881 net.cpp:102] Creating Layer conv4_1
I0405 21:45:21.157748  4881 net.cpp:422] conv4_1 <- pool3
I0405 21:45:21.157755  4881 net.cpp:380] conv4_1 -> conv4_1
I0405 21:45:21.157765  4881 net.cpp:132] Setting up conv4_1
I0405 21:45:21.161510  4881 net.cpp:139] Top shape: 1 512 42 42 (903168)
I0405 21:45:21.161550  4881 layer_factory.hpp:74] Creating layer relu4_1
I0405 21:45:21.161562  4881 net.cpp:102] Creating Layer relu4_1
I0405 21:45:21.161569  4881 net.cpp:422] relu4_1 <- conv4_1
I0405 21:45:21.161587  4881 net.cpp:369] relu4_1 -> conv4_1 (in-place)
I0405 21:45:21.161605  4881 net.cpp:132] Setting up relu4_1
I0405 21:45:21.162482  4881 net.cpp:139] Top shape: 1 512 42 42 (903168)
I0405 21:45:21.162494  4881 layer_factory.hpp:74] Creating layer conv4_2
I0405 21:45:21.162508  4881 net.cpp:102] Creating Layer conv4_2
I0405 21:45:21.162516  4881 net.cpp:422] conv4_2 <- conv4_1
I0405 21:45:21.162526  4881 net.cpp:380] conv4_2 -> conv4_2
I0405 21:45:21.162539  4881 net.cpp:132] Setting up conv4_2
I0405 21:45:21.167922  4881 net.cpp:139] Top shape: 1 512 42 42 (903168)
I0405 21:45:21.167959  4881 layer_factory.hpp:74] Creating layer relu4_2
I0405 21:45:21.167971  4881 net.cpp:102] Creating Layer relu4_2
I0405 21:45:21.167978  4881 net.cpp:422] relu4_2 <- conv4_2
I0405 21:45:21.167995  4881 net.cpp:369] relu4_2 -> conv4_2 (in-place)
I0405 21:45:21.168005  4881 net.cpp:132] Setting up relu4_2
I0405 21:45:21.168783  4881 net.cpp:139] Top shape: 1 512 42 42 (903168)
I0405 21:45:21.168793  4881 layer_factory.hpp:74] Creating layer conv4_3
I0405 21:45:21.168802  4881 net.cpp:102] Creating Layer conv4_3
I0405 21:45:21.168807  4881 net.cpp:422] conv4_3 <- conv4_2
I0405 21:45:21.168815  4881 net.cpp:380] conv4_3 -> conv4_3
I0405 21:45:21.168824  4881 net.cpp:132] Setting up conv4_3
I0405 21:45:21.173389  4881 net.cpp:139] Top shape: 1 512 42 42 (903168)
I0405 21:45:21.173444  4881 layer_factory.hpp:74] Creating layer relu4_3
I0405 21:45:21.173467  4881 net.cpp:102] Creating Layer relu4_3
I0405 21:45:21.173475  4881 net.cpp:422] relu4_3 <- conv4_3
I0405 21:45:21.173493  4881 net.cpp:380] relu4_3 -> pool4
I0405 21:45:21.173504  4881 net.cpp:132] Setting up relu4_3
I0405 21:45:21.174290  4881 net.cpp:139] Top shape: 1 512 42 42 (903168)
I0405 21:45:21.174300  4881 layer_factory.hpp:74] Creating layer conv5_1
I0405 21:45:21.174310  4881 net.cpp:102] Creating Layer conv5_1
I0405 21:45:21.174314  4881 net.cpp:422] conv5_1 <- pool4
I0405 21:45:21.174324  4881 net.cpp:380] conv5_1 -> conv5_1
I0405 21:45:21.174331  4881 net.cpp:132] Setting up conv5_1
I0405 21:45:21.179159  4881 net.cpp:139] Top shape: 1 512 42 42 (903168)
I0405 21:45:21.179189  4881 layer_factory.hpp:74] Creating layer relu5_1
I0405 21:45:21.179203  4881 net.cpp:102] Creating Layer relu5_1
I0405 21:45:21.179208  4881 net.cpp:422] relu5_1 <- conv5_1
I0405 21:45:21.179217  4881 net.cpp:369] relu5_1 -> conv5_1 (in-place)
I0405 21:45:21.179225  4881 net.cpp:132] Setting up relu5_1
I0405 21:45:21.180186  4881 net.cpp:139] Top shape: 1 512 42 42 (903168)
I0405 21:45:21.180197  4881 layer_factory.hpp:74] Creating layer conv5_2
I0405 21:45:21.180207  4881 net.cpp:102] Creating Layer conv5_2
I0405 21:45:21.180212  4881 net.cpp:422] conv5_2 <- conv5_1
I0405 21:45:21.180218  4881 net.cpp:380] conv5_2 -> conv5_2
I0405 21:45:21.180227  4881 net.cpp:132] Setting up conv5_2
I0405 21:45:21.184599  4881 net.cpp:139] Top shape: 1 512 42 42 (903168)
I0405 21:45:21.184633  4881 layer_factory.hpp:74] Creating layer relu5_2
I0405 21:45:21.184644  4881 net.cpp:102] Creating Layer relu5_2
I0405 21:45:21.184651  4881 net.cpp:422] relu5_2 <- conv5_2
I0405 21:45:21.184660  4881 net.cpp:369] relu5_2 -> conv5_2 (in-place)
I0405 21:45:21.184669  4881 net.cpp:132] Setting up relu5_2
I0405 21:45:21.185420  4881 net.cpp:139] Top shape: 1 512 42 42 (903168)
I0405 21:45:21.185430  4881 layer_factory.hpp:74] Creating layer conv5_3
I0405 21:45:21.185444  4881 net.cpp:102] Creating Layer conv5_3
I0405 21:45:21.185449  4881 net.cpp:422] conv5_3 <- conv5_2
I0405 21:45:21.185456  4881 net.cpp:380] conv5_3 -> conv5_3
I0405 21:45:21.185464  4881 net.cpp:132] Setting up conv5_3
I0405 21:45:21.190388  4881 net.cpp:139] Top shape: 1 512 42 42 (903168)
I0405 21:45:21.190418  4881 layer_factory.hpp:74] Creating layer relu5_3
I0405 21:45:21.190429  4881 net.cpp:102] Creating Layer relu5_3
I0405 21:45:21.190436  4881 net.cpp:422] relu5_3 <- conv5_3
I0405 21:45:21.190446  4881 net.cpp:380] relu5_3 -> pool5
I0405 21:45:21.190455  4881 net.cpp:132] Setting up relu5_3
I0405 21:45:21.191249  4881 net.cpp:139] Top shape: 1 512 42 42 (903168)
I0405 21:45:21.191259  4881 layer_factory.hpp:74] Creating layer fcn6_new
I0405 21:45:21.191272  4881 net.cpp:102] Creating Layer fcn6_new
I0405 21:45:21.191277  4881 net.cpp:422] fcn6_new <- pool5
I0405 21:45:21.191284  4881 net.cpp:380] fcn6_new -> fconv6
I0405 21:45:21.191293  4881 net.cpp:132] Setting up fcn6_new
I0405 21:45:21.791043  4881 net.cpp:139] Top shape: 1 1024 42 42 (1806336)
I0405 21:45:21.791074  4881 layer_factory.hpp:74] Creating layer fconv6_bn
I0405 21:45:21.791090  4881 net.cpp:102] Creating Layer fconv6_bn
I0405 21:45:21.791096  4881 net.cpp:422] fconv6_bn <- fconv6
I0405 21:45:21.791106  4881 net.cpp:380] fconv6_bn -> fconv6_bn
I0405 21:45:21.791121  4881 net.cpp:132] Setting up fconv6_bn
I0405 21:45:21.791168  4881 net.cpp:139] Top shape: 1 1024 42 42 (1806336)
I0405 21:45:21.791178  4881 layer_factory.hpp:74] Creating layer relu6
I0405 21:45:21.791187  4881 net.cpp:102] Creating Layer relu6
I0405 21:45:21.791191  4881 net.cpp:422] relu6 <- fconv6_bn
I0405 21:45:21.791198  4881 net.cpp:369] relu6 -> fconv6_bn (in-place)
I0405 21:45:21.791204  4881 net.cpp:132] Setting up relu6
I0405 21:45:21.791970  4881 net.cpp:139] Top shape: 1 1024 42 42 (1806336)
I0405 21:45:21.791980  4881 layer_factory.hpp:74] Creating layer drop6
I0405 21:45:21.791990  4881 net.cpp:102] Creating Layer drop6
I0405 21:45:21.791993  4881 net.cpp:422] drop6 <- fconv6_bn
I0405 21:45:21.792001  4881 net.cpp:369] drop6 -> fconv6_bn (in-place)
I0405 21:45:21.792009  4881 net.cpp:132] Setting up drop6
I0405 21:45:21.792021  4881 net.cpp:139] Top shape: 1 1024 42 42 (1806336)
I0405 21:45:21.792024  4881 layer_factory.hpp:74] Creating layer fconv6_bn_drop6_0_split
I0405 21:45:21.792040  4881 net.cpp:102] Creating Layer fconv6_bn_drop6_0_split
I0405 21:45:21.792044  4881 net.cpp:422] fconv6_bn_drop6_0_split <- fconv6_bn
I0405 21:45:21.792054  4881 net.cpp:380] fconv6_bn_drop6_0_split -> fconv6_bn_drop6_0_split_0
I0405 21:45:21.792069  4881 net.cpp:380] fconv6_bn_drop6_0_split -> fconv6_bn_drop6_0_split_1
…
I0405 21:45:21.792560  4881 net.cpp:380] fconv6_bn_drop6_0_split -> fconv6_bn_drop6_0_split_47
I0405 21:45:21.792570  4881 net.cpp:380] fconv6_bn_drop6_0_split -> fconv6_bn_drop6_0_split_48
I0405 21:45:21.792582  4881 net.cpp:380] fconv6_bn_drop6_0_split -> fconv6_bn_drop6_0_split_49
I0405 21:45:21.792593  4881 net.cpp:380] fconv6_bn_drop6_0_split -> fconv6_bn_drop6_0_split_50
I0405 21:45:21.792603  4881 net.cpp:380] fconv6_bn_drop6_0_split -> fconv6_bn_drop6_0_split_51
I0405 21:45:21.792614  4881 net.cpp:380] fconv6_bn_drop6_0_split -> fconv6_bn_drop6_0_split_52
I0405 21:45:21.792623  4881 net.cpp:132] Setting up fconv6_bn_drop6_0_split
I0405 21:45:21.792645  4881 net.cpp:139] Top shape: 1 1024 42 42 (1806336)
I0405 21:45:21.792652  4881 net.cpp:139] Top shape: 1 1024 42 42 (1806336)
I0405 21:45:21.792657  4881 net.cpp:139] Top shape: 1 1024 42 42 (1806336)
I0405 21:45:21.792662  4881 net.cpp:139] Top shape: 1 1024 42 42 (1806336)
I0405 21:45:21.792667  4881 net.cpp:139] Top shape: 1 1024 42 42 (1806336)
I0405 21:45:21.792673  4881 net.cpp:139] Top shape: 1 1024 42 42 (1806336)
I0405 21:45:21.792680  4881 net.cpp:139] Top shape: 1 1024 42 42 (1806336)
I0405 21:45:21.792685  4881 net.cpp:139] Top shape: 1 1024 42 42 (1806336)
I0405 21:45:21.792690  4881 net.cpp:139] Top shape: 1 1024 42 42 (1806336)
I0405 21:45:21.792695  4881 net.cpp:139] Top shape: 1 1024 42 42 (1806336)
I0405 21:45:21.792700  4881 net.cpp:139] Top shape: 1 1024 42 42 (1806336)
I0405 21:45:21.792704  4881 net.cpp:139] Top shape: 1 1024 42 42 (1806336)
I0405 21:45:21.792709  4881 net.cpp:139] Top shape: 1 1024 42 42 (1806336)
I0405 21:45:21.792714  4881 net.cpp:139] Top shape: 1 1024 42 42 (1806336)
I0405 21:45:21.792719  4881 net.cpp:139] Top shape: 1 1024 42 42 (1806336)
I0405 21:45:21.792724  4881 net.cpp:139] Top shape: 1 1024 42 42 (1806336)
I0405 21:45:21.792729  4881 net.cpp:139] Top shape: 1 1024 42 42 (1806336)
I0405 21:45:21.792734  4881 net.cpp:139] Top shape: 1 1024 42 42 (1806336)
I0405 21:45:21.792739  4881 net.cpp:139] Top shape: 1 1024 42 42 (1806336)
I0405 21:45:21.792744  4881 net.cpp:139] Top shape: 1 1024 42 42 (1806336)
I0405 21:45:21.792749  4881 net.cpp:139] Top shape: 1 1024 42 42 (1806336)
I0405 21:45:21.792754  4881 net.cpp:139] Top shape: 1 1024 42 42 (1806336)
I0405 21:45:21.792759  4881 net.cpp:139] Top shape: 1 1024 42 42 (1806336)
I0405 21:45:21.792764  4881 net.cpp:139] Top shape: 1 1024 42 42 (1806336)
I0405 21:45:21.792769  4881 net.cpp:139] Top shape: 1 1024 42 42 (1806336)
I0405 21:45:21.792774  4881 net.cpp:139] Top shape: 1 1024 42 42 (1806336)
I0405 21:45:21.792779  4881 net.cpp:139] Top shape: 1 1024 42 42 (1806336)
I0405 21:45:21.792784  4881 net.cpp:139] Top shape: 1 1024 42 42 (1806336)
I0405 21:45:21.792789  4881 net.cpp:139] Top shape: 1 1024 42 42 (1806336)
I0405 21:45:21.792794  4881 net.cpp:139] Top shape: 1 1024 42 42 (1806336)
I0405 21:45:21.792799  4881 net.cpp:139] Top shape: 1 1024 42 42 (1806336)
I0405 21:45:21.792804  4881 net.cpp:139] Top shape: 1 1024 42 42 (1806336)
I0405 21:45:21.792809  4881 net.cpp:139] Top shape: 1 1024 42 42 (1806336)
I0405 21:45:21.792814  4881 net.cpp:139] Top shape: 1 1024 42 42 (1806336)
I0405 21:45:21.792819  4881 net.cpp:139] Top shape: 1 1024 42 42 (1806336)
I0405 21:45:21.792824  4881 net.cpp:139] Top shape: 1 1024 42 42 (1806336)
I0405 21:45:21.792829  4881 net.cpp:139] Top shape: 1 1024 42 42 (1806336)
I0405 21:45:21.792834  4881 net.cpp:139] Top shape: 1 1024 42 42 (1806336)
I0405 21:45:21.792841  4881 net.cpp:139] Top shape: 1 1024 42 42 (1806336)
I0405 21:45:21.792846  4881 net.cpp:139] Top shape: 1 1024 42 42 (1806336)
I0405 21:45:21.792851  4881 net.cpp:139] Top shape: 1 1024 42 42 (1806336)
I0405 21:45:21.792856  4881 net.cpp:139] Top shape: 1 1024 42 42 (1806336)
I0405 21:45:21.792861  4881 net.cpp:139] Top shape: 1 1024 42 42 (1806336)
I0405 21:45:21.792866  4881 net.cpp:139] Top shape: 1 1024 42 42 (1806336)
I0405 21:45:21.792871  4881 net.cpp:139] Top shape: 1 1024 42 42 (1806336)
I0405 21:45:21.792876  4881 net.cpp:139] Top shape: 1 1024 42 42 (1806336)
I0405 21:45:21.792881  4881 net.cpp:139] Top shape: 1 1024 42 42 (1806336)
I0405 21:45:21.792886  4881 net.cpp:139] Top shape: 1 1024 42 42 (1806336)
I0405 21:45:21.792892  4881 net.cpp:139] Top shape: 1 1024 42 42 (1806336)
I0405 21:45:21.792897  4881 net.cpp:139] Top shape: 1 1024 42 42 (1806336)
I0405 21:45:21.792902  4881 net.cpp:139] Top shape: 1 1024 42 42 (1806336)
I0405 21:45:21.792907  4881 net.cpp:139] Top shape: 1 1024 42 42 (1806336)
I0405 21:45:21.792912  4881 net.cpp:139] Top shape: 1 1024 42 42 (1806336)
I0405 21:45:21.792917  4881 layer_factory.hpp:74] Creating layer fconv7_7
I0405 21:45:21.792924  4881 net.cpp:102] Creating Layer fconv7_7
I0405 21:45:21.792929  4881 net.cpp:422] fconv7_7 <- fconv6_bn_drop6_0_split_0
I0405 21:45:21.792937  4881 net.cpp:380] fconv7_7 -> fconv7_7
I0405 21:45:21.792943  4881 net.cpp:132] Setting up fconv7_7
I0405 21:45:21.798395  4881 net.cpp:139] Top shape: 1 128 42 42 (225792)
I0405 21:45:21.798416  4881 layer_factory.hpp:74] Creating layer relu7_7
I0405 21:45:21.798425  4881 net.cpp:102] Creating Layer relu7_7
I0405 21:45:21.798430  4881 net.cpp:422] relu7_7 <- fconv7_7
I0405 21:45:21.798436  4881 net.cpp:380] relu7_7 -> fconv7_7+
I0405 21:45:21.798444  4881 net.cpp:132] Setting up relu7_7
I0405 21:45:21.799233  4881 net.cpp:139] Top shape: 1 128 42 42 (225792)
I0405 21:45:21.799243  4881 layer_factory.hpp:74] Creating layer fconv7_7+_relu7_7_0_split
I0405 21:45:21.799249  4881 net.cpp:102] Creating Layer fconv7_7+_relu7_7_0_split
I0405 21:45:21.799254  4881 net.cpp:422] fconv7_7+_relu7_7_0_split <- fconv7_7+
I0405 21:45:21.799260  4881 net.cpp:380] fconv7_7+_relu7_7_0_split -> fconv7_7+_relu7_7_0_split_0
I0405 21:45:21.799268  4881 net.cpp:380] fconv7_7+_relu7_7_0_split -> fconv7_7+_relu7_7_0_split_1
I0405 21:45:21.799274  4881 net.cpp:132] Setting up fconv7_7+_relu7_7_0_split
I0405 21:45:21.799281  4881 net.cpp:139] Top shape: 1 128 42 42 (225792)
I0405 21:45:21.799286  4881 net.cpp:139] Top shape: 1 128 42 42 (225792)
I0405 21:45:21.799291  4881 layer_factory.hpp:74] Creating layer fconv7_7to6_step1
I0405 21:45:21.799300  4881 net.cpp:102] Creating Layer fconv7_7to6_step1
I0405 21:45:21.799309  4881 net.cpp:422] fconv7_7to6_step1 <- fconv7_7+_relu7_7_0_split_0
I0405 21:45:21.799316  4881 net.cpp:380] fconv7_7to6_step1 -> fconv7_7to6_step1
I0405 21:45:21.799324  4881 net.cpp:132] Setting up fconv7_7to6_step1
I0405 21:45:21.812561  4881 net.cpp:139] Top shape: 1 64 42 42 (112896)
I0405 21:45:21.812584  4881 layer_factory.hpp:74] Creating layer relu7_7to6_step1
I0405 21:45:21.812594  4881 net.cpp:102] Creating Layer relu7_7to6_step1
I0405 21:45:21.812602  4881 net.cpp:422] relu7_7to6_step1 <- fconv7_7to6_step1
I0405 21:45:21.812610  4881 net.cpp:369] relu7_7to6_step1 -> fconv7_7to6_step1 (in-place)
I0405 21:45:21.812620  4881 net.cpp:132] Setting up relu7_7to6_step1
I0405 21:45:21.813410  4881 net.cpp:139] Top shape: 1 64 42 42 (112896)
I0405 21:45:21.813421  4881 layer_factory.hpp:74] Creating layer fconv7_7to6_step2
I0405 21:45:21.813431  4881 net.cpp:102] Creating Layer fconv7_7to6_step2
I0405 21:45:21.813437  4881 net.cpp:422] fconv7_7to6_step2 <- fconv7_7to6_step1
I0405 21:45:21.813446  4881 net.cpp:380] fconv7_7to6_step2 -> fconv7_7to6_step2
I0405 21:45:21.813454  4881 net.cpp:132] Setting up fconv7_7to6_step2
I0405 21:45:21.826428  4881 net.cpp:139] Top shape: 1 128 42 42 (225792)
I0405 21:45:21.826452  4881 layer_factory.hpp:74] Creating layer fconv7_6
I0405 21:45:21.826467  4881 net.cpp:102] Creating Layer fconv7_6
I0405 21:45:21.826472  4881 net.cpp:422] fconv7_6 <- fconv6_bn_drop6_0_split_1
I0405 21:45:21.826493  4881 net.cpp:380] fconv7_6 -> fconv7_6
I0405 21:45:21.826503  4881 net.cpp:132] Setting up fconv7_6
I0405 21:45:21.832016  4881 net.cpp:139] Top shape: 1 128 42 42 (225792)
I0405 21:45:21.832031  4881 layer_factory.hpp:74] Creating layer Pass_7to6
I0405 21:45:21.832044  4881 net.cpp:102] Creating Layer Pass_7to6
I0405 21:45:21.832051  4881 net.cpp:422] Pass_7to6 <- fconv7_7to6_step2
I0405 21:45:21.832056  4881 net.cpp:422] Pass_7to6 <- fconv7_6
I0405 21:45:21.832072  4881 net.cpp:380] Pass_7to6 -> fconv7_6+
I0405 21:45:21.832079  4881 net.cpp:132] Setting up Pass_7to6
I0405 21:45:21.832093  4881 net.cpp:139] Top shape: 1 128 42 42 (225792)
I0405 21:45:21.832098  4881 layer_factory.hpp:74] Creating layer relu7_6
I0405 21:45:21.832106  4881 net.cpp:102] Creating Layer relu7_6
I0405 21:45:21.832111  4881 net.cpp:422] relu7_6 <- fconv7_6+
I0405 21:45:21.832118  4881 net.cpp:369] relu7_6 -> fconv7_6+ (in-place)
I0405 21:45:21.832123  4881 net.cpp:132] Setting up relu7_6
I0405 21:45:21.833117  4881 net.cpp:139] Top shape: 1 128 42 42 (225792)
I0405 21:45:21.833127  4881 layer_factory.hpp:74] Creating layer fconv7_6+_relu7_6_0_split
I0405 21:45:21.833134  4881 net.cpp:102] Creating Layer fconv7_6+_relu7_6_0_split
I0405 21:45:21.833139  4881 net.cpp:422] fconv7_6+_relu7_6_0_split <- fconv7_6+
I0405 21:45:21.833148  4881 net.cpp:380] fconv7_6+_relu7_6_0_split -> fconv7_6+_relu7_6_0_split_0
I0405 21:45:21.833156  4881 net.cpp:380] fconv7_6+_relu7_6_0_split -> fconv7_6+_relu7_6_0_split_1
I0405 21:45:21.833171  4881 net.cpp:132] Setting up fconv7_6+_relu7_6_0_split
I0405 21:45:21.833179  4881 net.cpp:139] Top shape: 1 128 42 42 (225792)
I0405 21:45:21.833184  4881 net.cpp:139] Top shape: 1 128 42 42 (225792)
I0405 21:45:21.833189  4881 layer_factory.hpp:74] Creating layer fconv7_6to5_step1
I0405 21:45:21.833199  4881 net.cpp:102] Creating Layer fconv7_6to5_step1
I0405 21:45:21.833204  4881 net.cpp:422] fconv7_6to5_step1 <- fconv7_6+_relu7_6_0_split_0
I0405 21:45:21.833210  4881 net.cpp:380] fconv7_6to5_step1 -> fconv7_6to5_step1
I0405 21:45:21.833219  4881 net.cpp:132] Setting up fconv7_6to5_step1
I0405 21:45:21.845091  4881 net.cpp:139] Top shape: 1 64 42 42 (112896)
I0405 21:45:21.845105  4881 layer_factory.hpp:74] Creating layer relu7_6to5_step1
I0405 21:45:21.845114  4881 net.cpp:102] Creating Layer relu7_6to5_step1
I0405 21:45:21.845119  4881 net.cpp:422] relu7_6to5_step1 <- fconv7_6to5_step1
I0405 21:45:21.845126  4881 net.cpp:369] relu7_6to5_step1 -> fconv7_6to5_step1 (in-place)
I0405 21:45:21.845134  4881 net.cpp:132] Setting up relu7_6to5_step1
I0405 21:45:21.845944  4881 net.cpp:139] Top shape: 1 64 42 42 (112896)
I0405 21:45:21.845955  4881 layer_factory.hpp:74] Creating layer fconv7_6to5_step2
I0405 21:45:21.845964  4881 net.cpp:102] Creating Layer fconv7_6to5_step2
I0405 21:45:21.845969  4881 net.cpp:422] fconv7_6to5_step2 <- fconv7_6to5_step1
I0405 21:45:21.845978  4881 net.cpp:380] fconv7_6to5_step2 -> fconv7_6to5_step2
I0405 21:45:21.845986  4881 net.cpp:132] Setting up fconv7_6to5_step2
I0405 21:45:21.858937  4881 net.cpp:139] Top shape: 1 128 42 42 (225792)
I0405 21:45:21.858959  4881 layer_factory.hpp:74] Creating layer fconv7_5
I0405 21:45:21.858971  4881 net.cpp:102] Creating Layer fconv7_5
I0405 21:45:21.858978  4881 net.cpp:422] fconv7_5 <- fconv6_bn_drop6_0_split_2
I0405 21:45:21.858989  4881 net.cpp:380] fconv7_5 -> fconv7_5
I0405 21:45:21.859009  4881 net.cpp:132] Setting up fconv7_5
I0405 21:45:21.864511  4881 net.cpp:139] Top shape: 1 128 42 42 (225792)
I0405 21:45:21.864524  4881 layer_factory.hpp:74] Creating layer Pass_6to5
I0405 21:45:21.864532  4881 net.cpp:102] Creating Layer Pass_6to5
I0405 21:45:21.864538  4881 net.cpp:422] Pass_6to5 <- fconv7_6to5_step2
I0405 21:45:21.864544  4881 net.cpp:422] Pass_6to5 <- fconv7_5
I0405 21:45:21.864552  4881 net.cpp:380] Pass_6to5 -> fconv7_5+
I0405 21:45:21.864569  4881 net.cpp:132] Setting up Pass_6to5
I0405 21:45:21.864578  4881 net.cpp:139] Top shape: 1 128 42 42 (225792)
I0405 21:45:21.864583  4881 layer_factory.hpp:74] Creating layer relu7_5
I0405 21:45:21.864588  4881 net.cpp:102] Creating Layer relu7_5
I0405 21:45:21.864593  4881 net.cpp:422] relu7_5 <- fconv7_5+
I0405 21:45:21.864599  4881 net.cpp:369] relu7_5 -> fconv7_5+ (in-place)
I0405 21:45:21.864605  4881 net.cpp:132] Setting up relu7_5
I0405 21:45:21.865573  4881 net.cpp:139] Top shape: 1 128 42 42 (225792)
I0405 21:45:21.865583  4881 layer_factory.hpp:74] Creating layer fconv7_5+_relu7_5_0_split
I0405 21:45:21.865592  4881 net.cpp:102] Creating Layer fconv7_5+_relu7_5_0_split
I0405 21:45:21.865597  4881 net.cpp:422] fconv7_5+_relu7_5_0_split <- fconv7_5+
I0405 21:45:21.865602  4881 net.cpp:380] fconv7_5+_relu7_5_0_split -> fconv7_5+_relu7_5_0_split_0
I0405 21:45:21.865609  4881 net.cpp:380] fconv7_5+_relu7_5_0_split -> fconv7_5+_relu7_5_0_split_1
I0405 21:45:21.865625  4881 net.cpp:132] Setting up fconv7_5+_relu7_5_0_split
I0405 21:45:21.865633  4881 net.cpp:139] Top shape: 1 128 42 42 (225792)
I0405 21:45:21.865638  4881 net.cpp:139] Top shape: 1 128 42 42 (225792)
I0405 21:45:21.865643  4881 layer_factory.hpp:74] Creating layer fconv7_5to4_step1
I0405 21:45:21.865653  4881 net.cpp:102] Creating Layer fconv7_5to4_step1
I0405 21:45:21.865658  4881 net.cpp:422] fconv7_5to4_step1 <- fconv7_5+_relu7_5_0_split_0
I0405 21:45:21.865666  4881 net.cpp:380] fconv7_5to4_step1 -> fconv7_5to4_step1
I0405 21:45:21.865674  4881 net.cpp:132] Setting up fconv7_5to4_step1
I0405 21:45:21.878028  4881 net.cpp:139] Top shape: 1 64 42 42 (112896)
I0405 21:45:21.878046  4881 layer_factory.hpp:74] Creating layer relu7_5to4_step1
I0405 21:45:21.878056  4881 net.cpp:102] Creating Layer relu7_5to4_step1
I0405 21:45:21.878062  4881 net.cpp:422] relu7_5to4_step1 <- fconv7_5to4_step1
I0405 21:45:21.878068  4881 net.cpp:369] relu7_5to4_step1 -> fconv7_5to4_step1 (in-place)
I0405 21:45:21.878084  4881 net.cpp:132] Setting up relu7_5to4_step1
I0405 21:45:21.878887  4881 net.cpp:139] Top shape: 1 64 42 42 (112896)
I0405 21:45:21.878897  4881 layer_factory.hpp:74] Creating layer fconv7_5to4_step2
I0405 21:45:21.878908  4881 net.cpp:102] Creating Layer fconv7_5to4_step2
I0405 21:45:21.878913  4881 net.cpp:422] fconv7_5to4_step2 <- fconv7_5to4_step1
I0405 21:45:21.878922  4881 net.cpp:380] fconv7_5to4_step2 -> fconv7_5to4_step2
I0405 21:45:21.878939  4881 net.cpp:132] Setting up fconv7_5to4_step2
I0405 21:45:21.891788  4881 net.cpp:139] Top shape: 1 128 42 42 (225792)
I0405 21:45:21.891813  4881 layer_factory.hpp:74] Creating layer fconv7_4
I0405 21:45:21.891825  4881 net.cpp:102] Creating Layer fconv7_4
I0405 21:45:21.891832  4881 net.cpp:422] fconv7_4 <- fconv6_bn_drop6_0_split_3
I0405 21:45:21.891841  4881 net.cpp:380] fconv7_4 -> fconv7_4
I0405 21:45:21.891861  4881 net.cpp:132] Setting up fconv7_4
I0405 21:45:21.897658  4881 net.cpp:139] Top shape: 1 128 42 42 (225792)
I0405 21:45:21.897672  4881 layer_factory.hpp:74] Creating layer Pass_5to4
I0405 21:45:21.897680  4881 net.cpp:102] Creating Layer Pass_5to4
I0405 21:45:21.897685  4881 net.cpp:422] Pass_5to4 <- fconv7_5to4_step2
I0405 21:45:21.897691  4881 net.cpp:422] Pass_5to4 <- fconv7_4
I0405 21:45:21.897697  4881 net.cpp:380] Pass_5to4 -> fconv7_4+
I0405 21:45:21.897713  4881 net.cpp:132] Setting up Pass_5to4
I0405 21:45:21.897722  4881 net.cpp:139] Top shape: 1 128 42 42 (225792)
I0405 21:45:21.897727  4881 layer_factory.hpp:74] Creating layer relu7_4
I0405 21:45:21.897735  4881 net.cpp:102] Creating Layer relu7_4
I0405 21:45:21.897740  4881 net.cpp:422] relu7_4 <- fconv7_4+
I0405 21:45:21.897747  4881 net.cpp:369] relu7_4 -> fconv7_4+ (in-place)
I0405 21:45:21.897753  4881 net.cpp:132] Setting up relu7_4
I0405 21:45:21.898545  4881 net.cpp:139] Top shape: 1 128 42 42 (225792)
I0405 21:45:21.898555  4881 layer_factory.hpp:74] Creating layer fconv7_4+_relu7_4_0_split
I0405 21:45:21.898563  4881 net.cpp:102] Creating Layer fconv7_4+_relu7_4_0_split
I0405 21:45:21.898568  4881 net.cpp:422] fconv7_4+_relu7_4_0_split <- fconv7_4+
I0405 21:45:21.898576  4881 net.cpp:380] fconv7_4+_relu7_4_0_split -> fconv7_4+_relu7_4_0_split_0
I0405 21:45:21.898583  4881 net.cpp:380] fconv7_4+_relu7_4_0_split -> fconv7_4+_relu7_4_0_split_1
I0405 21:45:21.898598  4881 net.cpp:132] Setting up fconv7_4+_relu7_4_0_split
I0405 21:45:21.898607  4881 net.cpp:139] Top shape: 1 128 42 42 (225792)
I0405 21:45:21.898613  4881 net.cpp:139] Top shape: 1 128 42 42 (225792)
I0405 21:45:21.898618  4881 layer_factory.hpp:74] Creating layer fconv7_4to3_step1
I0405 21:45:21.898625  4881 net.cpp:102] Creating Layer fconv7_4to3_step1
I0405 21:45:21.898630  4881 net.cpp:422] fconv7_4to3_step1 <- fconv7_4+_relu7_4_0_split_0
I0405 21:45:21.898640  4881 net.cpp:380] fconv7_4to3_step1 -> fconv7_4to3_step1
I0405 21:45:21.898648  4881 net.cpp:132] Setting up fconv7_4to3_step1
I0405 21:45:21.910778  4881 net.cpp:139] Top shape: 1 64 42 42 (112896)
I0405 21:45:21.910794  4881 layer_factory.hpp:74] Creating layer relu7_4to3_step1
I0405 21:45:21.910810  4881 net.cpp:102] Creating Layer relu7_4to3_step1
I0405 21:45:21.910816  4881 net.cpp:422] relu7_4to3_step1 <- fconv7_4to3_step1
I0405 21:45:21.910833  4881 net.cpp:369] relu7_4to3_step1 -> fconv7_4to3_step1 (in-place)
I0405 21:45:21.910841  4881 net.cpp:132] Setting up relu7_4to3_step1
I0405 21:45:21.911639  4881 net.cpp:139] Top shape: 1 64 42 42 (112896)
I0405 21:45:21.911653  4881 layer_factory.hpp:74] Creating layer fconv7_4to3_step2
I0405 21:45:21.911664  4881 net.cpp:102] Creating Layer fconv7_4to3_step2
I0405 21:45:21.911669  4881 net.cpp:422] fconv7_4to3_step2 <- fconv7_4to3_step1
I0405 21:45:21.911675  4881 net.cpp:380] fconv7_4to3_step2 -> fconv7_4to3_step2
I0405 21:45:21.911692  4881 net.cpp:132] Setting up fconv7_4to3_step2
I0405 21:45:21.924536  4881 net.cpp:139] Top shape: 1 128 42 42 (225792)
I0405 21:45:21.924561  4881 layer_factory.hpp:74] Creating layer fconv7_14
I0405 21:45:21.924572  4881 net.cpp:102] Creating Layer fconv7_14
I0405 21:45:21.924579  4881 net.cpp:422] fconv7_14 <- fconv6_bn_drop6_0_split_4
I0405 21:45:21.924590  4881 net.cpp:380] fconv7_14 -> fconv7_14
I0405 21:45:21.924609  4881 net.cpp:132] Setting up fconv7_14
I0405 21:45:21.930325  4881 net.cpp:139] Top shape: 1 128 42 42 (225792)
I0405 21:45:21.930337  4881 layer_factory.hpp:74] Creating layer relu7_14
I0405 21:45:21.930346  4881 net.cpp:102] Creating Layer relu7_14
I0405 21:45:21.930352  4881 net.cpp:422] relu7_14 <- fconv7_14
I0405 21:45:21.930358  4881 net.cpp:380] relu7_14 -> fconv7_14+
I0405 21:45:21.930366  4881 net.cpp:132] Setting up relu7_14
I0405 21:45:21.931177  4881 net.cpp:139] Top shape: 1 128 42 42 (225792)
I0405 21:45:21.931190  4881 layer_factory.hpp:74] Creating layer fconv7_14+_relu7_14_0_split
I0405 21:45:21.931196  4881 net.cpp:102] Creating Layer fconv7_14+_relu7_14_0_split
I0405 21:45:21.931201  4881 net.cpp:422] fconv7_14+_relu7_14_0_split <- fconv7_14+
I0405 21:45:21.931210  4881 net.cpp:380] fconv7_14+_relu7_14_0_split -> fconv7_14+_relu7_14_0_split_0
I0405 21:45:21.931217  4881 net.cpp:380] fconv7_14+_relu7_14_0_split -> fconv7_14+_relu7_14_0_split_1
I0405 21:45:21.931234  4881 net.cpp:132] Setting up fconv7_14+_relu7_14_0_split
I0405 21:45:21.931241  4881 net.cpp:139] Top shape: 1 128 42 42 (225792)
I0405 21:45:21.931246  4881 net.cpp:139] Top shape: 1 128 42 42 (225792)
I0405 21:45:21.931252  4881 layer_factory.hpp:74] Creating layer fconv7_14to13_step1
I0405 21:45:21.931259  4881 net.cpp:102] Creating Layer fconv7_14to13_step1
I0405 21:45:21.931264  4881 net.cpp:422] fconv7_14to13_step1 <- fconv7_14+_relu7_14_0_split_0
I0405 21:45:21.931272  4881 net.cpp:380] fconv7_14to13_step1 -> fconv7_14to13_step1
I0405 21:45:21.931280  4881 net.cpp:132] Setting up fconv7_14to13_step1
I0405 21:45:21.943231  4881 net.cpp:139] Top shape: 1 64 42 42 (112896)
I0405 21:45:21.943245  4881 layer_factory.hpp:74] Creating layer relu7_14to13_step1
I0405 21:45:21.943254  4881 net.cpp:102] Creating Layer relu7_14to13_step1
I0405 21:45:21.943259  4881 net.cpp:422] relu7_14to13_step1 <- fconv7_14to13_step1
I0405 21:45:21.943267  4881 net.cpp:369] relu7_14to13_step1 -> fconv7_14to13_step1 (in-place)
I0405 21:45:21.943274  4881 net.cpp:132] Setting up relu7_14to13_step1
I0405 21:45:21.944142  4881 net.cpp:139] Top shape: 1 64 42 42 (112896)
I0405 21:45:21.944154  4881 layer_factory.hpp:74] Creating layer fconv7_14to13_step2
I0405 21:45:21.944180  4881 net.cpp:102] Creating Layer fconv7_14to13_step2
I0405 21:45:21.944185  4881 net.cpp:422] fconv7_14to13_step2 <- fconv7_14to13_step1
I0405 21:45:21.944195  4881 net.cpp:380] fconv7_14to13_step2 -> fconv7_14to13_step2
I0405 21:45:21.944212  4881 net.cpp:132] Setting up fconv7_14to13_step2
I0405 21:45:21.957278  4881 net.cpp:139] Top shape: 1 128 42 42 (225792)
I0405 21:45:21.957303  4881 layer_factory.hpp:74] Creating layer fconv7_13
I0405 21:45:21.957316  4881 net.cpp:102] Creating Layer fconv7_13
I0405 21:45:21.957324  4881 net.cpp:422] fconv7_13 <- fconv6_bn_drop6_0_split_5
I0405 21:45:21.957335  4881 net.cpp:380] fconv7_13 -> fconv7_13
I0405 21:45:21.957355  4881 net.cpp:132] Setting up fconv7_13
I0405 21:45:21.963570  4881 net.cpp:139] Top shape: 1 128 42 42 (225792)
I0405 21:45:21.963593  4881 layer_factory.hpp:74] Creating layer Pass_14to13
I0405 21:45:21.963609  4881 net.cpp:102] Creating Layer Pass_14to13
I0405 21:45:21.963620  4881 net.cpp:422] Pass_14to13 <- fconv7_14to13_step2
I0405 21:45:21.963645  4881 net.cpp:422] Pass_14to13 <- fconv7_13
I0405 21:45:21.963657  4881 net.cpp:380] Pass_14to13 -> fconv7_13+
I0405 21:45:21.963676  4881 net.cpp:132] Setting up Pass_14to13
I0405 21:45:21.963688  4881 net.cpp:139] Top shape: 1 128 42 42 (225792)
I0405 21:45:21.963696  4881 layer_factory.hpp:74] Creating layer relu7_13
I0405 21:45:21.963712  4881 net.cpp:102] Creating Layer relu7_13
I0405 21:45:21.963721  4881 net.cpp:422] relu7_13 <- fconv7_13+
I0405 21:45:21.963732  4881 net.cpp:369] relu7_13 -> fconv7_13+ (in-place)
I0405 21:45:21.963742  4881 net.cpp:132] Setting up relu7_13
I0405 21:45:21.964670  4881 net.cpp:139] Top shape: 1 128 42 42 (225792)
I0405 21:45:21.964681  4881 layer_factory.hpp:74] Creating layer fconv7_13+_relu7_13_0_split
I0405 21:45:21.964689  4881 net.cpp:102] Creating Layer fconv7_13+_relu7_13_0_split
I0405 21:45:21.964694  4881 net.cpp:422] fconv7_13+_relu7_13_0_split <- fconv7_13+
I0405 21:45:21.964702  4881 net.cpp:380] fconv7_13+_relu7_13_0_split -> fconv7_13+_relu7_13_0_split_0
I0405 21:45:21.964711  4881 net.cpp:380] fconv7_13+_relu7_13_0_split -> fconv7_13+_relu7_13_0_split_1
I0405 21:45:21.964727  4881 net.cpp:132] Setting up fconv7_13+_relu7_13_0_split
I0405 21:45:21.964735  4881 net.cpp:139] Top shape: 1 128 42 42 (225792)
I0405 21:45:21.964740  4881 net.cpp:139] Top shape: 1 128 42 42 (225792)
I0405 21:45:21.964745  4881 layer_factory.hpp:74] Creating layer fconv7_13to12_step1
I0405 21:45:21.964756  4881 net.cpp:102] Creating Layer fconv7_13to12_step1
I0405 21:45:21.964761  4881 net.cpp:422] fconv7_13to12_step1 <- fconv7_13+_relu7_13_0_split_0
I0405 21:45:21.964767  4881 net.cpp:380] fconv7_13to12_step1 -> fconv7_13to12_step1
I0405 21:45:21.964774  4881 net.cpp:132] Setting up fconv7_13to12_step1
I0405 21:45:21.977066  4881 net.cpp:139] Top shape: 1 64 42 42 (112896)
I0405 21:45:21.977102  4881 layer_factory.hpp:74] Creating layer relu7_13to12_step1
I0405 21:45:21.977113  4881 net.cpp:102] Creating Layer relu7_13to12_step1
I0405 21:45:21.977120  4881 net.cpp:422] relu7_13to12_step1 <- fconv7_13to12_step1
I0405 21:45:21.977138  4881 net.cpp:369] relu7_13to12_step1 -> fconv7_13to12_step1 (in-place)
I0405 21:45:21.977146  4881 net.cpp:132] Setting up relu7_13to12_step1
I0405 21:45:21.978190  4881 net.cpp:139] Top shape: 1 64 42 42 (112896)
I0405 21:45:21.978201  4881 layer_factory.hpp:74] Creating layer fconv7_13to12_step2
I0405 21:45:21.978211  4881 net.cpp:102] Creating Layer fconv7_13to12_step2
I0405 21:45:21.978217  4881 net.cpp:422] fconv7_13to12_step2 <- fconv7_13to12_step1
I0405 21:45:21.978225  4881 net.cpp:380] fconv7_13to12_step2 -> fconv7_13to12_step2
I0405 21:45:21.978235  4881 net.cpp:132] Setting up fconv7_13to12_step2
I0405 21:45:21.990911  4881 net.cpp:139] Top shape: 1 128 42 42 (225792)
I0405 21:45:21.990933  4881 layer_factory.hpp:74] Creating layer fconv7_12
I0405 21:45:21.990943  4881 net.cpp:102] Creating Layer fconv7_12
I0405 21:45:21.990950  4881 net.cpp:422] fconv7_12 <- fconv6_bn_drop6_0_split_6
I0405 21:45:21.990958  4881 net.cpp:380] fconv7_12 -> fconv7_12
I0405 21:45:21.990978  4881 net.cpp:132] Setting up fconv7_12
I0405 21:45:21.996706  4881 net.cpp:139] Top shape: 1 128 42 42 (225792)
I0405 21:45:21.996719  4881 layer_factory.hpp:74] Creating layer Pass_13to12
I0405 21:45:21.996729  4881 net.cpp:102] Creating Layer Pass_13to12
I0405 21:45:21.996736  4881 net.cpp:422] Pass_13to12 <- fconv7_13to12_step2
I0405 21:45:21.996742  4881 net.cpp:422] Pass_13to12 <- fconv7_12
I0405 21:45:21.996748  4881 net.cpp:380] Pass_13to12 -> fconv7_12+
I0405 21:45:21.996764  4881 net.cpp:132] Setting up Pass_13to12
I0405 21:45:21.996773  4881 net.cpp:139] Top shape: 1 128 42 42 (225792)
I0405 21:45:21.996778  4881 layer_factory.hpp:74] Creating layer relu7_12
I0405 21:45:21.996784  4881 net.cpp:102] Creating Layer relu7_12
I0405 21:45:21.996789  4881 net.cpp:422] relu7_12 <- fconv7_12+
I0405 21:45:21.996796  4881 net.cpp:369] relu7_12 -> fconv7_12+ (in-place)
I0405 21:45:21.996803  4881 net.cpp:132] Setting up relu7_12
I0405 21:45:21.997795  4881 net.cpp:139] Top shape: 1 128 42 42 (225792)
I0405 21:45:21.997805  4881 layer_factory.hpp:74] Creating layer fconv7_12+_relu7_12_0_split
I0405 21:45:21.997814  4881 net.cpp:102] Creating Layer fconv7_12+_relu7_12_0_split
I0405 21:45:21.997819  4881 net.cpp:422] fconv7_12+_relu7_12_0_split <- fconv7_12+
I0405 21:45:21.997825  4881 net.cpp:380] fconv7_12+_relu7_12_0_split -> fconv7_12+_relu7_12_0_split_0
I0405 21:45:21.997833  4881 net.cpp:380] fconv7_12+_relu7_12_0_split -> fconv7_12+_relu7_12_0_split_1
I0405 21:45:21.997849  4881 net.cpp:132] Setting up fconv7_12+_relu7_12_0_split
I0405 21:45:21.997856  4881 net.cpp:139] Top shape: 1 128 42 42 (225792)
I0405 21:45:21.997862  4881 net.cpp:139] Top shape: 1 128 42 42 (225792)
I0405 21:45:21.997866  4881 layer_factory.hpp:74] Creating layer fconv7_12to11_step1
I0405 21:45:21.997876  4881 net.cpp:102] Creating Layer fconv7_12to11_step1
I0405 21:45:21.997882  4881 net.cpp:422] fconv7_12to11_step1 <- fconv7_12+_relu7_12_0_split_0
I0405 21:45:21.997890  4881 net.cpp:380] fconv7_12to11_step1 -> fconv7_12to11_step1
I0405 21:45:21.997898  4881 net.cpp:132] Setting up fconv7_12to11_step1
I0405 21:45:22.010969  4881 net.cpp:139] Top shape: 1 64 42 42 (112896)
I0405 21:45:22.010993  4881 layer_factory.hpp:74] Creating layer relu7_12to11_step1
I0405 21:45:22.011003  4881 net.cpp:102] Creating Layer relu7_12to11_step1
I0405 21:45:22.011010  4881 net.cpp:422] relu7_12to11_step1 <- fconv7_12to11_step1
I0405 21:45:22.011019  4881 net.cpp:369] relu7_12to11_step1 -> fconv7_12to11_step1 (in-place)
I0405 21:45:22.011029  4881 net.cpp:132] Setting up relu7_12to11_step1
I0405 21:45:22.012053  4881 net.cpp:139] Top shape: 1 64 42 42 (112896)
I0405 21:45:22.012063  4881 layer_factory.hpp:74] Creating layer fconv7_12to11_step2
I0405 21:45:22.012074  4881 net.cpp:102] Creating Layer fconv7_12to11_step2
I0405 21:45:22.012080  4881 net.cpp:422] fconv7_12to11_step2 <- fconv7_12to11_step1
I0405 21:45:22.012087  4881 net.cpp:380] fconv7_12to11_step2 -> fconv7_12to11_step2
I0405 21:45:22.012096  4881 net.cpp:132] Setting up fconv7_12to11_step2
I0405 21:45:22.024646  4881 net.cpp:139] Top shape: 1 128 42 42 (225792)
I0405 21:45:22.024664  4881 layer_factory.hpp:74] Creating layer fconv7_11
I0405 21:45:22.024677  4881 net.cpp:102] Creating Layer fconv7_11
I0405 21:45:22.024682  4881 net.cpp:422] fconv7_11 <- fconv6_bn_drop6_0_split_7
I0405 21:45:22.024690  4881 net.cpp:380] fconv7_11 -> fconv7_11
I0405 21:45:22.024708  4881 net.cpp:132] Setting up fconv7_11
I0405 21:45:22.030508  4881 net.cpp:139] Top shape: 1 128 42 42 (225792)
I0405 21:45:22.030521  4881 layer_factory.hpp:74] Creating layer Pass_12to11
I0405 21:45:22.030529  4881 net.cpp:102] Creating Layer Pass_12to11
I0405 21:45:22.030535  4881 net.cpp:422] Pass_12to11 <- fconv7_12to11_step2
I0405 21:45:22.030541  4881 net.cpp:422] Pass_12to11 <- fconv7_11
I0405 21:45:22.030547  4881 net.cpp:380] Pass_12to11 -> fconv7_11+
I0405 21:45:22.030565  4881 net.cpp:132] Setting up Pass_12to11
I0405 21:45:22.030572  4881 net.cpp:139] Top shape: 1 128 42 42 (225792)
I0405 21:45:22.030577  4881 layer_factory.hpp:74] Creating layer relu7_11
I0405 21:45:22.030586  4881 net.cpp:102] Creating Layer relu7_11
I0405 21:45:22.030591  4881 net.cpp:422] relu7_11 <- fconv7_11+
I0405 21:45:22.030596  4881 net.cpp:369] relu7_11 -> fconv7_11+ (in-place)
I0405 21:45:22.030603  4881 net.cpp:132] Setting up relu7_11
I0405 21:45:22.031419  4881 net.cpp:139] Top shape: 1 128 42 42 (225792)
I0405 21:45:22.031429  4881 layer_factory.hpp:74] Creating layer fconv7_11+_relu7_11_0_split
I0405 21:45:22.031436  4881 net.cpp:102] Creating Layer fconv7_11+_relu7_11_0_split
I0405 21:45:22.031441  4881 net.cpp:422] fconv7_11+_relu7_11_0_split <- fconv7_11+
I0405 21:45:22.031448  4881 net.cpp:380] fconv7_11+_relu7_11_0_split -> fconv7_11+_relu7_11_0_split_0
I0405 21:45:22.031455  4881 net.cpp:380] fconv7_11+_relu7_11_0_split -> fconv7_11+_relu7_11_0_split_1
I0405 21:45:22.031473  4881 net.cpp:132] Setting up fconv7_11+_relu7_11_0_split
I0405 21:45:22.031481  4881 net.cpp:139] Top shape: 1 128 42 42 (225792)
I0405 21:45:22.031486  4881 net.cpp:139] Top shape: 1 128 42 42 (225792)
I0405 21:45:22.031491  4881 layer_factory.hpp:74] Creating layer fconv7_11to10_step1
I0405 21:45:22.031498  4881 net.cpp:102] Creating Layer fconv7_11to10_step1
I0405 21:45:22.031503  4881 net.cpp:422] fconv7_11to10_step1 <- fconv7_11+_relu7_11_0_split_0
I0405 21:45:22.031512  4881 net.cpp:380] fconv7_11to10_step1 -> fconv7_11to10_step1
I0405 21:45:22.031520  4881 net.cpp:132] Setting up fconv7_11to10_step1
I0405 21:45:22.044450  4881 net.cpp:139] Top shape: 1 64 42 42 (112896)
I0405 21:45:22.044474  4881 layer_factory.hpp:74] Creating layer relu7_11to10_step1
I0405 21:45:22.044484  4881 net.cpp:102] Creating Layer relu7_11to10_step1
I0405 21:45:22.044492  4881 net.cpp:422] relu7_11to10_step1 <- fconv7_11to10_step1
I0405 21:45:22.044514  4881 net.cpp:369] relu7_11to10_step1 -> fconv7_11to10_step1 (in-place)
I0405 21:45:22.044524  4881 net.cpp:132] Setting up relu7_11to10_step1
I0405 21:45:22.045351  4881 net.cpp:139] Top shape: 1 64 42 42 (112896)
I0405 21:45:22.045361  4881 layer_factory.hpp:74] Creating layer fconv7_11to10_step2
I0405 21:45:22.045373  4881 net.cpp:102] Creating Layer fconv7_11to10_step2
I0405 21:45:22.045379  4881 net.cpp:422] fconv7_11to10_step2 <- fconv7_11to10_step1
I0405 21:45:22.045387  4881 net.cpp:380] fconv7_11to10_step2 -> fconv7_11to10_step2
I0405 21:45:22.045405  4881 net.cpp:132] Setting up fconv7_11to10_step2
I0405 21:45:22.057436  4881 net.cpp:139] Top shape: 1 128 42 42 (225792)
I0405 21:45:22.057452  4881 layer_factory.hpp:74] Creating layer fconv7_10
I0405 21:45:22.057464  4881 net.cpp:102] Creating Layer fconv7_10
I0405 21:45:22.057471  4881 net.cpp:422] fconv7_10 <- fconv6_bn_drop6_0_split_8
I0405 21:45:22.057479  4881 net.cpp:380] fconv7_10 -> fconv7_10
I0405 21:45:22.057497  4881 net.cpp:132] Setting up fconv7_10
I0405 21:45:22.063297  4881 net.cpp:139] Top shape: 1 128 42 42 (225792)
I0405 21:45:22.063310  4881 layer_factory.hpp:74] Creating layer Pass_11to10
I0405 21:45:22.063318  4881 net.cpp:102] Creating Layer Pass_11to10
I0405 21:45:22.063324  4881 net.cpp:422] Pass_11to10 <- fconv7_11to10_step2
I0405 21:45:22.063330  4881 net.cpp:422] Pass_11to10 <- fconv7_10
I0405 21:45:22.063350  4881 net.cpp:380] Pass_11to10 -> fconv7_10+
I0405 21:45:22.063380  4881 net.cpp:132] Setting up Pass_11to10
I0405 21:45:22.063396  4881 net.cpp:139] Top shape: 1 128 42 42 (225792)
I0405 21:45:22.063407  4881 layer_factory.hpp:74] Creating layer relu7_10
I0405 21:45:22.063416  4881 net.cpp:102] Creating Layer relu7_10
I0405 21:45:22.063426  4881 net.cpp:422] relu7_10 <- fconv7_10+
I0405 21:45:22.063434  4881 net.cpp:369] relu7_10 -> fconv7_10+ (in-place)
I0405 21:45:22.063444  4881 net.cpp:132] Setting up relu7_10
I0405 21:45:22.064285  4881 net.cpp:139] Top shape: 1 128 42 42 (225792)
I0405 21:45:22.064296  4881 layer_factory.hpp:74] Creating layer fconv7_10+_relu7_10_0_split
I0405 21:45:22.064302  4881 net.cpp:102] Creating Layer fconv7_10+_relu7_10_0_split
I0405 21:45:22.064307  4881 net.cpp:422] fconv7_10+_relu7_10_0_split <- fconv7_10+
I0405 21:45:22.064314  4881 net.cpp:380] fconv7_10+_relu7_10_0_split -> fconv7_10+_relu7_10_0_split_0
I0405 21:45:22.064321  4881 net.cpp:380] fconv7_10+_relu7_10_0_split -> fconv7_10+_relu7_10_0_split_1
I0405 21:45:22.064337  4881 net.cpp:132] Setting up fconv7_10+_relu7_10_0_split
I0405 21:45:22.064345  4881 net.cpp:139] Top shape: 1 128 42 42 (225792)
I0405 21:45:22.064352  4881 net.cpp:139] Top shape: 1 128 42 42 (225792)
I0405 21:45:22.064355  4881 layer_factory.hpp:74] Creating layer fconv7_10to9_step1
I0405 21:45:22.064365  4881 net.cpp:102] Creating Layer fconv7_10to9_step1
I0405 21:45:22.064370  4881 net.cpp:422] fconv7_10to9_step1 <- fconv7_10+_relu7_10_0_split_0
I0405 21:45:22.064378  4881 net.cpp:380] fconv7_10to9_step1 -> fconv7_10to9_step1
I0405 21:45:22.064386  4881 net.cpp:132] Setting up fconv7_10to9_step1
I0405 21:45:22.077430  4881 net.cpp:139] Top shape: 1 64 42 42 (112896)
I0405 21:45:22.077452  4881 layer_factory.hpp:74] Creating layer relu7_10to9_step1
I0405 21:45:22.077463  4881 net.cpp:102] Creating Layer relu7_10to9_step1
I0405 21:45:22.077471  4881 net.cpp:422] relu7_10to9_step1 <- fconv7_10to9_step1
I0405 21:45:22.077479  4881 net.cpp:369] relu7_10to9_step1 -> fconv7_10to9_step1 (in-place)
I0405 21:45:22.077497  4881 net.cpp:132] Setting up relu7_10to9_step1
I0405 21:45:22.078342  4881 net.cpp:139] Top shape: 1 64 42 42 (112896)
I0405 21:45:22.078353  4881 layer_factory.hpp:74] Creating layer fconv7_10to9_step2
I0405 21:45:22.078362  4881 net.cpp:102] Creating Layer fconv7_10to9_step2
I0405 21:45:22.078368  4881 net.cpp:422] fconv7_10to9_step2 <- fconv7_10to9_step1
I0405 21:45:22.078377  4881 net.cpp:380] fconv7_10to9_step2 -> fconv7_10to9_step2
I0405 21:45:22.078395  4881 net.cpp:132] Setting up fconv7_10to9_step2
I0405 21:45:22.090426  4881 net.cpp:139] Top shape: 1 128 42 42 (225792)
I0405 21:45:22.090440  4881 layer_factory.hpp:74] Creating layer fconv7_9
I0405 21:45:22.090451  4881 net.cpp:102] Creating Layer fconv7_9
I0405 21:45:22.090456  4881 net.cpp:422] fconv7_9 <- fconv6_bn_drop6_0_split_9
I0405 21:45:22.090466  4881 net.cpp:380] fconv7_9 -> fconv7_9
I0405 21:45:22.090482  4881 net.cpp:132] Setting up fconv7_9
I0405 21:45:22.096524  4881 net.cpp:139] Top shape: 1 128 42 42 (225792)
I0405 21:45:22.096549  4881 layer_factory.hpp:74] Creating layer Pass_10to9
I0405 21:45:22.096560  4881 net.cpp:102] Creating Layer Pass_10to9
I0405 21:45:22.096565  4881 net.cpp:422] Pass_10to9 <- fconv7_10to9_step2
I0405 21:45:22.096572  4881 net.cpp:422] Pass_10to9 <- fconv7_9
I0405 21:45:22.096578  4881 net.cpp:380] Pass_10to9 -> fconv7_9+
I0405 21:45:22.096586  4881 net.cpp:132] Setting up Pass_10to9
I0405 21:45:22.096596  4881 net.cpp:139] Top shape: 1 128 42 42 (225792)
I0405 21:45:22.096609  4881 layer_factory.hpp:74] Creating layer relu7_9
I0405 21:45:22.096617  4881 net.cpp:102] Creating Layer relu7_9
I0405 21:45:22.096622  4881 net.cpp:422] relu7_9 <- fconv7_9+
I0405 21:45:22.096628  4881 net.cpp:369] relu7_9 -> fconv7_9+ (in-place)
I0405 21:45:22.096634  4881 net.cpp:132] Setting up relu7_9
I0405 21:45:22.097703  4881 net.cpp:139] Top shape: 1 128 42 42 (225792)
I0405 21:45:22.097724  4881 layer_factory.hpp:74] Creating layer fconv7_9+_relu7_9_0_split
I0405 21:45:22.097733  4881 net.cpp:102] Creating Layer fconv7_9+_relu7_9_0_split
I0405 21:45:22.097738  4881 net.cpp:422] fconv7_9+_relu7_9_0_split <- fconv7_9+
I0405 21:45:22.097744  4881 net.cpp:380] fconv7_9+_relu7_9_0_split -> fconv7_9+_relu7_9_0_split_0
I0405 21:45:22.097753  4881 net.cpp:380] fconv7_9+_relu7_9_0_split -> fconv7_9+_relu7_9_0_split_1
I0405 21:45:22.097759  4881 net.cpp:132] Setting up fconv7_9+_relu7_9_0_split
I0405 21:45:22.097766  4881 net.cpp:139] Top shape: 1 128 42 42 (225792)
I0405 21:45:22.097772  4881 net.cpp:139] Top shape: 1 128 42 42 (225792)
I0405 21:45:22.097776  4881 layer_factory.hpp:74] Creating layer fconv7_9to8_step1
I0405 21:45:22.097786  4881 net.cpp:102] Creating Layer fconv7_9to8_step1
I0405 21:45:22.097792  4881 net.cpp:422] fconv7_9to8_step1 <- fconv7_9+_relu7_9_0_split_0
I0405 21:45:22.097800  4881 net.cpp:380] fconv7_9to8_step1 -> fconv7_9to8_step1
I0405 21:45:22.097808  4881 net.cpp:132] Setting up fconv7_9to8_step1
I0405 21:45:22.110693  4881 net.cpp:139] Top shape: 1 64 42 42 (112896)
I0405 21:45:22.110713  4881 layer_factory.hpp:74] Creating layer relu7_9to8_step1
I0405 21:45:22.110723  4881 net.cpp:102] Creating Layer relu7_9to8_step1
I0405 21:45:22.110730  4881 net.cpp:422] relu7_9to8_step1 <- fconv7_9to8_step1
I0405 21:45:22.110738  4881 net.cpp:369] relu7_9to8_step1 -> fconv7_9to8_step1 (in-place)
I0405 21:45:22.110754  4881 net.cpp:132] Setting up relu7_9to8_step1
I0405 21:45:22.111601  4881 net.cpp:139] Top shape: 1 64 42 42 (112896)
I0405 21:45:22.111613  4881 layer_factory.hpp:74] Creating layer fconv7_9to8_step2
I0405 21:45:22.111623  4881 net.cpp:102] Creating Layer fconv7_9to8_step2
I0405 21:45:22.111627  4881 net.cpp:422] fconv7_9to8_step2 <- fconv7_9to8_step1
I0405 21:45:22.111636  4881 net.cpp:380] fconv7_9to8_step2 -> fconv7_9to8_step2
I0405 21:45:22.111654  4881 net.cpp:132] Setting up fconv7_9to8_step2
I0405 21:45:22.124171  4881 net.cpp:139] Top shape: 1 128 42 42 (225792)
I0405 21:45:22.124188  4881 layer_factory.hpp:74] Creating layer fconv7_8
I0405 21:45:22.124199  4881 net.cpp:102] Creating Layer fconv7_8
I0405 21:45:22.124207  4881 net.cpp:422] fconv7_8 <- fconv6_bn_drop6_0_split_10
I0405 21:45:22.124214  4881 net.cpp:380] fconv7_8 -> fconv7_8
I0405 21:45:22.124233  4881 net.cpp:132] Setting up fconv7_8
I0405 21:45:22.130378  4881 net.cpp:139] Top shape: 1 128 42 42 (225792)
I0405 21:45:22.130398  4881 layer_factory.hpp:74] Creating layer Pass_9to8
I0405 21:45:22.130409  4881 net.cpp:102] Creating Layer Pass_9to8
I0405 21:45:22.130415  4881 net.cpp:422] Pass_9to8 <- fconv7_9to8_step2
I0405 21:45:22.130421  4881 net.cpp:422] Pass_9to8 <- fconv7_8
I0405 21:45:22.130429  4881 net.cpp:380] Pass_9to8 -> fconv7_8+
I0405 21:45:22.130436  4881 net.cpp:132] Setting up Pass_9to8
I0405 21:45:22.130445  4881 net.cpp:139] Top shape: 1 128 42 42 (225792)
I0405 21:45:22.130450  4881 layer_factory.hpp:74] Creating layer relu7_8
I0405 21:45:22.130458  4881 net.cpp:102] Creating Layer relu7_8
I0405 21:45:22.130463  4881 net.cpp:422] relu7_8 <- fconv7_8+
I0405 21:45:22.130470  4881 net.cpp:369] relu7_8 -> fconv7_8+ (in-place)
I0405 21:45:22.130476  4881 net.cpp:132] Setting up relu7_8
I0405 21:45:22.131315  4881 net.cpp:139] Top shape: 1 128 42 42 (225792)
I0405 21:45:22.131326  4881 layer_factory.hpp:74] Creating layer fconv7_8+_relu7_8_0_split
I0405 21:45:22.131335  4881 net.cpp:102] Creating Layer fconv7_8+_relu7_8_0_split
I0405 21:45:22.131340  4881 net.cpp:422] fconv7_8+_relu7_8_0_split <- fconv7_8+
I0405 21:45:22.131347  4881 net.cpp:380] fconv7_8+_relu7_8_0_split -> fconv7_8+_relu7_8_0_split_0
I0405 21:45:22.131356  4881 net.cpp:380] fconv7_8+_relu7_8_0_split -> fconv7_8+_relu7_8_0_split_1
I0405 21:45:22.131362  4881 net.cpp:132] Setting up fconv7_8+_relu7_8_0_split
I0405 21:45:22.131369  4881 net.cpp:139] Top shape: 1 128 42 42 (225792)
I0405 21:45:22.131376  4881 net.cpp:139] Top shape: 1 128 42 42 (225792)
I0405 21:45:22.131379  4881 layer_factory.hpp:74] Creating layer fconv7_8to3_step1
I0405 21:45:22.131387  4881 net.cpp:102] Creating Layer fconv7_8to3_step1
I0405 21:45:22.131392  4881 net.cpp:422] fconv7_8to3_step1 <- fconv7_8+_relu7_8_0_split_0
I0405 21:45:22.131402  4881 net.cpp:380] fconv7_8to3_step1 -> fconv7_8to3_step1
I0405 21:45:22.131409  4881 net.cpp:132] Setting up fconv7_8to3_step1
I0405 21:45:22.144253  4881 net.cpp:139] Top shape: 1 64 42 42 (112896)
I0405 21:45:22.144271  4881 layer_factory.hpp:74] Creating layer relu7_8to3_step1
I0405 21:45:22.144282  4881 net.cpp:102] Creating Layer relu7_8to3_step1
I0405 21:45:22.144289  4881 net.cpp:422] relu7_8to3_step1 <- fconv7_8to3_step1
I0405 21:45:22.144296  4881 net.cpp:369] relu7_8to3_step1 -> fconv7_8to3_step1 (in-place)
I0405 21:45:22.144314  4881 net.cpp:132] Setting up relu7_8to3_step1
I0405 21:45:22.145164  4881 net.cpp:139] Top shape: 1 64 42 42 (112896)
I0405 21:45:22.145174  4881 layer_factory.hpp:74] Creating layer fconv7_8to3_step2
I0405 21:45:22.145185  4881 net.cpp:102] Creating Layer fconv7_8to3_step2
I0405 21:45:22.145191  4881 net.cpp:422] fconv7_8to3_step2 <- fconv7_8to3_step1
I0405 21:45:22.145200  4881 net.cpp:380] fconv7_8to3_step2 -> fconv7_8to3_step2
I0405 21:45:22.145217  4881 net.cpp:132] Setting up fconv7_8to3_step2
I0405 21:45:22.157539  4881 net.cpp:139] Top shape: 1 128 42 42 (225792)
I0405 21:45:22.157567  4881 layer_factory.hpp:74] Creating layer fconv7_3
I0405 21:45:22.157579  4881 net.cpp:102] Creating Layer fconv7_3
I0405 21:45:22.157585  4881 net.cpp:422] fconv7_3 <- fconv6_bn_drop6_0_split_11
I0405 21:45:22.157595  4881 net.cpp:380] fconv7_3 -> fconv7_3
I0405 21:45:22.157613  4881 net.cpp:132] Setting up fconv7_3
I0405 21:45:22.164350  4881 net.cpp:139] Top shape: 1 128 42 42 (225792)
I0405 21:45:22.164372  4881 layer_factory.hpp:74] Creating layer Pass_84to3
I0405 21:45:22.164382  4881 net.cpp:102] Creating Layer Pass_84to3
I0405 21:45:22.164391  4881 net.cpp:422] Pass_84to3 <- fconv7_8to3_step2
I0405 21:45:22.164399  4881 net.cpp:422] Pass_84to3 <- fconv7_4to3_step2
I0405 21:45:22.164415  4881 net.cpp:422] Pass_84to3 <- fconv7_3
I0405 21:45:22.164422  4881 net.cpp:380] Pass_84to3 -> fconv7_3+
I0405 21:45:22.164432  4881 net.cpp:132] Setting up Pass_84to3
I0405 21:45:22.164440  4881 net.cpp:139] Top shape: 1 128 42 42 (225792)
I0405 21:45:22.164445  4881 layer_factory.hpp:74] Creating layer relu7_3
I0405 21:45:22.164451  4881 net.cpp:102] Creating Layer relu7_3
I0405 21:45:22.164456  4881 net.cpp:422] relu7_3 <- fconv7_3+
I0405 21:45:22.164463  4881 net.cpp:369] relu7_3 -> fconv7_3+ (in-place)
I0405 21:45:22.164469  4881 net.cpp:132] Setting up relu7_3
I0405 21:45:22.165308  4881 net.cpp:139] Top shape: 1 128 42 42 (225792)
I0405 21:45:22.165318  4881 layer_factory.hpp:74] Creating layer fconv7_3+_relu7_3_0_split
I0405 21:45:22.165325  4881 net.cpp:102] Creating Layer fconv7_3+_relu7_3_0_split
I0405 21:45:22.165330  4881 net.cpp:422] fconv7_3+_relu7_3_0_split <- fconv7_3+
I0405 21:45:22.165338  4881 net.cpp:380] fconv7_3+_relu7_3_0_split -> fconv7_3+_relu7_3_0_split_0
I0405 21:45:22.165346  4881 net.cpp:380] fconv7_3+_relu7_3_0_split -> fconv7_3+_relu7_3_0_split_1
I0405 21:45:22.165364  4881 net.cpp:132] Setting up fconv7_3+_relu7_3_0_split
I0405 21:45:22.165370  4881 net.cpp:139] Top shape: 1 128 42 42 (225792)
I0405 21:45:22.165375  4881 net.cpp:139] Top shape: 1 128 42 42 (225792)
I0405 21:45:22.165380  4881 layer_factory.hpp:74] Creating layer fconv7_3to2_step1
I0405 21:45:22.165390  4881 net.cpp:102] Creating Layer fconv7_3to2_step1
I0405 21:45:22.165395  4881 net.cpp:422] fconv7_3to2_step1 <- fconv7_3+_relu7_3_0_split_0
I0405 21:45:22.165402  4881 net.cpp:380] fconv7_3to2_step1 -> fconv7_3to2_step1
I0405 21:45:22.165410  4881 net.cpp:132] Setting up fconv7_3to2_step1
I0405 21:45:22.178239  4881 net.cpp:139] Top shape: 1 64 42 42 (112896)
I0405 21:45:22.178257  4881 layer_factory.hpp:74] Creating layer relu7_3to2_step1
I0405 21:45:22.178267  4881 net.cpp:102] Creating Layer relu7_3to2_step1
I0405 21:45:22.178273  4881 net.cpp:422] relu7_3to2_step1 <- fconv7_3to2_step1
I0405 21:45:22.178280  4881 net.cpp:369] relu7_3to2_step1 -> fconv7_3to2_step1 (in-place)
I0405 21:45:22.178297  4881 net.cpp:132] Setting up relu7_3to2_step1
I0405 21:45:22.179158  4881 net.cpp:139] Top shape: 1 64 42 42 (112896)
I0405 21:45:22.179169  4881 layer_factory.hpp:74] Creating layer fconv7_3to2_step2
I0405 21:45:22.179178  4881 net.cpp:102] Creating Layer fconv7_3to2_step2
I0405 21:45:22.179183  4881 net.cpp:422] fconv7_3to2_step2 <- fconv7_3to2_step1
I0405 21:45:22.179193  4881 net.cpp:380] fconv7_3to2_step2 -> fconv7_3to2_step2
I0405 21:45:22.179200  4881 net.cpp:132] Setting up fconv7_3to2_step2
I0405 21:45:22.191854  4881 net.cpp:139] Top shape: 1 128 42 42 (225792)
I0405 21:45:22.191876  4881 layer_factory.hpp:74] Creating layer fconv7_19
I0405 21:45:22.191890  4881 net.cpp:102] Creating Layer fconv7_19
I0405 21:45:22.191896  4881 net.cpp:422] fconv7_19 <- fconv6_bn_drop6_0_split_12
I0405 21:45:22.191906  4881 net.cpp:380] fconv7_19 -> fconv7_19
I0405 21:45:22.191917  4881 net.cpp:132] Setting up fconv7_19
I0405 21:45:22.198412  4881 net.cpp:139] Top shape: 1 128 42 42 (225792)
I0405 21:45:22.198429  4881 layer_factory.hpp:74] Creating layer relu7_19
I0405 21:45:22.198438  4881 net.cpp:102] Creating Layer relu7_19
I0405 21:45:22.198443  4881 net.cpp:422] relu7_19 <- fconv7_19
I0405 21:45:22.198452  4881 net.cpp:380] relu7_19 -> fconv7_19+
I0405 21:45:22.198469  4881 net.cpp:132] Setting up relu7_19
I0405 21:45:22.199314  4881 net.cpp:139] Top shape: 1 128 42 42 (225792)
I0405 21:45:22.199323  4881 layer_factory.hpp:74] Creating layer fconv7_19+_relu7_19_0_split
I0405 21:45:22.199333  4881 net.cpp:102] Creating Layer fconv7_19+_relu7_19_0_split
I0405 21:45:22.199338  4881 net.cpp:422] fconv7_19+_relu7_19_0_split <- fconv7_19+
I0405 21:45:22.199344  4881 net.cpp:380] fconv7_19+_relu7_19_0_split -> fconv7_19+_relu7_19_0_split_0
I0405 21:45:22.199352  4881 net.cpp:380] fconv7_19+_relu7_19_0_split -> fconv7_19+_relu7_19_0_split_1
I0405 21:45:22.199369  4881 net.cpp:132] Setting up fconv7_19+_relu7_19_0_split
I0405 21:45:22.199376  4881 net.cpp:139] Top shape: 1 128 42 42 (225792)
I0405 21:45:22.199383  4881 net.cpp:139] Top shape: 1 128 42 42 (225792)
I0405 21:45:22.199386  4881 layer_factory.hpp:74] Creating layer fconv7_19to18_step1
I0405 21:45:22.199396  4881 net.cpp:102] Creating Layer fconv7_19to18_step1
I0405 21:45:22.199401  4881 net.cpp:422] fconv7_19to18_step1 <- fconv7_19+_relu7_19_0_split_0
I0405 21:45:22.199410  4881 net.cpp:380] fconv7_19to18_step1 -> fconv7_19to18_step1
I0405 21:45:22.199417  4881 net.cpp:132] Setting up fconv7_19to18_step1
I0405 21:45:22.211807  4881 net.cpp:139] Top shape: 1 64 42 42 (112896)
I0405 21:45:22.211822  4881 layer_factory.hpp:74] Creating layer relu7_19to18_step1
I0405 21:45:22.211833  4881 net.cpp:102] Creating Layer relu7_19to18_step1
I0405 21:45:22.211839  4881 net.cpp:422] relu7_19to18_step1 <- fconv7_19to18_step1
I0405 21:45:22.211846  4881 net.cpp:369] relu7_19to18_step1 -> fconv7_19to18_step1 (in-place)
I0405 21:45:22.211863  4881 net.cpp:132] Setting up relu7_19to18_step1
I0405 21:45:22.212728  4881 net.cpp:139] Top shape: 1 64 42 42 (112896)
I0405 21:45:22.212738  4881 layer_factory.hpp:74] Creating layer fconv7_19to18_step2
I0405 21:45:22.212749  4881 net.cpp:102] Creating Layer fconv7_19to18_step2
I0405 21:45:22.212754  4881 net.cpp:422] fconv7_19to18_step2 <- fconv7_19to18_step1
I0405 21:45:22.212762  4881 net.cpp:380] fconv7_19to18_step2 -> fconv7_19to18_step2
I0405 21:45:22.212780  4881 net.cpp:132] Setting up fconv7_19to18_step2
I0405 21:45:22.226303  4881 net.cpp:139] Top shape: 1 128 42 42 (225792)
I0405 21:45:22.226328  4881 layer_factory.hpp:74] Creating layer fconv7_18
I0405 21:45:22.226341  4881 net.cpp:102] Creating Layer fconv7_18
I0405 21:45:22.226346  4881 net.cpp:422] fconv7_18 <- fconv6_bn_drop6_0_split_13
I0405 21:45:22.226357  4881 net.cpp:380] fconv7_18 -> fconv7_18
I0405 21:45:22.226378  4881 net.cpp:132] Setting up fconv7_18
I0405 21:45:22.232105  4881 net.cpp:139] Top shape: 1 128 42 42 (225792)
I0405 21:45:22.232118  4881 layer_factory.hpp:74] Creating layer Pass_19to18
I0405 21:45:22.232141  4881 net.cpp:102] Creating Layer Pass_19to18
I0405 21:45:22.232147  4881 net.cpp:422] Pass_19to18 <- fconv7_19to18_step2
I0405 21:45:22.232162  4881 net.cpp:422] Pass_19to18 <- fconv7_18
I0405 21:45:22.232169  4881 net.cpp:380] Pass_19to18 -> fconv7_18+
I0405 21:45:22.232177  4881 net.cpp:132] Setting up Pass_19to18
I0405 21:45:22.232185  4881 net.cpp:139] Top shape: 1 128 42 42 (225792)
I0405 21:45:22.232190  4881 layer_factory.hpp:74] Creating layer relu7_18
I0405 21:45:22.232197  4881 net.cpp:102] Creating Layer relu7_18
I0405 21:45:22.232203  4881 net.cpp:422] relu7_18 <- fconv7_18+
I0405 21:45:22.232208  4881 net.cpp:369] relu7_18 -> fconv7_18+ (in-place)
I0405 21:45:22.232214  4881 net.cpp:132] Setting up relu7_18
I0405 21:45:22.233072  4881 net.cpp:139] Top shape: 1 128 42 42 (225792)
I0405 21:45:22.233083  4881 layer_factory.hpp:74] Creating layer fconv7_18+_relu7_18_0_split
I0405 21:45:22.233089  4881 net.cpp:102] Creating Layer fconv7_18+_relu7_18_0_split
I0405 21:45:22.233094  4881 net.cpp:422] fconv7_18+_relu7_18_0_split <- fconv7_18+
I0405 21:45:22.233103  4881 net.cpp:380] fconv7_18+_relu7_18_0_split -> fconv7_18+_relu7_18_0_split_0
I0405 21:45:22.233110  4881 net.cpp:380] fconv7_18+_relu7_18_0_split -> fconv7_18+_relu7_18_0_split_1
I0405 21:45:22.233126  4881 net.cpp:132] Setting up fconv7_18+_relu7_18_0_split
I0405 21:45:22.233134  4881 net.cpp:139] Top shape: 1 128 42 42 (225792)
I0405 21:45:22.233139  4881 net.cpp:139] Top shape: 1 128 42 42 (225792)
I0405 21:45:22.233144  4881 layer_factory.hpp:74] Creating layer fconv7_18to17_step1
I0405 21:45:22.233153  4881 net.cpp:102] Creating Layer fconv7_18to17_step1
I0405 21:45:22.233158  4881 net.cpp:422] fconv7_18to17_step1 <- fconv7_18+_relu7_18_0_split_0
I0405 21:45:22.233165  4881 net.cpp:380] fconv7_18to17_step1 -> fconv7_18to17_step1
I0405 21:45:22.233172  4881 net.cpp:132] Setting up fconv7_18to17_step1
I0405 21:45:22.246098  4881 net.cpp:139] Top shape: 1 64 42 42 (112896)
I0405 21:45:22.246119  4881 layer_factory.hpp:74] Creating layer relu7_18to17_step1
I0405 21:45:22.246129  4881 net.cpp:102] Creating Layer relu7_18to17_step1
I0405 21:45:22.246135  4881 net.cpp:422] relu7_18to17_step1 <- fconv7_18to17_step1
I0405 21:45:22.246143  4881 net.cpp:369] relu7_18to17_step1 -> fconv7_18to17_step1 (in-place)
I0405 21:45:22.246160  4881 net.cpp:132] Setting up relu7_18to17_step1
I0405 21:45:22.247056  4881 net.cpp:139] Top shape: 1 64 42 42 (112896)
I0405 21:45:22.247066  4881 layer_factory.hpp:74] Creating layer fconv7_18to17_step2
I0405 21:45:22.247074  4881 net.cpp:102] Creating Layer fconv7_18to17_step2
I0405 21:45:22.247079  4881 net.cpp:422] fconv7_18to17_step2 <- fconv7_18to17_step1
I0405 21:45:22.247089  4881 net.cpp:380] fconv7_18to17_step2 -> fconv7_18to17_step2
I0405 21:45:22.247108  4881 net.cpp:132] Setting up fconv7_18to17_step2
I0405 21:45:22.260464  4881 net.cpp:139] Top shape: 1 128 42 42 (225792)
I0405 21:45:22.260489  4881 layer_factory.hpp:74] Creating layer fconv7_17
I0405 21:45:22.260504  4881 net.cpp:102] Creating Layer fconv7_17
I0405 21:45:22.260510  4881 net.cpp:422] fconv7_17 <- fconv6_bn_drop6_0_split_14
I0405 21:45:22.260531  4881 net.cpp:380] fconv7_17 -> fconv7_17
I0405 21:45:22.260543  4881 net.cpp:132] Setting up fconv7_17
I0405 21:45:22.266319  4881 net.cpp:139] Top shape: 1 128 42 42 (225792)
I0405 21:45:22.266332  4881 layer_factory.hpp:74] Creating layer Pass_18to17
I0405 21:45:22.266340  4881 net.cpp:102] Creating Layer Pass_18to17
I0405 21:45:22.266346  4881 net.cpp:422] Pass_18to17 <- fconv7_18to17_step2
I0405 21:45:22.266352  4881 net.cpp:422] Pass_18to17 <- fconv7_17
I0405 21:45:22.266361  4881 net.cpp:380] Pass_18to17 -> fconv7_17+
I0405 21:45:22.266378  4881 net.cpp:132] Setting up Pass_18to17
I0405 21:45:22.266386  4881 net.cpp:139] Top shape: 1 128 42 42 (225792)
I0405 21:45:22.266391  4881 layer_factory.hpp:74] Creating layer relu7_17
I0405 21:45:22.266397  4881 net.cpp:102] Creating Layer relu7_17
I0405 21:45:22.266402  4881 net.cpp:422] relu7_17 <- fconv7_17+
I0405 21:45:22.266408  4881 net.cpp:369] relu7_17 -> fconv7_17+ (in-place)
I0405 21:45:22.266414  4881 net.cpp:132] Setting up relu7_17
I0405 21:45:22.267273  4881 net.cpp:139] Top shape: 1 128 42 42 (225792)
I0405 21:45:22.267284  4881 layer_factory.hpp:74] Creating layer fconv7_17+_relu7_17_0_split
I0405 21:45:22.267292  4881 net.cpp:102] Creating Layer fconv7_17+_relu7_17_0_split
I0405 21:45:22.267297  4881 net.cpp:422] fconv7_17+_relu7_17_0_split <- fconv7_17+
I0405 21:45:22.267304  4881 net.cpp:380] fconv7_17+_relu7_17_0_split -> fconv7_17+_relu7_17_0_split_0
I0405 21:45:22.267313  4881 net.cpp:380] fconv7_17+_relu7_17_0_split -> fconv7_17+_relu7_17_0_split_1
I0405 21:45:22.267329  4881 net.cpp:132] Setting up fconv7_17+_relu7_17_0_split
I0405 21:45:22.267336  4881 net.cpp:139] Top shape: 1 128 42 42 (225792)
I0405 21:45:22.267343  4881 net.cpp:139] Top shape: 1 128 42 42 (225792)
I0405 21:45:22.267346  4881 layer_factory.hpp:74] Creating layer fconv7_17to16_step1
I0405 21:45:22.267354  4881 net.cpp:102] Creating Layer fconv7_17to16_step1
I0405 21:45:22.267359  4881 net.cpp:422] fconv7_17to16_step1 <- fconv7_17+_relu7_17_0_split_0
I0405 21:45:22.267369  4881 net.cpp:380] fconv7_17to16_step1 -> fconv7_17to16_step1
I0405 21:45:22.267375  4881 net.cpp:132] Setting up fconv7_17to16_step1
I0405 21:45:22.279842  4881 net.cpp:139] Top shape: 1 64 42 42 (112896)
I0405 21:45:22.279857  4881 layer_factory.hpp:74] Creating layer relu7_17to16_step1
I0405 21:45:22.279867  4881 net.cpp:102] Creating Layer relu7_17to16_step1
I0405 21:45:22.279873  4881 net.cpp:422] relu7_17to16_step1 <- fconv7_17to16_step1
I0405 21:45:22.279880  4881 net.cpp:369] relu7_17to16_step1 -> fconv7_17to16_step1 (in-place)
I0405 21:45:22.279887  4881 net.cpp:132] Setting up relu7_17to16_step1
I0405 21:45:22.280822  4881 net.cpp:139] Top shape: 1 64 42 42 (112896)
I0405 21:45:22.280833  4881 layer_factory.hpp:74] Creating layer fconv7_17to16_step2
I0405 21:45:22.280853  4881 net.cpp:102] Creating Layer fconv7_17to16_step2
I0405 21:45:22.280859  4881 net.cpp:422] fconv7_17to16_step2 <- fconv7_17to16_step1
I0405 21:45:22.280866  4881 net.cpp:380] fconv7_17to16_step2 -> fconv7_17to16_step2
I0405 21:45:22.280875  4881 net.cpp:132] Setting up fconv7_17to16_step2
I0405 21:45:22.294303  4881 net.cpp:139] Top shape: 1 128 42 42 (225792)
I0405 21:45:22.294328  4881 layer_factory.hpp:74] Creating layer fconv7_16
I0405 21:45:22.294342  4881 net.cpp:102] Creating Layer fconv7_16
I0405 21:45:22.294348  4881 net.cpp:422] fconv7_16 <- fconv6_bn_drop6_0_split_15
I0405 21:45:22.294358  4881 net.cpp:380] fconv7_16 -> fconv7_16
I0405 21:45:22.294378  4881 net.cpp:132] Setting up fconv7_16
I0405 21:45:22.300920  4881 net.cpp:139] Top shape: 1 128 42 42 (225792)
I0405 21:45:22.300936  4881 layer_factory.hpp:74] Creating layer Pass_17to16
I0405 21:45:22.300945  4881 net.cpp:102] Creating Layer Pass_17to16
I0405 21:45:22.300959  4881 net.cpp:422] Pass_17to16 <- fconv7_17to16_step2
I0405 21:45:22.300966  4881 net.cpp:422] Pass_17to16 <- fconv7_16
I0405 21:45:22.300973  4881 net.cpp:380] Pass_17to16 -> fconv7_16+
I0405 21:45:22.300981  4881 net.cpp:132] Setting up Pass_17to16
I0405 21:45:22.300989  4881 net.cpp:139] Top shape: 1 128 42 42 (225792)
I0405 21:45:22.300994  4881 layer_factory.hpp:74] Creating layer relu7_16
I0405 21:45:22.301002  4881 net.cpp:102] Creating Layer relu7_16
I0405 21:45:22.301008  4881 net.cpp:422] relu7_16 <- fconv7_16+
I0405 21:45:22.301014  4881 net.cpp:369] relu7_16 -> fconv7_16+ (in-place)
I0405 21:45:22.301020  4881 net.cpp:132] Setting up relu7_16
I0405 21:45:22.301923  4881 net.cpp:139] Top shape: 1 128 42 42 (225792)
I0405 21:45:22.301935  4881 layer_factory.hpp:74] Creating layer fconv7_16+_relu7_16_0_split
I0405 21:45:22.301942  4881 net.cpp:102] Creating Layer fconv7_16+_relu7_16_0_split
I0405 21:45:22.301949  4881 net.cpp:422] fconv7_16+_relu7_16_0_split <- fconv7_16+
I0405 21:45:22.301955  4881 net.cpp:380] fconv7_16+_relu7_16_0_split -> fconv7_16+_relu7_16_0_split_0
I0405 21:45:22.301964  4881 net.cpp:380] fconv7_16+_relu7_16_0_split -> fconv7_16+_relu7_16_0_split_1
I0405 21:45:22.301980  4881 net.cpp:132] Setting up fconv7_16+_relu7_16_0_split
I0405 21:45:22.301988  4881 net.cpp:139] Top shape: 1 128 42 42 (225792)
I0405 21:45:22.301993  4881 net.cpp:139] Top shape: 1 128 42 42 (225792)
I0405 21:45:22.301998  4881 layer_factory.hpp:74] Creating layer fconv7_16to15_step1
I0405 21:45:22.302006  4881 net.cpp:102] Creating Layer fconv7_16to15_step1
I0405 21:45:22.302011  4881 net.cpp:422] fconv7_16to15_step1 <- fconv7_16+_relu7_16_0_split_0
I0405 21:45:22.302019  4881 net.cpp:380] fconv7_16to15_step1 -> fconv7_16to15_step1
I0405 21:45:22.302027  4881 net.cpp:132] Setting up fconv7_16to15_step1
I0405 21:45:22.314856  4881 net.cpp:139] Top shape: 1 64 42 42 (112896)
I0405 21:45:22.314878  4881 layer_factory.hpp:74] Creating layer relu7_16to15_step1
I0405 21:45:22.314889  4881 net.cpp:102] Creating Layer relu7_16to15_step1
I0405 21:45:22.314899  4881 net.cpp:422] relu7_16to15_step1 <- fconv7_16to15_step1
I0405 21:45:22.314908  4881 net.cpp:369] relu7_16to15_step1 -> fconv7_16to15_step1 (in-place)
I0405 21:45:22.314916  4881 net.cpp:132] Setting up relu7_16to15_step1
I0405 21:45:22.315938  4881 net.cpp:139] Top shape: 1 64 42 42 (112896)
I0405 21:45:22.315951  4881 layer_factory.hpp:74] Creating layer fconv7_16to15_step2
I0405 21:45:22.315968  4881 net.cpp:102] Creating Layer fconv7_16to15_step2
I0405 21:45:22.315978  4881 net.cpp:422] fconv7_16to15_step2 <- fconv7_16to15_step1
I0405 21:45:22.315999  4881 net.cpp:380] fconv7_16to15_step2 -> fconv7_16to15_step2
I0405 21:45:22.316014  4881 net.cpp:132] Setting up fconv7_16to15_step2
I0405 21:45:22.328971  4881 net.cpp:139] Top shape: 1 128 42 42 (225792)
I0405 21:45:22.328990  4881 layer_factory.hpp:74] Creating layer fconv7_26
I0405 21:45:22.329005  4881 net.cpp:102] Creating Layer fconv7_26
I0405 21:45:22.329010  4881 net.cpp:422] fconv7_26 <- fconv6_bn_drop6_0_split_16
I0405 21:45:22.329030  4881 net.cpp:380] fconv7_26 -> fconv7_26
I0405 21:45:22.329041  4881 net.cpp:132] Setting up fconv7_26
I0405 21:45:22.334884  4881 net.cpp:139] Top shape: 1 128 42 42 (225792)
I0405 21:45:22.334919  4881 layer_factory.hpp:74] Creating layer relu7_26
I0405 21:45:22.334928  4881 net.cpp:102] Creating Layer relu7_26
I0405 21:45:22.334944  4881 net.cpp:422] relu7_26 <- fconv7_26
I0405 21:45:22.334949  4881 net.cpp:380] relu7_26 -> fconv7_26+
I0405 21:45:22.334957  4881 net.cpp:132] Setting up relu7_26
I0405 21:45:22.336035  4881 net.cpp:139] Top shape: 1 128 42 42 (225792)
I0405 21:45:22.336045  4881 layer_factory.hpp:74] Creating layer fconv7_26+_relu7_26_0_split
I0405 21:45:22.336051  4881 net.cpp:102] Creating Layer fconv7_26+_relu7_26_0_split
I0405 21:45:22.336056  4881 net.cpp:422] fconv7_26+_relu7_26_0_split <- fconv7_26+
I0405 21:45:22.336063  4881 net.cpp:380] fconv7_26+_relu7_26_0_split -> fconv7_26+_relu7_26_0_split_0
I0405 21:45:22.336071  4881 net.cpp:380] fconv7_26+_relu7_26_0_split -> fconv7_26+_relu7_26_0_split_1
I0405 21:45:22.336087  4881 net.cpp:132] Setting up fconv7_26+_relu7_26_0_split
I0405 21:45:22.336094  4881 net.cpp:139] Top shape: 1 128 42 42 (225792)
I0405 21:45:22.336100  4881 net.cpp:139] Top shape: 1 128 42 42 (225792)
I0405 21:45:22.336105  4881 layer_factory.hpp:74] Creating layer fconv7_26to25_step1
I0405 21:45:22.336114  4881 net.cpp:102] Creating Layer fconv7_26to25_step1
I0405 21:45:22.336120  4881 net.cpp:422] fconv7_26to25_step1 <- fconv7_26+_relu7_26_0_split_0
I0405 21:45:22.336128  4881 net.cpp:380] fconv7_26to25_step1 -> fconv7_26to25_step1
I0405 21:45:22.336135  4881 net.cpp:132] Setting up fconv7_26to25_step1
I0405 21:45:22.349851  4881 net.cpp:139] Top shape: 1 64 42 42 (112896)
I0405 21:45:22.349887  4881 layer_factory.hpp:74] Creating layer relu7_26to25_step1
I0405 21:45:22.349900  4881 net.cpp:102] Creating Layer relu7_26to25_step1
I0405 21:45:22.349918  4881 net.cpp:422] relu7_26to25_step1 <- fconv7_26to25_step1
I0405 21:45:22.349927  4881 net.cpp:369] relu7_26to25_step1 -> fconv7_26to25_step1 (in-place)
I0405 21:45:22.349936  4881 net.cpp:132] Setting up relu7_26to25_step1
I0405 21:45:22.350846  4881 net.cpp:139] Top shape: 1 64 42 42 (112896)
I0405 21:45:22.350865  4881 layer_factory.hpp:74] Creating layer fconv7_26to25_step2
I0405 21:45:22.350878  4881 net.cpp:102] Creating Layer fconv7_26to25_step2
I0405 21:45:22.350883  4881 net.cpp:422] fconv7_26to25_step2 <- fconv7_26to25_step1
I0405 21:45:22.350900  4881 net.cpp:380] fconv7_26to25_step2 -> fconv7_26to25_step2
I0405 21:45:22.350909  4881 net.cpp:132] Setting up fconv7_26to25_step2
I0405 21:45:22.364105  4881 net.cpp:139] Top shape: 1 128 42 42 (225792)
I0405 21:45:22.364125  4881 layer_factory.hpp:74] Creating layer fconv7_25
I0405 21:45:22.364136  4881 net.cpp:102] Creating Layer fconv7_25
I0405 21:45:22.364142  4881 net.cpp:422] fconv7_25 <- fconv6_bn_drop6_0_split_17
I0405 21:45:22.364151  4881 net.cpp:380] fconv7_25 -> fconv7_25
I0405 21:45:22.364169  4881 net.cpp:132] Setting up fconv7_25
I0405 21:45:22.370062  4881 net.cpp:139] Top shape: 1 128 42 42 (225792)
I0405 21:45:22.370085  4881 layer_factory.hpp:74] Creating layer Pass_26to25
I0405 21:45:22.370095  4881 net.cpp:102] Creating Layer Pass_26to25
I0405 21:45:22.370101  4881 net.cpp:422] Pass_26to25 <- fconv7_26to25_step2
I0405 21:45:22.370117  4881 net.cpp:422] Pass_26to25 <- fconv7_25
I0405 21:45:22.370124  4881 net.cpp:380] Pass_26to25 -> fconv7_25+
I0405 21:45:22.370132  4881 net.cpp:132] Setting up Pass_26to25
I0405 21:45:22.370141  4881 net.cpp:139] Top shape: 1 128 42 42 (225792)
I0405 21:45:22.370146  4881 layer_factory.hpp:74] Creating layer relu7_25
I0405 21:45:22.370152  4881 net.cpp:102] Creating Layer relu7_25
I0405 21:45:22.370157  4881 net.cpp:422] relu7_25 <- fconv7_25+
I0405 21:45:22.370165  4881 net.cpp:369] relu7_25 -> fconv7_25+ (in-place)
I0405 21:45:22.370172  4881 net.cpp:132] Setting up relu7_25
I0405 21:45:22.371546  4881 net.cpp:139] Top shape: 1 128 42 42 (225792)
I0405 21:45:22.371567  4881 layer_factory.hpp:74] Creating layer fconv7_25+_relu7_25_0_split
I0405 21:45:22.371574  4881 net.cpp:102] Creating Layer fconv7_25+_relu7_25_0_split
I0405 21:45:22.371579  4881 net.cpp:422] fconv7_25+_relu7_25_0_split <- fconv7_25+
I0405 21:45:22.371587  4881 net.cpp:380] fconv7_25+_relu7_25_0_split -> fconv7_25+_relu7_25_0_split_0
I0405 21:45:22.371595  4881 net.cpp:380] fconv7_25+_relu7_25_0_split -> fconv7_25+_relu7_25_0_split_1
I0405 21:45:22.371603  4881 net.cpp:132] Setting up fconv7_25+_relu7_25_0_split
I0405 21:45:22.371611  4881 net.cpp:139] Top shape: 1 128 42 42 (225792)
I0405 21:45:22.371618  4881 net.cpp:139] Top shape: 1 128 42 42 (225792)
I0405 21:45:22.371623  4881 layer_factory.hpp:74] Creating layer fconv7_25to24_step1
I0405 21:45:22.371630  4881 net.cpp:102] Creating Layer fconv7_25to24_step1
I0405 21:45:22.371635  4881 net.cpp:422] fconv7_25to24_step1 <- fconv7_25+_relu7_25_0_split_0
I0405 21:45:22.371644  4881 net.cpp:380] fconv7_25to24_step1 -> fconv7_25to24_step1
I0405 21:45:22.371651  4881 net.cpp:132] Setting up fconv7_25to24_step1
I0405 21:45:22.384809  4881 net.cpp:139] Top shape: 1 64 42 42 (112896)
I0405 21:45:22.384835  4881 layer_factory.hpp:74] Creating layer relu7_25to24_step1
I0405 21:45:22.384845  4881 net.cpp:102] Creating Layer relu7_25to24_step1
I0405 21:45:22.384853  4881 net.cpp:422] relu7_25to24_step1 <- fconv7_25to24_step1
I0405 21:45:22.384861  4881 net.cpp:369] relu7_25to24_step1 -> fconv7_25to24_step1 (in-place)
I0405 21:45:22.384881  4881 net.cpp:132] Setting up relu7_25to24_step1
I0405 21:45:22.385792  4881 net.cpp:139] Top shape: 1 64 42 42 (112896)
I0405 21:45:22.385802  4881 layer_factory.hpp:74] Creating layer fconv7_25to24_step2
I0405 21:45:22.385814  4881 net.cpp:102] Creating Layer fconv7_25to24_step2
I0405 21:45:22.385819  4881 net.cpp:422] fconv7_25to24_step2 <- fconv7_25to24_step1
I0405 21:45:22.385828  4881 net.cpp:380] fconv7_25to24_step2 -> fconv7_25to24_step2
I0405 21:45:22.385846  4881 net.cpp:132] Setting up fconv7_25to24_step2
I0405 21:45:22.398599  4881 net.cpp:139] Top shape: 1 128 42 42 (225792)
I0405 21:45:22.398614  4881 layer_factory.hpp:74] Creating layer fconv7_24
I0405 21:45:22.398625  4881 net.cpp:102] Creating Layer fconv7_24
I0405 21:45:22.398632  4881 net.cpp:422] fconv7_24 <- fconv6_bn_drop6_0_split_18
I0405 21:45:22.398639  4881 net.cpp:380] fconv7_24 -> fconv7_24
I0405 21:45:22.398658  4881 net.cpp:132] Setting up fconv7_24
I0405 21:45:22.405081  4881 net.cpp:139] Top shape: 1 128 42 42 (225792)
I0405 21:45:22.405107  4881 layer_factory.hpp:74] Creating layer Pass_25to24
I0405 21:45:22.405119  4881 net.cpp:102] Creating Layer Pass_25to24
I0405 21:45:22.405128  4881 net.cpp:422] Pass_25to24 <- fconv7_25to24_step2
I0405 21:45:22.405138  4881 net.cpp:422] Pass_25to24 <- fconv7_24
I0405 21:45:22.405148  4881 net.cpp:380] Pass_25to24 -> fconv7_24+
I0405 21:45:22.405163  4881 net.cpp:132] Setting up Pass_25to24
I0405 21:45:22.405174  4881 net.cpp:139] Top shape: 1 128 42 42 (225792)
I0405 21:45:22.405182  4881 layer_factory.hpp:74] Creating layer relu7_24
I0405 21:45:22.405195  4881 net.cpp:102] Creating Layer relu7_24
I0405 21:45:22.405208  4881 net.cpp:422] relu7_24 <- fconv7_24+
I0405 21:45:22.405221  4881 net.cpp:369] relu7_24 -> fconv7_24+ (in-place)
I0405 21:45:22.405233  4881 net.cpp:132] Setting up relu7_24
I0405 21:45:22.406558  4881 net.cpp:139] Top shape: 1 128 42 42 (225792)
I0405 21:45:22.406576  4881 layer_factory.hpp:74] Creating layer fconv7_24+_relu7_24_0_split
I0405 21:45:22.406589  4881 net.cpp:102] Creating Layer fconv7_24+_relu7_24_0_split
I0405 21:45:22.406599  4881 net.cpp:422] fconv7_24+_relu7_24_0_split <- fconv7_24+
I0405 21:45:22.406608  4881 net.cpp:380] fconv7_24+_relu7_24_0_split -> fconv7_24+_relu7_24_0_split_0
I0405 21:45:22.406617  4881 net.cpp:380] fconv7_24+_relu7_24_0_split -> fconv7_24+_relu7_24_0_split_1
I0405 21:45:22.406625  4881 net.cpp:132] Setting up fconv7_24+_relu7_24_0_split
I0405 21:45:22.406633  4881 net.cpp:139] Top shape: 1 128 42 42 (225792)
I0405 21:45:22.406640  4881 net.cpp:139] Top shape: 1 128 42 42 (225792)
I0405 21:45:22.406643  4881 layer_factory.hpp:74] Creating layer fconv7_24to23_step1
I0405 21:45:22.406652  4881 net.cpp:102] Creating Layer fconv7_24to23_step1
I0405 21:45:22.406658  4881 net.cpp:422] fconv7_24to23_step1 <- fconv7_24+_relu7_24_0_split_0
I0405 21:45:22.406667  4881 net.cpp:380] fconv7_24to23_step1 -> fconv7_24to23_step1
I0405 21:45:22.406675  4881 net.cpp:132] Setting up fconv7_24to23_step1
I0405 21:45:22.419065  4881 net.cpp:139] Top shape: 1 64 42 42 (112896)
I0405 21:45:22.419095  4881 layer_factory.hpp:74] Creating layer relu7_24to23_step1
I0405 21:45:22.419105  4881 net.cpp:102] Creating Layer relu7_24to23_step1
I0405 21:45:22.419112  4881 net.cpp:422] relu7_24to23_step1 <- fconv7_24to23_step1
I0405 21:45:22.419119  4881 net.cpp:369] relu7_24to23_step1 -> fconv7_24to23_step1 (in-place)
I0405 21:45:22.419127  4881 net.cpp:132] Setting up relu7_24to23_step1
I0405 21:45:22.420030  4881 net.cpp:139] Top shape: 1 64 42 42 (112896)
I0405 21:45:22.420043  4881 layer_factory.hpp:74] Creating layer fconv7_24to23_step2
I0405 21:45:22.420064  4881 net.cpp:102] Creating Layer fconv7_24to23_step2
I0405 21:45:22.420071  4881 net.cpp:422] fconv7_24to23_step2 <- fconv7_24to23_step1
I0405 21:45:22.420078  4881 net.cpp:380] fconv7_24to23_step2 -> fconv7_24to23_step2
I0405 21:45:22.420089  4881 net.cpp:132] Setting up fconv7_24to23_step2
I0405 21:45:22.433331  4881 net.cpp:139] Top shape: 1 128 42 42 (225792)
I0405 21:45:22.433363  4881 layer_factory.hpp:74] Creating layer fconv7_23
I0405 21:45:22.433392  4881 net.cpp:102] Creating Layer fconv7_23
I0405 21:45:22.433405  4881 net.cpp:422] fconv7_23 <- fconv6_bn_drop6_0_split_19
I0405 21:45:22.433428  4881 net.cpp:380] fconv7_23 -> fconv7_23
I0405 21:45:22.433442  4881 net.cpp:132] Setting up fconv7_23
I0405 21:45:22.440347  4881 net.cpp:139] Top shape: 1 128 42 42 (225792)
I0405 21:45:22.440367  4881 layer_factory.hpp:74] Creating layer Pass_24to23
I0405 21:45:22.440382  4881 net.cpp:102] Creating Layer Pass_24to23
I0405 21:45:22.440389  4881 net.cpp:422] Pass_24to23 <- fconv7_24to23_step2
I0405 21:45:22.440397  4881 net.cpp:422] Pass_24to23 <- fconv7_23
I0405 21:45:22.440412  4881 net.cpp:380] Pass_24to23 -> fconv7_23+
I0405 21:45:22.440420  4881 net.cpp:132] Setting up Pass_24to23
I0405 21:45:22.440429  4881 net.cpp:139] Top shape: 1 128 42 42 (225792)
I0405 21:45:22.440434  4881 layer_factory.hpp:74] Creating layer relu7_23
I0405 21:45:22.440440  4881 net.cpp:102] Creating Layer relu7_23
I0405 21:45:22.440445  4881 net.cpp:422] relu7_23 <- fconv7_23+
I0405 21:45:22.440451  4881 net.cpp:369] relu7_23 -> fconv7_23+ (in-place)
I0405 21:45:22.440457  4881 net.cpp:132] Setting up relu7_23
I0405 21:45:22.441381  4881 net.cpp:139] Top shape: 1 128 42 42 (225792)
I0405 21:45:22.441391  4881 layer_factory.hpp:74] Creating layer fconv7_23+_relu7_23_0_split
I0405 21:45:22.441398  4881 net.cpp:102] Creating Layer fconv7_23+_relu7_23_0_split
I0405 21:45:22.441403  4881 net.cpp:422] fconv7_23+_relu7_23_0_split <- fconv7_23+
I0405 21:45:22.441411  4881 net.cpp:380] fconv7_23+_relu7_23_0_split -> fconv7_23+_relu7_23_0_split_0
I0405 21:45:22.441419  4881 net.cpp:380] fconv7_23+_relu7_23_0_split -> fconv7_23+_relu7_23_0_split_1
I0405 21:45:22.441436  4881 net.cpp:132] Setting up fconv7_23+_relu7_23_0_split
I0405 21:45:22.441443  4881 net.cpp:139] Top shape: 1 128 42 42 (225792)
I0405 21:45:22.441449  4881 net.cpp:139] Top shape: 1 128 42 42 (225792)
I0405 21:45:22.441453  4881 layer_factory.hpp:74] Creating layer fconv7_23to22_step1
I0405 21:45:22.441462  4881 net.cpp:102] Creating Layer fconv7_23to22_step1
I0405 21:45:22.441468  4881 net.cpp:422] fconv7_23to22_step1 <- fconv7_23+_relu7_23_0_split_0
I0405 21:45:22.441475  4881 net.cpp:380] fconv7_23to22_step1 -> fconv7_23to22_step1
I0405 21:45:22.441483  4881 net.cpp:132] Setting up fconv7_23to22_step1
I0405 21:45:22.453778  4881 net.cpp:139] Top shape: 1 64 42 42 (112896)
I0405 21:45:22.453794  4881 layer_factory.hpp:74] Creating layer relu7_23to22_step1
I0405 21:45:22.453804  4881 net.cpp:102] Creating Layer relu7_23to22_step1
I0405 21:45:22.453811  4881 net.cpp:422] relu7_23to22_step1 <- fconv7_23to22_step1
I0405 21:45:22.453819  4881 net.cpp:369] relu7_23to22_step1 -> fconv7_23to22_step1 (in-place)
I0405 21:45:22.453835  4881 net.cpp:132] Setting up relu7_23to22_step1
I0405 21:45:22.454723  4881 net.cpp:139] Top shape: 1 64 42 42 (112896)
I0405 21:45:22.454735  4881 layer_factory.hpp:74] Creating layer fconv7_23to22_step2
I0405 21:45:22.454746  4881 net.cpp:102] Creating Layer fconv7_23to22_step2
I0405 21:45:22.454751  4881 net.cpp:422] fconv7_23to22_step2 <- fconv7_23to22_step1
I0405 21:45:22.454759  4881 net.cpp:380] fconv7_23to22_step2 -> fconv7_23to22_step2
I0405 21:45:22.454777  4881 net.cpp:132] Setting up fconv7_23to22_step2
I0405 21:45:22.468407  4881 net.cpp:139] Top shape: 1 128 42 42 (225792)
I0405 21:45:22.468433  4881 layer_factory.hpp:74] Creating layer fconv7_22
I0405 21:45:22.468446  4881 net.cpp:102] Creating Layer fconv7_22
I0405 21:45:22.468452  4881 net.cpp:422] fconv7_22 <- fconv6_bn_drop6_0_split_20
I0405 21:45:22.468464  4881 net.cpp:380] fconv7_22 -> fconv7_22
I0405 21:45:22.468477  4881 net.cpp:132] Setting up fconv7_22
I0405 21:45:22.474570  4881 net.cpp:139] Top shape: 1 128 42 42 (225792)
I0405 21:45:22.474586  4881 layer_factory.hpp:74] Creating layer Pass_23to22
I0405 21:45:22.474594  4881 net.cpp:102] Creating Layer Pass_23to22
I0405 21:45:22.474601  4881 net.cpp:422] Pass_23to22 <- fconv7_23to22_step2
I0405 21:45:22.474607  4881 net.cpp:422] Pass_23to22 <- fconv7_22
I0405 21:45:22.474613  4881 net.cpp:380] Pass_23to22 -> fconv7_22+
I0405 21:45:22.474630  4881 net.cpp:132] Setting up Pass_23to22
I0405 21:45:22.474639  4881 net.cpp:139] Top shape: 1 128 42 42 (225792)
I0405 21:45:22.474644  4881 layer_factory.hpp:74] Creating layer relu7_22
I0405 21:45:22.474652  4881 net.cpp:102] Creating Layer relu7_22
I0405 21:45:22.474656  4881 net.cpp:422] relu7_22 <- fconv7_22+
I0405 21:45:22.474663  4881 net.cpp:369] relu7_22 -> fconv7_22+ (in-place)
I0405 21:45:22.474669  4881 net.cpp:132] Setting up relu7_22
I0405 21:45:22.475554  4881 net.cpp:139] Top shape: 1 128 42 42 (225792)
I0405 21:45:22.475574  4881 layer_factory.hpp:74] Creating layer fconv7_22+_relu7_22_0_split
I0405 21:45:22.475584  4881 net.cpp:102] Creating Layer fconv7_22+_relu7_22_0_split
I0405 21:45:22.475589  4881 net.cpp:422] fconv7_22+_relu7_22_0_split <- fconv7_22+
I0405 21:45:22.475605  4881 net.cpp:380] fconv7_22+_relu7_22_0_split -> fconv7_22+_relu7_22_0_split_0
I0405 21:45:22.475612  4881 net.cpp:380] fconv7_22+_relu7_22_0_split -> fconv7_22+_relu7_22_0_split_1
I0405 21:45:22.475620  4881 net.cpp:132] Setting up fconv7_22+_relu7_22_0_split
I0405 21:45:22.475627  4881 net.cpp:139] Top shape: 1 128 42 42 (225792)
I0405 21:45:22.475633  4881 net.cpp:139] Top shape: 1 128 42 42 (225792)
I0405 21:45:22.475637  4881 layer_factory.hpp:74] Creating layer fconv7_22to21_step1
I0405 21:45:22.475647  4881 net.cpp:102] Creating Layer fconv7_22to21_step1
I0405 21:45:22.475653  4881 net.cpp:422] fconv7_22to21_step1 <- fconv7_22+_relu7_22_0_split_0
I0405 21:45:22.475661  4881 net.cpp:380] fconv7_22to21_step1 -> fconv7_22to21_step1
I0405 21:45:22.475669  4881 net.cpp:132] Setting up fconv7_22to21_step1
I0405 21:45:22.488788  4881 net.cpp:139] Top shape: 1 64 42 42 (112896)
I0405 21:45:22.488809  4881 layer_factory.hpp:74] Creating layer relu7_22to21_step1
I0405 21:45:22.488818  4881 net.cpp:102] Creating Layer relu7_22to21_step1
I0405 21:45:22.488826  4881 net.cpp:422] relu7_22to21_step1 <- fconv7_22to21_step1
I0405 21:45:22.488834  4881 net.cpp:369] relu7_22to21_step1 -> fconv7_22to21_step1 (in-place)
I0405 21:45:22.488842  4881 net.cpp:132] Setting up relu7_22to21_step1
I0405 21:45:22.490026  4881 net.cpp:139] Top shape: 1 64 42 42 (112896)
I0405 21:45:22.490037  4881 layer_factory.hpp:74] Creating layer fconv7_22to21_step2
I0405 21:45:22.490047  4881 net.cpp:102] Creating Layer fconv7_22to21_step2
I0405 21:45:22.490056  4881 net.cpp:422] fconv7_22to21_step2 <- fconv7_22to21_step1
I0405 21:45:22.490063  4881 net.cpp:380] fconv7_22to21_step2 -> fconv7_22to21_step2
I0405 21:45:22.490082  4881 net.cpp:132] Setting up fconv7_22to21_step2
I0405 21:45:22.503360  4881 net.cpp:139] Top shape: 1 128 42 42 (225792)
I0405 21:45:22.503386  4881 layer_factory.hpp:74] Creating layer fconv7_21
I0405 21:45:22.503398  4881 net.cpp:102] Creating Layer fconv7_21
I0405 21:45:22.503404  4881 net.cpp:422] fconv7_21 <- fconv6_bn_drop6_0_split_21
I0405 21:45:22.503415  4881 net.cpp:380] fconv7_21 -> fconv7_21
I0405 21:45:22.503437  4881 net.cpp:132] Setting up fconv7_21
I0405 21:45:22.509495  4881 net.cpp:139] Top shape: 1 128 42 42 (225792)
I0405 21:45:22.509508  4881 layer_factory.hpp:74] Creating layer Pass_22to21
I0405 21:45:22.509519  4881 net.cpp:102] Creating Layer Pass_22to21
I0405 21:45:22.509526  4881 net.cpp:422] Pass_22to21 <- fconv7_22to21_step2
I0405 21:45:22.509536  4881 net.cpp:422] Pass_22to21 <- fconv7_21
I0405 21:45:22.509542  4881 net.cpp:380] Pass_22to21 -> fconv7_21+
I0405 21:45:22.509559  4881 net.cpp:132] Setting up Pass_22to21
I0405 21:45:22.509567  4881 net.cpp:139] Top shape: 1 128 42 42 (225792)
I0405 21:45:22.509572  4881 layer_factory.hpp:74] Creating layer relu7_21
I0405 21:45:22.509579  4881 net.cpp:102] Creating Layer relu7_21
I0405 21:45:22.509583  4881 net.cpp:422] relu7_21 <- fconv7_21+
I0405 21:45:22.509591  4881 net.cpp:369] relu7_21 -> fconv7_21+ (in-place)
I0405 21:45:22.509598  4881 net.cpp:132] Setting up relu7_21
I0405 21:45:22.510483  4881 net.cpp:139] Top shape: 1 128 42 42 (225792)
I0405 21:45:22.510493  4881 layer_factory.hpp:74] Creating layer fconv7_21+_relu7_21_0_split
I0405 21:45:22.510501  4881 net.cpp:102] Creating Layer fconv7_21+_relu7_21_0_split
I0405 21:45:22.510506  4881 net.cpp:422] fconv7_21+_relu7_21_0_split <- fconv7_21+
I0405 21:45:22.510512  4881 net.cpp:380] fconv7_21+_relu7_21_0_split -> fconv7_21+_relu7_21_0_split_0
I0405 21:45:22.510520  4881 net.cpp:380] fconv7_21+_relu7_21_0_split -> fconv7_21+_relu7_21_0_split_1
I0405 21:45:22.510536  4881 net.cpp:132] Setting up fconv7_21+_relu7_21_0_split
I0405 21:45:22.510543  4881 net.cpp:139] Top shape: 1 128 42 42 (225792)
I0405 21:45:22.510550  4881 net.cpp:139] Top shape: 1 128 42 42 (225792)
I0405 21:45:22.510555  4881 layer_factory.hpp:74] Creating layer fconv7_21to20_step1
I0405 21:45:22.510563  4881 net.cpp:102] Creating Layer fconv7_21to20_step1
I0405 21:45:22.510568  4881 net.cpp:422] fconv7_21to20_step1 <- fconv7_21+_relu7_21_0_split_0
I0405 21:45:22.510576  4881 net.cpp:380] fconv7_21to20_step1 -> fconv7_21to20_step1
I0405 21:45:22.510584  4881 net.cpp:132] Setting up fconv7_21to20_step1
I0405 21:45:22.522914  4881 net.cpp:139] Top shape: 1 64 42 42 (112896)
I0405 21:45:22.522929  4881 layer_factory.hpp:74] Creating layer relu7_21to20_step1
I0405 21:45:22.522938  4881 net.cpp:102] Creating Layer relu7_21to20_step1
I0405 21:45:22.522943  4881 net.cpp:422] relu7_21to20_step1 <- fconv7_21to20_step1
I0405 21:45:22.522949  4881 net.cpp:369] relu7_21to20_step1 -> fconv7_21to20_step1 (in-place)
I0405 21:45:22.522958  4881 net.cpp:132] Setting up relu7_21to20_step1
I0405 21:45:22.524077  4881 net.cpp:139] Top shape: 1 64 42 42 (112896)
I0405 21:45:22.524087  4881 layer_factory.hpp:74] Creating layer fconv7_21to20_step2
I0405 21:45:22.524107  4881 net.cpp:102] Creating Layer fconv7_21to20_step2
I0405 21:45:22.524113  4881 net.cpp:422] fconv7_21to20_step2 <- fconv7_21to20_step1
I0405 21:45:22.524121  4881 net.cpp:380] fconv7_21to20_step2 -> fconv7_21to20_step2
I0405 21:45:22.524130  4881 net.cpp:132] Setting up fconv7_21to20_step2
I0405 21:45:22.537389  4881 net.cpp:139] Top shape: 1 128 42 42 (225792)
I0405 21:45:22.537413  4881 layer_factory.hpp:74] Creating layer fconv7_20
I0405 21:45:22.537427  4881 net.cpp:102] Creating Layer fconv7_20
I0405 21:45:22.537434  4881 net.cpp:422] fconv7_20 <- fconv6_bn_drop6_0_split_22
I0405 21:45:22.537446  4881 net.cpp:380] fconv7_20 -> fconv7_20
I0405 21:45:22.537467  4881 net.cpp:132] Setting up fconv7_20
I0405 21:45:22.543472  4881 net.cpp:139] Top shape: 1 128 42 42 (225792)
I0405 21:45:22.543485  4881 layer_factory.hpp:74] Creating layer Pass_21to20
I0405 21:45:22.543493  4881 net.cpp:102] Creating Layer Pass_21to20
I0405 21:45:22.543501  4881 net.cpp:422] Pass_21to20 <- fconv7_21to20_step2
I0405 21:45:22.543509  4881 net.cpp:422] Pass_21to20 <- fconv7_20
I0405 21:45:22.543514  4881 net.cpp:380] Pass_21to20 -> fconv7_20+
I0405 21:45:22.543531  4881 net.cpp:132] Setting up Pass_21to20
I0405 21:45:22.543540  4881 net.cpp:139] Top shape: 1 128 42 42 (225792)
I0405 21:45:22.543545  4881 layer_factory.hpp:74] Creating layer relu7_20
I0405 21:45:22.543551  4881 net.cpp:102] Creating Layer relu7_20
I0405 21:45:22.543556  4881 net.cpp:422] relu7_20 <- fconv7_20+
I0405 21:45:22.543561  4881 net.cpp:369] relu7_20 -> fconv7_20+ (in-place)
I0405 21:45:22.543568  4881 net.cpp:132] Setting up relu7_20
I0405 21:45:22.544829  4881 net.cpp:139] Top shape: 1 128 42 42 (225792)
I0405 21:45:22.544853  4881 layer_factory.hpp:74] Creating layer fconv7_20+_relu7_20_0_split
I0405 21:45:22.544865  4881 net.cpp:102] Creating Layer fconv7_20+_relu7_20_0_split
I0405 21:45:22.544874  4881 net.cpp:422] fconv7_20+_relu7_20_0_split <- fconv7_20+
I0405 21:45:22.544888  4881 net.cpp:380] fconv7_20+_relu7_20_0_split -> fconv7_20+_relu7_20_0_split_0
I0405 21:45:22.544916  4881 net.cpp:380] fconv7_20+_relu7_20_0_split -> fconv7_20+_relu7_20_0_split_1
I0405 21:45:22.544939  4881 net.cpp:132] Setting up fconv7_20+_relu7_20_0_split
I0405 21:45:22.544953  4881 net.cpp:139] Top shape: 1 128 42 42 (225792)
I0405 21:45:22.544965  4881 net.cpp:139] Top shape: 1 128 42 42 (225792)
I0405 21:45:22.544973  4881 layer_factory.hpp:74] Creating layer fconv7_20to15_step1
I0405 21:45:22.544989  4881 net.cpp:102] Creating Layer fconv7_20to15_step1
I0405 21:45:22.545001  4881 net.cpp:422] fconv7_20to15_step1 <- fconv7_20+_relu7_20_0_split_0
I0405 21:45:22.545014  4881 net.cpp:380] fconv7_20to15_step1 -> fconv7_20to15_step1
I0405 21:45:22.545040  4881 net.cpp:132] Setting up fconv7_20to15_step1
I0405 21:45:22.557749  4881 net.cpp:139] Top shape: 1 64 42 42 (112896)
I0405 21:45:22.557778  4881 layer_factory.hpp:74] Creating layer relu7_20to15_step1
I0405 21:45:22.557788  4881 net.cpp:102] Creating Layer relu7_20to15_step1
I0405 21:45:22.557796  4881 net.cpp:422] relu7_20to15_step1 <- fconv7_20to15_step1
I0405 21:45:22.557802  4881 net.cpp:369] relu7_20to15_step1 -> fconv7_20to15_step1 (in-place)
I0405 21:45:22.557811  4881 net.cpp:132] Setting up relu7_20to15_step1
I0405 21:45:22.558759  4881 net.cpp:139] Top shape: 1 64 42 42 (112896)
I0405 21:45:22.558770  4881 layer_factory.hpp:74] Creating layer fconv7_20to15_step2
I0405 21:45:22.558779  4881 net.cpp:102] Creating Layer fconv7_20to15_step2
I0405 21:45:22.558784  4881 net.cpp:422] fconv7_20to15_step2 <- fconv7_20to15_step1
I0405 21:45:22.558794  4881 net.cpp:380] fconv7_20to15_step2 -> fconv7_20to15_step2
I0405 21:45:22.558801  4881 net.cpp:132] Setting up fconv7_20to15_step2
I0405 21:45:22.571738  4881 net.cpp:139] Top shape: 1 128 42 42 (225792)
I0405 21:45:22.571758  4881 layer_factory.hpp:74] Creating layer fconv7_15
I0405 21:45:22.571771  4881 net.cpp:102] Creating Layer fconv7_15
I0405 21:45:22.571777  4881 net.cpp:422] fconv7_15 <- fconv6_bn_drop6_0_split_23
I0405 21:45:22.571787  4881 net.cpp:380] fconv7_15 -> fconv7_15
I0405 21:45:22.571807  4881 net.cpp:132] Setting up fconv7_15
I0405 21:45:22.577885  4881 net.cpp:139] Top shape: 1 128 42 42 (225792)
I0405 21:45:22.577899  4881 layer_factory.hpp:74] Creating layer Pass_1620to15
I0405 21:45:22.577913  4881 net.cpp:102] Creating Layer Pass_1620to15
I0405 21:45:22.577919  4881 net.cpp:422] Pass_1620to15 <- fconv7_20to15_step2
I0405 21:45:22.577926  4881 net.cpp:422] Pass_1620to15 <- fconv7_16to15_step2
I0405 21:45:22.577941  4881 net.cpp:422] Pass_1620to15 <- fconv7_15
I0405 21:45:22.577949  4881 net.cpp:380] Pass_1620to15 -> fconv7_15+
I0405 21:45:22.577956  4881 net.cpp:132] Setting up Pass_1620to15
I0405 21:45:22.577965  4881 net.cpp:139] Top shape: 1 128 42 42 (225792)
I0405 21:45:22.577970  4881 layer_factory.hpp:74] Creating layer relu7_15
I0405 21:45:22.577977  4881 net.cpp:102] Creating Layer relu7_15
I0405 21:45:22.577982  4881 net.cpp:422] relu7_15 <- fconv7_15+
I0405 21:45:22.577988  4881 net.cpp:369] relu7_15 -> fconv7_15+ (in-place)
I0405 21:45:22.577996  4881 net.cpp:132] Setting up relu7_15
I0405 21:45:22.578892  4881 net.cpp:139] Top shape: 1 128 42 42 (225792)
I0405 21:45:22.578902  4881 layer_factory.hpp:74] Creating layer fconv7_15+_relu7_15_0_split
I0405 21:45:22.578912  4881 net.cpp:102] Creating Layer fconv7_15+_relu7_15_0_split
I0405 21:45:22.578917  4881 net.cpp:422] fconv7_15+_relu7_15_0_split <- fconv7_15+
I0405 21:45:22.578923  4881 net.cpp:380] fconv7_15+_relu7_15_0_split -> fconv7_15+_relu7_15_0_split_0
I0405 21:45:22.578930  4881 net.cpp:380] fconv7_15+_relu7_15_0_split -> fconv7_15+_relu7_15_0_split_1
I0405 21:45:22.578948  4881 net.cpp:132] Setting up fconv7_15+_relu7_15_0_split
I0405 21:45:22.578954  4881 net.cpp:139] Top shape: 1 128 42 42 (225792)
I0405 21:45:22.578960  4881 net.cpp:139] Top shape: 1 128 42 42 (225792)
I0405 21:45:22.578964  4881 layer_factory.hpp:74] Creating layer fconv7_15to2_step1
I0405 21:45:22.578975  4881 net.cpp:102] Creating Layer fconv7_15to2_step1
I0405 21:45:22.578980  4881 net.cpp:422] fconv7_15to2_step1 <- fconv7_15+_relu7_15_0_split_0
I0405 21:45:22.578991  4881 net.cpp:380] fconv7_15to2_step1 -> fconv7_15to2_step1
I0405 21:45:22.578999  4881 net.cpp:132] Setting up fconv7_15to2_step1
I0405 21:45:22.592516  4881 net.cpp:139] Top shape: 1 64 42 42 (112896)
I0405 21:45:22.592540  4881 layer_factory.hpp:74] Creating layer relu7_15to2_step1
I0405 21:45:22.592551  4881 net.cpp:102] Creating Layer relu7_15to2_step1
I0405 21:45:22.592558  4881 net.cpp:422] relu7_15to2_step1 <- fconv7_15to2_step1
I0405 21:45:22.592568  4881 net.cpp:369] relu7_15to2_step1 -> fconv7_15to2_step1 (in-place)
I0405 21:45:22.592586  4881 net.cpp:132] Setting up relu7_15to2_step1
I0405 21:45:22.593509  4881 net.cpp:139] Top shape: 1 64 42 42 (112896)
I0405 21:45:22.593521  4881 layer_factory.hpp:74] Creating layer fconv7_15to2_step2
I0405 21:45:22.593540  4881 net.cpp:102] Creating Layer fconv7_15to2_step2
I0405 21:45:22.593547  4881 net.cpp:422] fconv7_15to2_step2 <- fconv7_15to2_step1
I0405 21:45:22.593564  4881 net.cpp:380] fconv7_15to2_step2 -> fconv7_15to2_step2
I0405 21:45:22.593574  4881 net.cpp:132] Setting up fconv7_15to2_step2
I0405 21:45:22.606526  4881 net.cpp:139] Top shape: 1 128 42 42 (225792)
I0405 21:45:22.606552  4881 layer_factory.hpp:74] Creating layer fconv7_2
I0405 21:45:22.606569  4881 net.cpp:102] Creating Layer fconv7_2
I0405 21:45:22.606588  4881 net.cpp:422] fconv7_2 <- fconv6_bn_drop6_0_split_24
I0405 21:45:22.606616  4881 net.cpp:380] fconv7_2 -> fconv7_2
I0405 21:45:22.606632  4881 net.cpp:132] Setting up fconv7_2
I0405 21:45:22.612851  4881 net.cpp:139] Top shape: 1 128 42 42 (225792)
I0405 21:45:22.612866  4881 layer_factory.hpp:74] Creating layer Pass_153to2
I0405 21:45:22.612875  4881 net.cpp:102] Creating Layer Pass_153to2
I0405 21:45:22.612881  4881 net.cpp:422] Pass_153to2 <- fconv7_15to2_step2
I0405 21:45:22.612889  4881 net.cpp:422] Pass_153to2 <- fconv7_3to2_step2
I0405 21:45:22.612896  4881 net.cpp:422] Pass_153to2 <- fconv7_2
I0405 21:45:22.612915  4881 net.cpp:380] Pass_153to2 -> fconv7_2+
I0405 21:45:22.612923  4881 net.cpp:132] Setting up Pass_153to2
I0405 21:45:22.612931  4881 net.cpp:139] Top shape: 1 128 42 42 (225792)
I0405 21:45:22.612936  4881 layer_factory.hpp:74] Creating layer relu7_2
I0405 21:45:22.612943  4881 net.cpp:102] Creating Layer relu7_2
I0405 21:45:22.612947  4881 net.cpp:422] relu7_2 <- fconv7_2+
I0405 21:45:22.612956  4881 net.cpp:369] relu7_2 -> fconv7_2+ (in-place)
I0405 21:45:22.612962  4881 net.cpp:132] Setting up relu7_2
I0405 21:45:22.613867  4881 net.cpp:139] Top shape: 1 128 42 42 (225792)
I0405 21:45:22.613878  4881 layer_factory.hpp:74] Creating layer fconv7_2+_relu7_2_0_split
I0405 21:45:22.613885  4881 net.cpp:102] Creating Layer fconv7_2+_relu7_2_0_split
I0405 21:45:22.613893  4881 net.cpp:422] fconv7_2+_relu7_2_0_split <- fconv7_2+
I0405 21:45:22.613898  4881 net.cpp:380] fconv7_2+_relu7_2_0_split -> fconv7_2+_relu7_2_0_split_0
I0405 21:45:22.613906  4881 net.cpp:380] fconv7_2+_relu7_2_0_split -> fconv7_2+_relu7_2_0_split_1
I0405 21:45:22.613924  4881 net.cpp:132] Setting up fconv7_2+_relu7_2_0_split
I0405 21:45:22.613930  4881 net.cpp:139] Top shape: 1 128 42 42 (225792)
I0405 21:45:22.613936  4881 net.cpp:139] Top shape: 1 128 42 42 (225792)
I0405 21:45:22.613941  4881 layer_factory.hpp:74] Creating layer fconv7_2to1_step1
I0405 21:45:22.613950  4881 net.cpp:102] Creating Layer fconv7_2to1_step1
I0405 21:45:22.613955  4881 net.cpp:422] fconv7_2to1_step1 <- fconv7_2+_relu7_2_0_split_0
I0405 21:45:22.613963  4881 net.cpp:380] fconv7_2to1_step1 -> fconv7_2to1_step1
I0405 21:45:22.613972  4881 net.cpp:132] Setting up fconv7_2to1_step1
I0405 21:45:22.627290  4881 net.cpp:139] Top shape: 1 64 42 42 (112896)
I0405 21:45:22.627315  4881 layer_factory.hpp:74] Creating layer relu7_2to1_step1
I0405 21:45:22.627327  4881 net.cpp:102] Creating Layer relu7_2to1_step1
I0405 21:45:22.627336  4881 net.cpp:422] relu7_2to1_step1 <- fconv7_2to1_step1
I0405 21:45:22.627344  4881 net.cpp:369] relu7_2to1_step1 -> fconv7_2to1_step1 (in-place)
I0405 21:45:22.627363  4881 net.cpp:132] Setting up relu7_2to1_step1
I0405 21:45:22.628290  4881 net.cpp:139] Top shape: 1 64 42 42 (112896)
I0405 21:45:22.628301  4881 layer_factory.hpp:74] Creating layer fconv7_2to1_step2
I0405 21:45:22.628312  4881 net.cpp:102] Creating Layer fconv7_2to1_step2
I0405 21:45:22.628319  4881 net.cpp:422] fconv7_2to1_step2 <- fconv7_2to1_step1
I0405 21:45:22.628325  4881 net.cpp:380] fconv7_2to1_step2 -> fconv7_2to1_step2
I0405 21:45:22.628343  4881 net.cpp:132] Setting up fconv7_2to1_step2
I0405 21:45:22.640751  4881 net.cpp:139] Top shape: 1 128 42 42 (225792)
I0405 21:45:22.640769  4881 layer_factory.hpp:74] Creating layer fconv7_1
I0405 21:45:22.640779  4881 net.cpp:102] Creating Layer fconv7_1
I0405 21:45:22.640786  4881 net.cpp:422] fconv7_1 <- fconv6_bn_drop6_0_split_25
I0405 21:45:22.640796  4881 net.cpp:380] fconv7_1 -> fconv7_1
I0405 21:45:22.640815  4881 net.cpp:132] Setting up fconv7_1
I0405 21:45:22.646950  4881 net.cpp:139] Top shape: 1 128 42 42 (225792)
I0405 21:45:22.646966  4881 layer_factory.hpp:74] Creating layer Pass_2to1
I0405 21:45:22.646975  4881 net.cpp:102] Creating Layer Pass_2to1
I0405 21:45:22.646981  4881 net.cpp:422] Pass_2to1 <- fconv7_2to1_step2
I0405 21:45:22.646986  4881 net.cpp:422] Pass_2to1 <- fconv7_1
I0405 21:45:22.646993  4881 net.cpp:380] Pass_2to1 -> fconv7_1+
I0405 21:45:22.647009  4881 net.cpp:132] Setting up Pass_2to1
I0405 21:45:22.647017  4881 net.cpp:139] Top shape: 1 128 42 42 (225792)
I0405 21:45:22.647022  4881 layer_factory.hpp:74] Creating layer relu7_1
I0405 21:45:22.647029  4881 net.cpp:102] Creating Layer relu7_1
I0405 21:45:22.647033  4881 net.cpp:422] relu7_1 <- fconv7_1+
I0405 21:45:22.647042  4881 net.cpp:369] relu7_1 -> fconv7_1+ (in-place)
I0405 21:45:22.647047  4881 net.cpp:132] Setting up relu7_1
I0405 21:45:22.648046  4881 net.cpp:139] Top shape: 1 128 42 42 (225792)
I0405 21:45:22.648063  4881 layer_factory.hpp:74] Creating layer fconvb27_1
I0405 21:45:22.648074  4881 net.cpp:102] Creating Layer fconvb27_1
I0405 21:45:22.648082  4881 net.cpp:422] fconvb27_1 <- fconv6_bn_drop6_0_split_26
I0405 21:45:22.648090  4881 net.cpp:380] fconvb27_1 -> fconvb27_1
I0405 21:45:22.648123  4881 net.cpp:132] Setting up fconvb27_1
I0405 21:45:22.655055  4881 net.cpp:139] Top shape: 1 128 42 42 (225792)
I0405 21:45:22.655079  4881 layer_factory.hpp:74] Creating layer relub27_1
I0405 21:45:22.655094  4881 net.cpp:102] Creating Layer relub27_1
I0405 21:45:22.655107  4881 net.cpp:422] relub27_1 <- fconvb27_1
I0405 21:45:22.655138  4881 net.cpp:380] relub27_1 -> fconvb27_1+
I0405 21:45:22.655148  4881 net.cpp:132] Setting up relub27_1
I0405 21:45:22.656069  4881 net.cpp:139] Top shape: 1 128 42 42 (225792)
I0405 21:45:22.656078  4881 layer_factory.hpp:74] Creating layer fconvb27_1+_relub27_1_0_split
I0405 21:45:22.656086  4881 net.cpp:102] Creating Layer fconvb27_1+_relub27_1_0_split
I0405 21:45:22.656091  4881 net.cpp:422] fconvb27_1+_relub27_1_0_split <- fconvb27_1+
I0405 21:45:22.656097  4881 net.cpp:380] fconvb27_1+_relub27_1_0_split -> fconvb27_1+_relub27_1_0_split_0
I0405 21:45:22.656105  4881 net.cpp:380] fconvb27_1+_relub27_1_0_split -> fconvb27_1+_relub27_1_0_split_1
I0405 21:45:22.656121  4881 net.cpp:132] Setting up fconvb27_1+_relub27_1_0_split
I0405 21:45:22.656128  4881 net.cpp:139] Top shape: 1 128 42 42 (225792)
I0405 21:45:22.656134  4881 net.cpp:139] Top shape: 1 128 42 42 (225792)
I0405 21:45:22.656139  4881 layer_factory.hpp:74] Creating layer fconvb27_1to2_step1
I0405 21:45:22.656148  4881 net.cpp:102] Creating Layer fconvb27_1to2_step1
I0405 21:45:22.656154  4881 net.cpp:422] fconvb27_1to2_step1 <- fconvb27_1+_relub27_1_0_split_0
I0405 21:45:22.656162  4881 net.cpp:380] fconvb27_1to2_step1 -> fconvb27_1to2_step1
I0405 21:45:22.656170  4881 net.cpp:132] Setting up fconvb27_1to2_step1
I0405 21:45:22.669069  4881 net.cpp:139] Top shape: 1 64 42 42 (112896)
I0405 21:45:22.669088  4881 layer_factory.hpp:74] Creating layer relub27_1to2_step1
I0405 21:45:22.669096  4881 net.cpp:102] Creating Layer relub27_1to2_step1
I0405 21:45:22.669102  4881 net.cpp:422] relub27_1to2_step1 <- fconvb27_1to2_step1
I0405 21:45:22.669113  4881 net.cpp:369] relub27_1to2_step1 -> fconvb27_1to2_step1 (in-place)
I0405 21:45:22.669131  4881 net.cpp:132] Setting up relub27_1to2_step1
I0405 21:45:22.670284  4881 net.cpp:139] Top shape: 1 64 42 42 (112896)
I0405 21:45:22.670295  4881 layer_factory.hpp:74] Creating layer fconvb27_1to2_step2
I0405 21:45:22.670306  4881 net.cpp:102] Creating Layer fconvb27_1to2_step2
I0405 21:45:22.670311  4881 net.cpp:422] fconvb27_1to2_step2 <- fconvb27_1to2_step1
I0405 21:45:22.670318  4881 net.cpp:380] fconvb27_1to2_step2 -> fconvb27_1to2_step2
I0405 21:45:22.670327  4881 net.cpp:132] Setting up fconvb27_1to2_step2
I0405 21:45:22.683482  4881 net.cpp:139] Top shape: 1 128 42 42 (225792)
I0405 21:45:22.683514  4881 layer_factory.hpp:74] Creating layer fconvb27_2
I0405 21:45:22.683537  4881 net.cpp:102] Creating Layer fconvb27_2
I0405 21:45:22.683558  4881 net.cpp:422] fconvb27_2 <- fconv6_bn_drop6_0_split_27
I0405 21:45:22.683584  4881 net.cpp:380] fconvb27_2 -> fconvb27_2
I0405 21:45:22.683603  4881 net.cpp:132] Setting up fconvb27_2
I0405 21:45:22.689965  4881 net.cpp:139] Top shape: 1 128 42 42 (225792)
I0405 21:45:22.689980  4881 layer_factory.hpp:74] Creating layer Pass_b2_1to2
I0405 21:45:22.689988  4881 net.cpp:102] Creating Layer Pass_b2_1to2
I0405 21:45:22.689995  4881 net.cpp:422] Pass_b2_1to2 <- fconvb27_1to2_step2
I0405 21:45:22.690001  4881 net.cpp:422] Pass_b2_1to2 <- fconvb27_2
I0405 21:45:22.690006  4881 net.cpp:380] Pass_b2_1to2 -> fconvb27_2+
I0405 21:45:22.690023  4881 net.cpp:132] Setting up Pass_b2_1to2
I0405 21:45:22.690032  4881 net.cpp:139] Top shape: 1 128 42 42 (225792)
I0405 21:45:22.690037  4881 layer_factory.hpp:74] Creating layer relub27_2
I0405 21:45:22.690045  4881 net.cpp:102] Creating Layer relub27_2
I0405 21:45:22.690050  4881 net.cpp:422] relub27_2 <- fconvb27_2+
I0405 21:45:22.690057  4881 net.cpp:369] relub27_2 -> fconvb27_2+ (in-place)
I0405 21:45:22.690062  4881 net.cpp:132] Setting up relub27_2
I0405 21:45:22.691179  4881 net.cpp:139] Top shape: 1 128 42 42 (225792)
I0405 21:45:22.691189  4881 layer_factory.hpp:74] Creating layer fconvb27_2+_relub27_2_0_split
I0405 21:45:22.691196  4881 net.cpp:102] Creating Layer fconvb27_2+_relub27_2_0_split
I0405 21:45:22.691201  4881 net.cpp:422] fconvb27_2+_relub27_2_0_split <- fconvb27_2+
I0405 21:45:22.691207  4881 net.cpp:380] fconvb27_2+_relub27_2_0_split -> fconvb27_2+_relub27_2_0_split_0
I0405 21:45:22.691215  4881 net.cpp:380] fconvb27_2+_relub27_2_0_split -> fconvb27_2+_relub27_2_0_split_1
I0405 21:45:22.691232  4881 net.cpp:380] fconvb27_2+_relub27_2_0_split -> fconvb27_2+_relub27_2_0_split_2
I0405 21:45:22.691239  4881 net.cpp:132] Setting up fconvb27_2+_relub27_2_0_split
I0405 21:45:22.691246  4881 net.cpp:139] Top shape: 1 128 42 42 (225792)
I0405 21:45:22.691252  4881 net.cpp:139] Top shape: 1 128 42 42 (225792)
I0405 21:45:22.691257  4881 net.cpp:139] Top shape: 1 128 42 42 (225792)
I0405 21:45:22.691262  4881 layer_factory.hpp:74] Creating layer fconvb27_2to3_step1
I0405 21:45:22.691272  4881 net.cpp:102] Creating Layer fconvb27_2to3_step1
I0405 21:45:22.691277  4881 net.cpp:422] fconvb27_2to3_step1 <- fconvb27_2+_relub27_2_0_split_0
I0405 21:45:22.691284  4881 net.cpp:380] fconvb27_2to3_step1 -> fconvb27_2to3_step1
I0405 21:45:22.691293  4881 net.cpp:132] Setting up fconvb27_2to3_step1
I0405 21:45:22.703965  4881 net.cpp:139] Top shape: 1 64 42 42 (112896)
I0405 21:45:22.703982  4881 layer_factory.hpp:74] Creating layer relub27_2to3_step1
I0405 21:45:22.703990  4881 net.cpp:102] Creating Layer relub27_2to3_step1
I0405 21:45:22.703996  4881 net.cpp:422] relub27_2to3_step1 <- fconvb27_2to3_step1
I0405 21:45:22.704005  4881 net.cpp:369] relub27_2to3_step1 -> fconvb27_2to3_step1 (in-place)
I0405 21:45:22.704012  4881 net.cpp:132] Setting up relub27_2to3_step1
I0405 21:45:22.704957  4881 net.cpp:139] Top shape: 1 64 42 42 (112896)
I0405 21:45:22.704967  4881 layer_factory.hpp:74] Creating layer fconvb27_2to3_step2
I0405 21:45:22.704977  4881 net.cpp:102] Creating Layer fconvb27_2to3_step2
I0405 21:45:22.704982  4881 net.cpp:422] fconvb27_2to3_step2 <- fconvb27_2to3_step1
I0405 21:45:22.704989  4881 net.cpp:380] fconvb27_2to3_step2 -> fconvb27_2to3_step2
I0405 21:45:22.704998  4881 net.cpp:132] Setting up fconvb27_2to3_step2
I0405 21:45:22.718530  4881 net.cpp:139] Top shape: 1 128 42 42 (225792)
I0405 21:45:22.718555  4881 layer_factory.hpp:74] Creating layer fconvb27_2to15_step1
I0405 21:45:22.718569  4881 net.cpp:102] Creating Layer fconvb27_2to15_step1
I0405 21:45:22.718577  4881 net.cpp:422] fconvb27_2to15_step1 <- fconvb27_2+_relub27_2_0_split_1
I0405 21:45:22.718586  4881 net.cpp:380] fconvb27_2to15_step1 -> fconvb27_2to15_step1
I0405 21:45:22.718606  4881 net.cpp:132] Setting up fconvb27_2to15_step1
I0405 21:45:22.731847  4881 net.cpp:139] Top shape: 1 64 42 42 (112896)
I0405 21:45:22.731869  4881 layer_factory.hpp:74] Creating layer relub27_2to15_step1
I0405 21:45:22.731878  4881 net.cpp:102] Creating Layer relub27_2to15_step1
I0405 21:45:22.731885  4881 net.cpp:422] relub27_2to15_step1 <- fconvb27_2to15_step1
I0405 21:45:22.731894  4881 net.cpp:369] relub27_2to15_step1 -> fconvb27_2to15_step1 (in-place)
I0405 21:45:22.731910  4881 net.cpp:132] Setting up relub27_2to15_step1
I0405 21:45:22.732856  4881 net.cpp:139] Top shape: 1 64 42 42 (112896)
I0405 21:45:22.732867  4881 layer_factory.hpp:74] Creating layer fconvb27_2to15_step2
I0405 21:45:22.732875  4881 net.cpp:102] Creating Layer fconvb27_2to15_step2
I0405 21:45:22.732880  4881 net.cpp:422] fconvb27_2to15_step2 <- fconvb27_2to15_step1
I0405 21:45:22.732889  4881 net.cpp:380] fconvb27_2to15_step2 -> fconvb27_2to15_step2
I0405 21:45:22.732908  4881 net.cpp:132] Setting up fconvb27_2to15_step2
I0405 21:45:22.746742  4881 net.cpp:139] Top shape: 1 128 42 42 (225792)
I0405 21:45:22.746767  4881 layer_factory.hpp:74] Creating layer fconvb27_3
I0405 21:45:22.746781  4881 net.cpp:102] Creating Layer fconvb27_3
I0405 21:45:22.746788  4881 net.cpp:422] fconvb27_3 <- fconv6_bn_drop6_0_split_28
I0405 21:45:22.746809  4881 net.cpp:380] fconvb27_3 -> fconvb27_3
I0405 21:45:22.746821  4881 net.cpp:132] Setting up fconvb27_3
I0405 21:45:22.752804  4881 net.cpp:139] Top shape: 1 128 42 42 (225792)
I0405 21:45:22.752817  4881 layer_factory.hpp:74] Creating layer Pass_b2_2to3
I0405 21:45:22.752827  4881 net.cpp:102] Creating Layer Pass_b2_2to3
I0405 21:45:22.752833  4881 net.cpp:422] Pass_b2_2to3 <- fconvb27_2to3_step2
I0405 21:45:22.752840  4881 net.cpp:422] Pass_b2_2to3 <- fconvb27_3
I0405 21:45:22.752846  4881 net.cpp:380] Pass_b2_2to3 -> fconvb27_3+
I0405 21:45:22.752863  4881 net.cpp:132] Setting up Pass_b2_2to3
I0405 21:45:22.752871  4881 net.cpp:139] Top shape: 1 128 42 42 (225792)
I0405 21:45:22.752876  4881 layer_factory.hpp:74] Creating layer relub27_3
I0405 21:45:22.752887  4881 net.cpp:102] Creating Layer relub27_3
I0405 21:45:22.752892  4881 net.cpp:422] relub27_3 <- fconvb27_3+
I0405 21:45:22.752897  4881 net.cpp:369] relub27_3 -> fconvb27_3+ (in-place)
I0405 21:45:22.752903  4881 net.cpp:132] Setting up relub27_3
I0405 21:45:22.753831  4881 net.cpp:139] Top shape: 1 128 42 42 (225792)
I0405 21:45:22.753841  4881 layer_factory.hpp:74] Creating layer fconvb27_3+_relub27_3_0_split
I0405 21:45:22.753849  4881 net.cpp:102] Creating Layer fconvb27_3+_relub27_3_0_split
I0405 21:45:22.753854  4881 net.cpp:422] fconvb27_3+_relub27_3_0_split <- fconvb27_3+
I0405 21:45:22.753860  4881 net.cpp:380] fconvb27_3+_relub27_3_0_split -> fconvb27_3+_relub27_3_0_split_0
I0405 21:45:22.753868  4881 net.cpp:380] fconvb27_3+_relub27_3_0_split -> fconvb27_3+_relub27_3_0_split_1
I0405 21:45:22.753885  4881 net.cpp:380] fconvb27_3+_relub27_3_0_split -> fconvb27_3+_relub27_3_0_split_2
I0405 21:45:22.753892  4881 net.cpp:132] Setting up fconvb27_3+_relub27_3_0_split
I0405 21:45:22.753901  4881 net.cpp:139] Top shape: 1 128 42 42 (225792)
I0405 21:45:22.753907  4881 net.cpp:139] Top shape: 1 128 42 42 (225792)
I0405 21:45:22.753912  4881 net.cpp:139] Top shape: 1 128 42 42 (225792)
I0405 21:45:22.753917  4881 layer_factory.hpp:74] Creating layer fconvb27_3to4_step1
I0405 21:45:22.753926  4881 net.cpp:102] Creating Layer fconvb27_3to4_step1
I0405 21:45:22.753931  4881 net.cpp:422] fconvb27_3to4_step1 <- fconvb27_3+_relub27_3_0_split_0
I0405 21:45:22.753938  4881 net.cpp:380] fconvb27_3to4_step1 -> fconvb27_3to4_step1
I0405 21:45:22.753947  4881 net.cpp:132] Setting up fconvb27_3to4_step1
I0405 21:45:22.766621  4881 net.cpp:139] Top shape: 1 64 42 42 (112896)
I0405 21:45:22.766638  4881 layer_factory.hpp:74] Creating layer relub27_3to4_step1
I0405 21:45:22.766646  4881 net.cpp:102] Creating Layer relub27_3to4_step1
I0405 21:45:22.766652  4881 net.cpp:422] relub27_3to4_step1 <- fconvb27_3to4_step1
I0405 21:45:22.766661  4881 net.cpp:369] relub27_3to4_step1 -> fconvb27_3to4_step1 (in-place)
I0405 21:45:22.766679  4881 net.cpp:132] Setting up relub27_3to4_step1
I0405 21:45:22.767623  4881 net.cpp:139] Top shape: 1 64 42 42 (112896)
I0405 21:45:22.767633  4881 layer_factory.hpp:74] Creating layer fconvb27_3to4_step2
I0405 21:45:22.767644  4881 net.cpp:102] Creating Layer fconvb27_3to4_step2
I0405 21:45:22.767649  4881 net.cpp:422] fconvb27_3to4_step2 <- fconvb27_3to4_step1
I0405 21:45:22.767657  4881 net.cpp:380] fconvb27_3to4_step2 -> fconvb27_3to4_step2
I0405 21:45:22.767664  4881 net.cpp:132] Setting up fconvb27_3to4_step2
I0405 21:45:22.781646  4881 net.cpp:139] Top shape: 1 128 42 42 (225792)
I0405 21:45:22.781674  4881 layer_factory.hpp:74] Creating layer fconvb27_3to8_step1
I0405 21:45:22.781689  4881 net.cpp:102] Creating Layer fconvb27_3to8_step1
I0405 21:45:22.781697  4881 net.cpp:422] fconvb27_3to8_step1 <- fconvb27_3+_relub27_3_0_split_1
I0405 21:45:22.781707  4881 net.cpp:380] fconvb27_3to8_step1 -> fconvb27_3to8_step1
I0405 21:45:22.781728  4881 net.cpp:132] Setting up fconvb27_3to8_step1
I0405 21:45:22.794819  4881 net.cpp:139] Top shape: 1 64 42 42 (112896)
I0405 21:45:22.794842  4881 layer_factory.hpp:74] Creating layer relub27_3to8_step1
I0405 21:45:22.794852  4881 net.cpp:102] Creating Layer relub27_3to8_step1
I0405 21:45:22.794857  4881 net.cpp:422] relub27_3to8_step1 <- fconvb27_3to8_step1
I0405 21:45:22.794867  4881 net.cpp:369] relub27_3to8_step1 -> fconvb27_3to8_step1 (in-place)
I0405 21:45:22.794884  4881 net.cpp:132] Setting up relub27_3to8_step1
I0405 21:45:22.795917  4881 net.cpp:139] Top shape: 1 64 42 42 (112896)
I0405 21:45:22.795928  4881 layer_factory.hpp:74] Creating layer fconvb27_3to8_step2
I0405 21:45:22.795939  4881 net.cpp:102] Creating Layer fconvb27_3to8_step2
I0405 21:45:22.795944  4881 net.cpp:422] fconvb27_3to8_step2 <- fconvb27_3to8_step1
I0405 21:45:22.795953  4881 net.cpp:380] fconvb27_3to8_step2 -> fconvb27_3to8_step2
I0405 21:45:22.795971  4881 net.cpp:132] Setting up fconvb27_3to8_step2
I0405 21:45:22.809947  4881 net.cpp:139] Top shape: 1 128 42 42 (225792)
I0405 21:45:22.809972  4881 layer_factory.hpp:74] Creating layer fconvb27_4
I0405 21:45:22.809984  4881 net.cpp:102] Creating Layer fconvb27_4
I0405 21:45:22.809991  4881 net.cpp:422] fconvb27_4 <- fconv6_bn_drop6_0_split_29
I0405 21:45:22.810001  4881 net.cpp:380] fconvb27_4 -> fconvb27_4
I0405 21:45:22.810022  4881 net.cpp:132] Setting up fconvb27_4
I0405 21:45:22.816225  4881 net.cpp:139] Top shape: 1 128 42 42 (225792)
I0405 21:45:22.816238  4881 layer_factory.hpp:74] Creating layer Pass_b2_3to4
I0405 21:45:22.816246  4881 net.cpp:102] Creating Layer Pass_b2_3to4
I0405 21:45:22.816252  4881 net.cpp:422] Pass_b2_3to4 <- fconvb27_3to4_step2
I0405 21:45:22.816259  4881 net.cpp:422] Pass_b2_3to4 <- fconvb27_4
I0405 21:45:22.816267  4881 net.cpp:380] Pass_b2_3to4 -> fconvb27_4+
I0405 21:45:22.816318  4881 net.cpp:132] Setting up Pass_b2_3to4
…
I0405 21:45:23.339048  4881 net.cpp:132] Setting up relub27_19
I0405 21:45:23.340395  4881 net.cpp:139] Top shape: 1 128 42 42 (225792)
I0405 21:45:23.340418  4881 layer_factory.hpp:74] Creating layer fconvb27_20
I0405 21:45:23.340430  4881 net.cpp:102] Creating Layer fconvb27_20
I0405 21:45:23.340435  4881 net.cpp:422] fconvb27_20 <- fconv6_bn_drop6_0_split_45
I0405 21:45:23.340446  4881 net.cpp:380] fconvb27_20 -> fconvb27_20
I0405 21:45:23.340456  4881 net.cpp:132] Setting up fconvb27_20
I0405 21:45:23.348078  4881 net.cpp:139] Top shape: 1 128 42 42 (225792)
I0405 21:45:23.348105  4881 layer_factory.hpp:74] Creating layer Pass_b2_15to20
I0405 21:45:23.348116  4881 net.cpp:102] Creating Layer Pass_b2_15to20
I0405 21:45:23.348125  4881 net.cpp:422] Pass_b2_15to20 <- fconvb27_15to20_step2
I0405 21:45:23.348135  4881 net.cpp:422] Pass_b2_15to20 <- fconvb27_20
I0405 21:45:23.348145  4881 net.cpp:380] Pass_b2_15to20 -> fconvb27_20+
I0405 21:45:23.348155  4881 net.cpp:132] Setting up Pass_b2_15to20
I0405 21:45:23.348165  4881 net.cpp:139] Top shape: 1 128 42 42 (225792)
I0405 21:45:23.348170  4881 layer_factory.hpp:74] Creating layer relub27_20
I0405 21:45:23.348176  4881 net.cpp:102] Creating Layer relub27_20
I0405 21:45:23.348181  4881 net.cpp:422] relub27_20 <- fconvb27_20+
I0405 21:45:23.348187  4881 net.cpp:369] relub27_20 -> fconvb27_20+ (in-place)
I0405 21:45:23.348194  4881 net.cpp:132] Setting up relub27_20
I0405 21:45:23.349297  4881 net.cpp:139] Top shape: 1 128 42 42 (225792)
I0405 21:45:23.349310  4881 layer_factory.hpp:74] Creating layer fconvb27_20+_relub27_20_0_split
I0405 21:45:23.349318  4881 net.cpp:102] Creating Layer fconvb27_20+_relub27_20_0_split
I0405 21:45:23.349324  4881 net.cpp:422] fconvb27_20+_relub27_20_0_split <- fconvb27_20+
I0405 21:45:23.349334  4881 net.cpp:380] fconvb27_20+_relub27_20_0_split -> fconvb27_20+_relub27_20_0_split_0
I0405 21:45:23.349344  4881 net.cpp:380] fconvb27_20+_relub27_20_0_split -> fconvb27_20+_relub27_20_0_split_1
I0405 21:45:23.349350  4881 net.cpp:132] Setting up fconvb27_20+_relub27_20_0_split
I0405 21:45:23.349359  4881 net.cpp:139] Top shape: 1 128 42 42 (225792)
I0405 21:45:23.349364  4881 net.cpp:139] Top shape: 1 128 42 42 (225792)
I0405 21:45:23.349369  4881 layer_factory.hpp:74] Creating layer fconvb27_20to21_step1
I0405 21:45:23.349377  4881 net.cpp:102] Creating Layer fconvb27_20to21_step1
I0405 21:45:23.349383  4881 net.cpp:422] fconvb27_20to21_step1 <- fconvb27_20+_relub27_20_0_split_0
I0405 21:45:23.349392  4881 net.cpp:380] fconvb27_20to21_step1 -> fconvb27_20to21_step1
I0405 21:45:23.349400  4881 net.cpp:132] Setting up fconvb27_20to21_step1
I0405 21:45:23.362535  4881 net.cpp:139] Top shape: 1 64 42 42 (112896)
I0405 21:45:23.362565  4881 layer_factory.hpp:74] Creating layer relub27_20to21step1
I0405 21:45:23.362576  4881 net.cpp:102] Creating Layer relub27_20to21step1
I0405 21:45:23.362583  4881 net.cpp:422] relub27_20to21step1 <- fconvb27_20to21_step1
I0405 21:45:23.362591  4881 net.cpp:369] relub27_20to21step1 -> fconvb27_20to21_step1 (in-place)
I0405 21:45:23.362599  4881 net.cpp:132] Setting up relub27_20to21step1
I0405 21:45:23.363754  4881 net.cpp:139] Top shape: 1 64 42 42 (112896)
I0405 21:45:23.363767  4881 layer_factory.hpp:74] Creating layer fconvb27_20to21_step2
I0405 21:45:23.363781  4881 net.cpp:102] Creating Layer fconvb27_20to21_step2
I0405 21:45:23.363788  4881 net.cpp:422] fconvb27_20to21_step2 <- fconvb27_20to21_step1
I0405 21:45:23.363798  4881 net.cpp:380] fconvb27_20to21_step2 -> fconvb27_20to21_step2
I0405 21:45:23.363807  4881 net.cpp:132] Setting up fconvb27_20to21_step2
I0405 21:45:23.376646  4881 net.cpp:139] Top shape: 1 128 42 42 (225792)
I0405 21:45:23.376677  4881 layer_factory.hpp:74] Creating layer fconvb27_21
I0405 21:45:23.376688  4881 net.cpp:102] Creating Layer fconvb27_21
I0405 21:45:23.376695  4881 net.cpp:422] fconvb27_21 <- fconv6_bn_drop6_0_split_46
I0405 21:45:23.376703  4881 net.cpp:380] fconvb27_21 -> fconvb27_21
I0405 21:45:23.376723  4881 net.cpp:132] Setting up fconvb27_21
I0405 21:45:23.383518  4881 net.cpp:139] Top shape: 1 128 42 42 (225792)
I0405 21:45:23.383543  4881 layer_factory.hpp:74] Creating layer Pass_b2_20to21
I0405 21:45:23.383554  4881 net.cpp:102] Creating Layer Pass_b2_20to21
I0405 21:45:23.383563  4881 net.cpp:422] Pass_b2_20to21 <- fconvb27_20to21_step2
I0405 21:45:23.383570  4881 net.cpp:422] Pass_b2_20to21 <- fconvb27_21
I0405 21:45:23.383577  4881 net.cpp:380] Pass_b2_20to21 -> fconvb27_21+
I0405 21:45:23.383587  4881 net.cpp:132] Setting up Pass_b2_20to21
I0405 21:45:23.383595  4881 net.cpp:139] Top shape: 1 128 42 42 (225792)
I0405 21:45:23.383600  4881 layer_factory.hpp:74] Creating layer relub27_21
I0405 21:45:23.383606  4881 net.cpp:102] Creating Layer relub27_21
I0405 21:45:23.383611  4881 net.cpp:422] relub27_21 <- fconvb27_21+
I0405 21:45:23.383618  4881 net.cpp:369] relub27_21 -> fconvb27_21+ (in-place)
I0405 21:45:23.383625  4881 net.cpp:132] Setting up relub27_21
I0405 21:45:23.384632  4881 net.cpp:139] Top shape: 1 128 42 42 (225792)
I0405 21:45:23.384642  4881 layer_factory.hpp:74] Creating layer fconvb27_21+_relub27_21_0_split
I0405 21:45:23.384650  4881 net.cpp:102] Creating Layer fconvb27_21+_relub27_21_0_split
I0405 21:45:23.384655  4881 net.cpp:422] fconvb27_21+_relub27_21_0_split <- fconvb27_21+
I0405 21:45:23.384665  4881 net.cpp:380] fconvb27_21+_relub27_21_0_split -> fconvb27_21+_relub27_21_0_split_0
I0405 21:45:23.384673  4881 net.cpp:380] fconvb27_21+_relub27_21_0_split -> fconvb27_21+_relub27_21_0_split_1
I0405 21:45:23.384680  4881 net.cpp:132] Setting up fconvb27_21+_relub27_21_0_split
I0405 21:45:23.384687  4881 net.cpp:139] Top shape: 1 128 42 42 (225792)
I0405 21:45:23.384692  4881 net.cpp:139] Top shape: 1 128 42 42 (225792)
I0405 21:45:23.384697  4881 layer_factory.hpp:74] Creating layer fconvb27_21to22_step1
I0405 21:45:23.384707  4881 net.cpp:102] Creating Layer fconvb27_21to22_step1
I0405 21:45:23.384712  4881 net.cpp:422] fconvb27_21to22_step1 <- fconvb27_21+_relub27_21_0_split_0
I0405 21:45:23.384719  4881 net.cpp:380] fconvb27_21to22_step1 -> fconvb27_21to22_step1
I0405 21:45:23.384727  4881 net.cpp:132] Setting up fconvb27_21to22_step1
I0405 21:45:23.397656  4881 net.cpp:139] Top shape: 1 64 42 42 (112896)
I0405 21:45:23.397683  4881 layer_factory.hpp:74] Creating layer relub27_21to22_step1
I0405 21:45:23.397692  4881 net.cpp:102] Creating Layer relub27_21to22_step1
I0405 21:45:23.397698  4881 net.cpp:422] relub27_21to22_step1 <- fconvb27_21to22_step1
I0405 21:45:23.397706  4881 net.cpp:369] relub27_21to22_step1 -> fconvb27_21to22_step1 (in-place)
I0405 21:45:23.397713  4881 net.cpp:132] Setting up relub27_21to22_step1
I0405 21:45:23.398809  4881 net.cpp:139] Top shape: 1 64 42 42 (112896)
I0405 21:45:23.398819  4881 layer_factory.hpp:74] Creating layer fconvb27_21to22_step2
I0405 21:45:23.398831  4881 net.cpp:102] Creating Layer fconvb27_21to22_step2
I0405 21:45:23.398840  4881 net.cpp:422] fconvb27_21to22_step2 <- fconvb27_21to22_step1
I0405 21:45:23.398851  4881 net.cpp:380] fconvb27_21to22_step2 -> fconvb27_21to22_step2
I0405 21:45:23.398864  4881 net.cpp:132] Setting up fconvb27_21to22_step2
I0405 21:45:23.412135  4881 net.cpp:139] Top shape: 1 128 42 42 (225792)
I0405 21:45:23.412158  4881 layer_factory.hpp:74] Creating layer fconvb27_22
I0405 21:45:23.412173  4881 net.cpp:102] Creating Layer fconvb27_22
I0405 21:45:23.412181  4881 net.cpp:422] fconvb27_22 <- fconv6_bn_drop6_0_split_47
I0405 21:45:23.412192  4881 net.cpp:380] fconvb27_22 -> fconvb27_22
I0405 21:45:23.412204  4881 net.cpp:132] Setting up fconvb27_22
I0405 21:45:23.418627  4881 net.cpp:139] Top shape: 1 128 42 42 (225792)
I0405 21:45:23.418644  4881 layer_factory.hpp:74] Creating layer Pass_b2_21to22
I0405 21:45:23.418658  4881 net.cpp:102] Creating Layer Pass_b2_21to22
I0405 21:45:23.418665  4881 net.cpp:422] Pass_b2_21to22 <- fconvb27_21to22_step2
I0405 21:45:23.418673  4881 net.cpp:422] Pass_b2_21to22 <- fconvb27_22
I0405 21:45:23.418679  4881 net.cpp:380] Pass_b2_21to22 -> fconvb27_22+
I0405 21:45:23.418687  4881 net.cpp:132] Setting up Pass_b2_21to22
I0405 21:45:23.418695  4881 net.cpp:139] Top shape: 1 128 42 42 (225792)
I0405 21:45:23.418699  4881 layer_factory.hpp:74] Creating layer relub27_22
I0405 21:45:23.418707  4881 net.cpp:102] Creating Layer relub27_22
I0405 21:45:23.418712  4881 net.cpp:422] relub27_22 <- fconvb27_22+
I0405 21:45:23.418718  4881 net.cpp:369] relub27_22 -> fconvb27_22+ (in-place)
I0405 21:45:23.418725  4881 net.cpp:132] Setting up relub27_22
I0405 21:45:23.419718  4881 net.cpp:139] Top shape: 1 128 42 42 (225792)
I0405 21:45:23.419728  4881 layer_factory.hpp:74] Creating layer fconvb27_22+_relub27_22_0_split
I0405 21:45:23.419734  4881 net.cpp:102] Creating Layer fconvb27_22+_relub27_22_0_split
I0405 21:45:23.419739  4881 net.cpp:422] fconvb27_22+_relub27_22_0_split <- fconvb27_22+
I0405 21:45:23.419746  4881 net.cpp:380] fconvb27_22+_relub27_22_0_split -> fconvb27_22+_relub27_22_0_split_0
I0405 21:45:23.419754  4881 net.cpp:380] fconvb27_22+_relub27_22_0_split -> fconvb27_22+_relub27_22_0_split_1
I0405 21:45:23.419760  4881 net.cpp:132] Setting up fconvb27_22+_relub27_22_0_split
I0405 21:45:23.419769  4881 net.cpp:139] Top shape: 1 128 42 42 (225792)
I0405 21:45:23.419773  4881 net.cpp:139] Top shape: 1 128 42 42 (225792)
I0405 21:45:23.419777  4881 layer_factory.hpp:74] Creating layer fconvb27_22to23_step1
I0405 21:45:23.419787  4881 net.cpp:102] Creating Layer fconvb27_22to23_step1
I0405 21:45:23.419792  4881 net.cpp:422] fconvb27_22to23_step1 <- fconvb27_22+_relub27_22_0_split_0
I0405 21:45:23.419801  4881 net.cpp:380] fconvb27_22to23_step1 -> fconvb27_22to23_step1
I0405 21:45:23.419808  4881 net.cpp:132] Setting up fconvb27_22to23_step1
I0405 21:45:23.432936  4881 net.cpp:139] Top shape: 1 64 42 42 (112896)
I0405 21:45:23.432958  4881 layer_factory.hpp:74] Creating layer relub27_22to23_step1
I0405 21:45:23.432970  4881 net.cpp:102] Creating Layer relub27_22to23_step1
I0405 21:45:23.432977  4881 net.cpp:422] relub27_22to23_step1 <- fconvb27_22to23_step1
I0405 21:45:23.432986  4881 net.cpp:369] relub27_22to23_step1 -> fconvb27_22to23_step1 (in-place)
I0405 21:45:23.432996  4881 net.cpp:132] Setting up relub27_22to23_step1
I0405 21:45:23.434260  4881 net.cpp:139] Top shape: 1 64 42 42 (112896)
I0405 21:45:23.434270  4881 layer_factory.hpp:74] Creating layer fconvb27_22to23_step2
I0405 21:45:23.434280  4881 net.cpp:102] Creating Layer fconvb27_22to23_step2
I0405 21:45:23.434286  4881 net.cpp:422] fconvb27_22to23_step2 <- fconvb27_22to23_step1
I0405 21:45:23.434295  4881 net.cpp:380] fconvb27_22to23_step2 -> fconvb27_22to23_step2
I0405 21:45:23.434304  4881 net.cpp:132] Setting up fconvb27_22to23_step2
I0405 21:45:23.447861  4881 net.cpp:139] Top shape: 1 128 42 42 (225792)
I0405 21:45:23.447886  4881 layer_factory.hpp:74] Creating layer fconvb27_23
I0405 21:45:23.447901  4881 net.cpp:102] Creating Layer fconvb27_23
I0405 21:45:23.447909  4881 net.cpp:422] fconvb27_23 <- fconv6_bn_drop6_0_split_48
I0405 21:45:23.447922  4881 net.cpp:380] fconvb27_23 -> fconvb27_23
I0405 21:45:23.447933  4881 net.cpp:132] Setting up fconvb27_23
I0405 21:45:23.454255  4881 net.cpp:139] Top shape: 1 128 42 42 (225792)
I0405 21:45:23.454269  4881 layer_factory.hpp:74] Creating layer Pass_b2_22to23
I0405 21:45:23.454279  4881 net.cpp:102] Creating Layer Pass_b2_22to23
I0405 21:45:23.454285  4881 net.cpp:422] Pass_b2_22to23 <- fconvb27_22to23_step2
I0405 21:45:23.454291  4881 net.cpp:422] Pass_b2_22to23 <- fconvb27_23
I0405 21:45:23.454298  4881 net.cpp:380] Pass_b2_22to23 -> fconvb27_23+
I0405 21:45:23.454305  4881 net.cpp:132] Setting up Pass_b2_22to23
I0405 21:45:23.454313  4881 net.cpp:139] Top shape: 1 128 42 42 (225792)
I0405 21:45:23.454319  4881 layer_factory.hpp:74] Creating layer relub27_23
I0405 21:45:23.454324  4881 net.cpp:102] Creating Layer relub27_23
I0405 21:45:23.454331  4881 net.cpp:422] relub27_23 <- fconvb27_23+
I0405 21:45:23.454336  4881 net.cpp:369] relub27_23 -> fconvb27_23+ (in-place)
I0405 21:45:23.454344  4881 net.cpp:132] Setting up relub27_23
I0405 21:45:23.455339  4881 net.cpp:139] Top shape: 1 128 42 42 (225792)
I0405 21:45:23.455348  4881 layer_factory.hpp:74] Creating layer fconvb27_23+_relub27_23_0_split
I0405 21:45:23.455358  4881 net.cpp:102] Creating Layer fconvb27_23+_relub27_23_0_split
I0405 21:45:23.455363  4881 net.cpp:422] fconvb27_23+_relub27_23_0_split <- fconvb27_23+
I0405 21:45:23.455369  4881 net.cpp:380] fconvb27_23+_relub27_23_0_split -> fconvb27_23+_relub27_23_0_split_0
I0405 21:45:23.455377  4881 net.cpp:380] fconvb27_23+_relub27_23_0_split -> fconvb27_23+_relub27_23_0_split_1
I0405 21:45:23.455384  4881 net.cpp:132] Setting up fconvb27_23+_relub27_23_0_split
I0405 21:45:23.455391  4881 net.cpp:139] Top shape: 1 128 42 42 (225792)
I0405 21:45:23.455396  4881 net.cpp:139] Top shape: 1 128 42 42 (225792)
I0405 21:45:23.455401  4881 layer_factory.hpp:74] Creating layer fconvb27_23to24_step1
I0405 21:45:23.455410  4881 net.cpp:102] Creating Layer fconvb27_23to24_step1
I0405 21:45:23.455415  4881 net.cpp:422] fconvb27_23to24_step1 <- fconvb27_23+_relub27_23_0_split_0
I0405 21:45:23.455425  4881 net.cpp:380] fconvb27_23to24_step1 -> fconvb27_23to24_step1
I0405 21:45:23.455431  4881 net.cpp:132] Setting up fconvb27_23to24_step1
I0405 21:45:23.469024  4881 net.cpp:139] Top shape: 1 64 42 42 (112896)
I0405 21:45:23.469053  4881 layer_factory.hpp:74] Creating layer relub27_23to24_step1
I0405 21:45:23.469063  4881 net.cpp:102] Creating Layer relub27_23to24_step1
I0405 21:45:23.469072  4881 net.cpp:422] relub27_23to24_step1 <- fconvb27_23to24_step1
I0405 21:45:23.469081  4881 net.cpp:369] relub27_23to24_step1 -> fconvb27_23to24_step1 (in-place)
I0405 21:45:23.469101  4881 net.cpp:132] Setting up relub27_23to24_step1
I0405 21:45:23.470284  4881 net.cpp:139] Top shape: 1 64 42 42 (112896)
I0405 21:45:23.470310  4881 layer_factory.hpp:74] Creating layer fconvb27_23to24_step2
I0405 21:45:23.470324  4881 net.cpp:102] Creating Layer fconvb27_23to24_step2
I0405 21:45:23.470332  4881 net.cpp:422] fconvb27_23to24_step2 <- fconvb27_23to24_step1
I0405 21:45:23.470341  4881 net.cpp:380] fconvb27_23to24_step2 -> fconvb27_23to24_step2
I0405 21:45:23.470352  4881 net.cpp:132] Setting up fconvb27_23to24_step2
I0405 21:45:23.483960  4881 net.cpp:139] Top shape: 1 128 42 42 (225792)
I0405 21:45:23.483986  4881 layer_factory.hpp:74] Creating layer fconvb27_24
I0405 21:45:23.483999  4881 net.cpp:102] Creating Layer fconvb27_24
I0405 21:45:23.484007  4881 net.cpp:422] fconvb27_24 <- fconv6_bn_drop6_0_split_49
I0405 21:45:23.484037  4881 net.cpp:380] fconvb27_24 -> fconvb27_24
I0405 21:45:23.484050  4881 net.cpp:132] Setting up fconvb27_24
I0405 21:45:23.490438  4881 net.cpp:139] Top shape: 1 128 42 42 (225792)
I0405 21:45:23.490458  4881 layer_factory.hpp:74] Creating layer Pass_b2_23to24
I0405 21:45:23.490471  4881 net.cpp:102] Creating Layer Pass_b2_23to24
I0405 21:45:23.490483  4881 net.cpp:422] Pass_b2_23to24 <- fconvb27_23to24_step2
I0405 21:45:23.490495  4881 net.cpp:422] Pass_b2_23to24 <- fconvb27_24
I0405 21:45:23.490514  4881 net.cpp:380] Pass_b2_23to24 -> fconvb27_24+
I0405 21:45:23.490521  4881 net.cpp:132] Setting up Pass_b2_23to24
I0405 21:45:23.490530  4881 net.cpp:139] Top shape: 1 128 42 42 (225792)
I0405 21:45:23.490535  4881 layer_factory.hpp:74] Creating layer relub27_24
I0405 21:45:23.490545  4881 net.cpp:102] Creating Layer relub27_24
I0405 21:45:23.490551  4881 net.cpp:422] relub27_24 <- fconvb27_24+
I0405 21:45:23.490567  4881 net.cpp:369] relub27_24 -> fconvb27_24+ (in-place)
I0405 21:45:23.490574  4881 net.cpp:132] Setting up relub27_24
I0405 21:45:23.491600  4881 net.cpp:139] Top shape: 1 128 42 42 (225792)
I0405 21:45:23.491611  4881 layer_factory.hpp:74] Creating layer fconvb27_24+_relub27_24_0_split
I0405 21:45:23.491619  4881 net.cpp:102] Creating Layer fconvb27_24+_relub27_24_0_split
I0405 21:45:23.491624  4881 net.cpp:422] fconvb27_24+_relub27_24_0_split <- fconvb27_24+
I0405 21:45:23.491631  4881 net.cpp:380] fconvb27_24+_relub27_24_0_split -> fconvb27_24+_relub27_24_0_split_0
I0405 21:45:23.491639  4881 net.cpp:380] fconvb27_24+_relub27_24_0_split -> fconvb27_24+_relub27_24_0_split_1
I0405 21:45:23.491659  4881 net.cpp:132] Setting up fconvb27_24+_relub27_24_0_split
I0405 21:45:23.491667  4881 net.cpp:139] Top shape: 1 128 42 42 (225792)
I0405 21:45:23.491672  4881 net.cpp:139] Top shape: 1 128 42 42 (225792)
I0405 21:45:23.491677  4881 layer_factory.hpp:74] Creating layer fconvb27_24to25_step1
I0405 21:45:23.491685  4881 net.cpp:102] Creating Layer fconvb27_24to25_step1
I0405 21:45:23.491690  4881 net.cpp:422] fconvb27_24to25_step1 <- fconvb27_24+_relub27_24_0_split_0
I0405 21:45:23.491698  4881 net.cpp:380] fconvb27_24to25_step1 -> fconvb27_24to25_step1
I0405 21:45:23.491706  4881 net.cpp:132] Setting up fconvb27_24to25_step1
I0405 21:45:23.505126  4881 net.cpp:139] Top shape: 1 64 42 42 (112896)
I0405 21:45:23.505152  4881 layer_factory.hpp:74] Creating layer relub27_24to23_step1
I0405 21:45:23.505163  4881 net.cpp:102] Creating Layer relub27_24to23_step1
I0405 21:45:23.505172  4881 net.cpp:422] relub27_24to23_step1 <- fconvb27_24to25_step1
I0405 21:45:23.505179  4881 net.cpp:369] relub27_24to23_step1 -> fconvb27_24to25_step1 (in-place)
I0405 21:45:23.505188  4881 net.cpp:132] Setting up relub27_24to23_step1
I0405 21:45:23.506245  4881 net.cpp:139] Top shape: 1 64 42 42 (112896)
I0405 21:45:23.506255  4881 layer_factory.hpp:74] Creating layer fconvb27_24to25_step2
I0405 21:45:23.506268  4881 net.cpp:102] Creating Layer fconvb27_24to25_step2
I0405 21:45:23.506273  4881 net.cpp:422] fconvb27_24to25_step2 <- fconvb27_24to25_step1
I0405 21:45:23.506280  4881 net.cpp:380] fconvb27_24to25_step2 -> fconvb27_24to25_step2
I0405 21:45:23.506290  4881 net.cpp:132] Setting up fconvb27_24to25_step2
I0405 21:45:23.519261  4881 net.cpp:139] Top shape: 1 128 42 42 (225792)
I0405 21:45:23.519290  4881 layer_factory.hpp:74] Creating layer fconvb27_25
I0405 21:45:23.519320  4881 net.cpp:102] Creating Layer fconvb27_25
I0405 21:45:23.519328  4881 net.cpp:422] fconvb27_25 <- fconv6_bn_drop6_0_split_50
I0405 21:45:23.519347  4881 net.cpp:380] fconvb27_25 -> fconvb27_25
I0405 21:45:23.519358  4881 net.cpp:132] Setting up fconvb27_25
I0405 21:45:23.525921  4881 net.cpp:139] Top shape: 1 128 42 42 (225792)
I0405 21:45:23.525939  4881 layer_factory.hpp:74] Creating layer Pass_b2_24to25
I0405 21:45:23.525949  4881 net.cpp:102] Creating Layer Pass_b2_24to25
I0405 21:45:23.525956  4881 net.cpp:422] Pass_b2_24to25 <- fconvb27_24to25_step2
I0405 21:45:23.525964  4881 net.cpp:422] Pass_b2_24to25 <- fconvb27_25
I0405 21:45:23.525981  4881 net.cpp:380] Pass_b2_24to25 -> fconvb27_25+
I0405 21:45:23.525990  4881 net.cpp:132] Setting up Pass_b2_24to25
I0405 21:45:23.525998  4881 net.cpp:139] Top shape: 1 128 42 42 (225792)
I0405 21:45:23.526003  4881 layer_factory.hpp:74] Creating layer relub27_25
I0405 21:45:23.526010  4881 net.cpp:102] Creating Layer relub27_25
I0405 21:45:23.526015  4881 net.cpp:422] relub27_25 <- fconvb27_25+
I0405 21:45:23.526021  4881 net.cpp:369] relub27_25 -> fconvb27_25+ (in-place)
I0405 21:45:23.526027  4881 net.cpp:132] Setting up relub27_25
I0405 21:45:23.527048  4881 net.cpp:139] Top shape: 1 128 42 42 (225792)
I0405 21:45:23.527058  4881 layer_factory.hpp:74] Creating layer fconvb27_25+_relub27_25_0_split
I0405 21:45:23.527066  4881 net.cpp:102] Creating Layer fconvb27_25+_relub27_25_0_split
I0405 21:45:23.527071  4881 net.cpp:422] fconvb27_25+_relub27_25_0_split <- fconvb27_25+
I0405 21:45:23.527077  4881 net.cpp:380] fconvb27_25+_relub27_25_0_split -> fconvb27_25+_relub27_25_0_split_0
I0405 21:45:23.527087  4881 net.cpp:380] fconvb27_25+_relub27_25_0_split -> fconvb27_25+_relub27_25_0_split_1
I0405 21:45:23.527104  4881 net.cpp:132] Setting up fconvb27_25+_relub27_25_0_split
I0405 21:45:23.527112  4881 net.cpp:139] Top shape: 1 128 42 42 (225792)
I0405 21:45:23.527117  4881 net.cpp:139] Top shape: 1 128 42 42 (225792)
I0405 21:45:23.527122  4881 layer_factory.hpp:74] Creating layer fconvb27_25to26_step1
I0405 21:45:23.527132  4881 net.cpp:102] Creating Layer fconvb27_25to26_step1
I0405 21:45:23.527137  4881 net.cpp:422] fconvb27_25to26_step1 <- fconvb27_25+_relub27_25_0_split_0
I0405 21:45:23.527143  4881 net.cpp:380] fconvb27_25to26_step1 -> fconvb27_25to26_step1
I0405 21:45:23.527150  4881 net.cpp:132] Setting up fconvb27_25to26_step1
I0405 21:45:23.541136  4881 net.cpp:139] Top shape: 1 64 42 42 (112896)
I0405 21:45:23.541162  4881 layer_factory.hpp:74] Creating layer relub27_25to26_step1
I0405 21:45:23.541182  4881 net.cpp:102] Creating Layer relub27_25to26_step1
I0405 21:45:23.541191  4881 net.cpp:422] relub27_25to26_step1 <- fconvb27_25to26_step1
I0405 21:45:23.541200  4881 net.cpp:369] relub27_25to26_step1 -> fconvb27_25to26_step1 (in-place)
I0405 21:45:23.541209  4881 net.cpp:132] Setting up relub27_25to26_step1
I0405 21:45:23.542276  4881 net.cpp:139] Top shape: 1 64 42 42 (112896)
I0405 21:45:23.542286  4881 layer_factory.hpp:74] Creating layer fconvb27_25to26_step2
I0405 21:45:23.542296  4881 net.cpp:102] Creating Layer fconvb27_25to26_step2
I0405 21:45:23.542302  4881 net.cpp:422] fconvb27_25to26_step2 <- fconvb27_25to26_step1
I0405 21:45:23.542311  4881 net.cpp:380] fconvb27_25to26_step2 -> fconvb27_25to26_step2
I0405 21:45:23.542321  4881 net.cpp:132] Setting up fconvb27_25to26_step2
I0405 21:45:23.555325  4881 net.cpp:139] Top shape: 1 128 42 42 (225792)
I0405 21:45:23.555343  4881 layer_factory.hpp:74] Creating layer fconvb27_26
I0405 21:45:23.555354  4881 net.cpp:102] Creating Layer fconvb27_26
I0405 21:45:23.555361  4881 net.cpp:422] fconvb27_26 <- fconv6_bn_drop6_0_split_51
I0405 21:45:23.555371  4881 net.cpp:380] fconvb27_26 -> fconvb27_26
I0405 21:45:23.555390  4881 net.cpp:132] Setting up fconvb27_26
I0405 21:45:23.561866  4881 net.cpp:139] Top shape: 1 128 42 42 (225792)
I0405 21:45:23.561889  4881 layer_factory.hpp:74] Creating layer Pass_b2_25to26
I0405 21:45:23.561910  4881 net.cpp:102] Creating Layer Pass_b2_25to26
I0405 21:45:23.561918  4881 net.cpp:422] Pass_b2_25to26 <- fconvb27_25to26_step2
I0405 21:45:23.561926  4881 net.cpp:422] Pass_b2_25to26 <- fconvb27_26
I0405 21:45:23.561938  4881 net.cpp:380] Pass_b2_25to26 -> fconvb27_26+
I0405 21:45:23.561947  4881 net.cpp:132] Setting up Pass_b2_25to26
I0405 21:45:23.561956  4881 net.cpp:139] Top shape: 1 128 42 42 (225792)
I0405 21:45:23.561964  4881 layer_factory.hpp:74] Creating layer relub27_26
I0405 21:45:23.561970  4881 net.cpp:102] Creating Layer relub27_26
I0405 21:45:23.561975  4881 net.cpp:422] relub27_26 <- fconvb27_26+
I0405 21:45:23.561981  4881 net.cpp:369] relub27_26 -> fconvb27_26+ (in-place)
I0405 21:45:23.561997  4881 net.cpp:132] Setting up relub27_26
I0405 21:45:23.563513  4881 net.cpp:139] Top shape: 1 128 42 42 (225792)
I0405 21:45:23.563527  4881 layer_factory.hpp:74] Creating layer fconvb27_27
I0405 21:45:23.563540  4881 net.cpp:102] Creating Layer fconvb27_27
I0405 21:45:23.563547  4881 net.cpp:422] fconvb27_27 <- fconv6_bn_drop6_0_split_52
I0405 21:45:23.563558  4881 net.cpp:380] fconvb27_27 -> fconvb27_27
I0405 21:45:23.563570  4881 net.cpp:132] Setting up fconvb27_27
I0405 21:45:23.579864  4881 net.cpp:139] Top shape: 1 512 42 42 (903168)
I0405 21:45:23.579888  4881 layer_factory.hpp:74] Creating layer relub27_27
I0405 21:45:23.579898  4881 net.cpp:102] Creating Layer relub27_27
I0405 21:45:23.579906  4881 net.cpp:422] relub27_27 <- fconvb27_27
I0405 21:45:23.579916  4881 net.cpp:380] relub27_27 -> fconvb27_27+
I0405 21:45:23.579936  4881 net.cpp:132] Setting up relub27_27
I0405 21:45:23.580978  4881 net.cpp:139] Top shape: 1 512 42 42 (903168)
I0405 21:45:23.580988  4881 layer_factory.hpp:74] Creating layer drop7_27
I0405 21:45:23.580997  4881 net.cpp:102] Creating Layer drop7_27
I0405 21:45:23.581003  4881 net.cpp:422] drop7_27 <- fconvb27_27+
I0405 21:45:23.581009  4881 net.cpp:369] drop7_27 -> fconvb27_27+ (in-place)
I0405 21:45:23.581017  4881 net.cpp:132] Setting up drop7_27
I0405 21:45:23.581033  4881 net.cpp:139] Top shape: 1 512 42 42 (903168)
I0405 21:45:23.581038  4881 layer_factory.hpp:74] Creating layer fconv7_1_concat
I0405 21:45:23.581051  4881 net.cpp:102] Creating Layer fconv7_1_concat
I0405 21:45:23.581058  4881 net.cpp:422] fconv7_1_concat <- fconv7_1+
I0405 21:45:23.581066  4881 net.cpp:422] fconv7_1_concat <- fconvb27_1+_relub27_1_0_split_1
I0405 21:45:23.581078  4881 net.cpp:380] fconv7_1_concat -> fconv7_1_concat
I0405 21:45:23.581089  4881 net.cpp:132] Setting up fconv7_1_concat
I0405 21:45:23.581120  4881 net.cpp:139] Top shape: 1 256 42 42 (451584)
I0405 21:45:23.581126  4881 layer_factory.hpp:74] Creating layer fconv7_2_concat
I0405 21:45:23.581132  4881 net.cpp:102] Creating Layer fconv7_2_concat
I0405 21:45:23.581137  4881 net.cpp:422] fconv7_2_concat <- fconv7_2+_relu7_2_0_split_1
I0405 21:45:23.581146  4881 net.cpp:422] fconv7_2_concat <- fconvb27_2+_relub27_2_0_split_2
I0405 21:45:23.581153  4881 net.cpp:380] fconv7_2_concat -> fconv7_2_concat
I0405 21:45:23.581162  4881 net.cpp:132] Setting up fconv7_2_concat
I0405 21:45:23.581169  4881 net.cpp:139] Top shape: 1 256 42 42 (451584)
I0405 21:45:23.581174  4881 layer_factory.hpp:74] Creating layer fconv7_3_concat
I0405 21:45:23.581181  4881 net.cpp:102] Creating Layer fconv7_3_concat
I0405 21:45:23.581185  4881 net.cpp:422] fconv7_3_concat <- fconv7_3+_relu7_3_0_split_1
I0405 21:45:23.581192  4881 net.cpp:422] fconv7_3_concat <- fconvb27_3+_relub27_3_0_split_2
I0405 21:45:23.581199  4881 net.cpp:380] fconv7_3_concat -> fconv7_3_concat
I0405 21:45:23.581205  4881 net.cpp:132] Setting up fconv7_3_concat
I0405 21:45:23.581212  4881 net.cpp:139] Top shape: 1 256 42 42 (451584)
I0405 21:45:23.581218  4881 layer_factory.hpp:74] Creating layer fconv7_4_concat
I0405 21:45:23.581223  4881 net.cpp:102] Creating Layer fconv7_4_concat
I0405 21:45:23.581228  4881 net.cpp:422] fconv7_4_concat <- fconv7_4+_relu7_4_0_split_1
I0405 21:45:23.581233  4881 net.cpp:422] fconv7_4_concat <- fconvb27_4+_relub27_4_0_split_1
I0405 21:45:23.581243  4881 net.cpp:380] fconv7_4_concat -> fconv7_4_concat
I0405 21:45:23.581249  4881 net.cpp:132] Setting up fconv7_4_concat
I0405 21:45:23.581256  4881 net.cpp:139] Top shape: 1 256 42 42 (451584)
I0405 21:45:23.581260  4881 layer_factory.hpp:74] Creating layer fconv7_5_concat
I0405 21:45:23.581266  4881 net.cpp:102] Creating Layer fconv7_5_concat
I0405 21:45:23.581280  4881 net.cpp:422] fconv7_5_concat <- fconv7_5+_relu7_5_0_split_1
I0405 21:45:23.581287  4881 net.cpp:422] fconv7_5_concat <- fconvb27_5+_relub27_5_0_split_1
I0405 21:45:23.581295  4881 net.cpp:380] fconv7_5_concat -> fconv7_5_concat
I0405 21:45:23.581302  4881 net.cpp:132] Setting up fconv7_5_concat
I0405 21:45:23.581308  4881 net.cpp:139] Top shape: 1 256 42 42 (451584)
I0405 21:45:23.581313  4881 layer_factory.hpp:74] Creating layer fconv7_6_concat
I0405 21:45:23.581318  4881 net.cpp:102] Creating Layer fconv7_6_concat
I0405 21:45:23.581323  4881 net.cpp:422] fconv7_6_concat <- fconv7_6+_relu7_6_0_split_1
I0405 21:45:23.581329  4881 net.cpp:422] fconv7_6_concat <- fconvb27_6+_relub27_6_0_split_1
I0405 21:45:23.581336  4881 net.cpp:380] fconv7_6_concat -> fconv7_6_concat
I0405 21:45:23.581343  4881 net.cpp:132] Setting up fconv7_6_concat
I0405 21:45:23.581349  4881 net.cpp:139] Top shape: 1 256 42 42 (451584)
I0405 21:45:23.581353  4881 layer_factory.hpp:74] Creating layer fconv7_7_concat
I0405 21:45:23.581362  4881 net.cpp:102] Creating Layer fconv7_7_concat
I0405 21:45:23.581367  4881 net.cpp:422] fconv7_7_concat <- fconv7_7+_relu7_7_0_split_1
I0405 21:45:23.581373  4881 net.cpp:422] fconv7_7_concat <- fconvb27_7+
I0405 21:45:23.581379  4881 net.cpp:380] fconv7_7_concat -> fconv7_7_concat
I0405 21:45:23.581387  4881 net.cpp:132] Setting up fconv7_7_concat
I0405 21:45:23.581393  4881 net.cpp:139] Top shape: 1 256 42 42 (451584)
I0405 21:45:23.581396  4881 layer_factory.hpp:74] Creating layer fconv7_8_concat
I0405 21:45:23.581404  4881 net.cpp:102] Creating Layer fconv7_8_concat
I0405 21:45:23.581410  4881 net.cpp:422] fconv7_8_concat <- fconv7_8+_relu7_8_0_split_1
I0405 21:45:23.581416  4881 net.cpp:422] fconv7_8_concat <- fconvb27_8+_relub27_8_0_split_1
I0405 21:45:23.581423  4881 net.cpp:380] fconv7_8_concat -> fconv7_8_concat
I0405 21:45:23.581429  4881 net.cpp:132] Setting up fconv7_8_concat
I0405 21:45:23.581435  4881 net.cpp:139] Top shape: 1 256 42 42 (451584)
I0405 21:45:23.581439  4881 layer_factory.hpp:74] Creating layer fconv7_9_concat
I0405 21:45:23.581445  4881 net.cpp:102] Creating Layer fconv7_9_concat
I0405 21:45:23.581450  4881 net.cpp:422] fconv7_9_concat <- fconv7_9+_relu7_9_0_split_1
I0405 21:45:23.581456  4881 net.cpp:422] fconv7_9_concat <- fconvb27_9+_relub27_9_0_split_1
I0405 21:45:23.581462  4881 net.cpp:380] fconv7_9_concat -> fconv7_9_concat
I0405 21:45:23.581470  4881 net.cpp:132] Setting up fconv7_9_concat
I0405 21:45:23.581475  4881 net.cpp:139] Top shape: 1 256 42 42 (451584)
I0405 21:45:23.581480  4881 layer_factory.hpp:74] Creating layer fconv7_10_concat
I0405 21:45:23.581487  4881 net.cpp:102] Creating Layer fconv7_10_concat
I0405 21:45:23.581492  4881 net.cpp:422] fconv7_10_concat <- fconv7_10+_relu7_10_0_split_1
I0405 21:45:23.581498  4881 net.cpp:422] fconv7_10_concat <- fconvb27_10+_relub27_10_0_split_1
I0405 21:45:23.581506  4881 net.cpp:380] fconv7_10_concat -> fconv7_10_concat
I0405 21:45:23.581512  4881 net.cpp:132] Setting up fconv7_10_concat
I0405 21:45:23.581518  4881 net.cpp:139] Top shape: 1 256 42 42 (451584)
I0405 21:45:23.581522  4881 layer_factory.hpp:74] Creating layer fconv7_11_concat
I0405 21:45:23.581529  4881 net.cpp:102] Creating Layer fconv7_11_concat
I0405 21:45:23.581539  4881 net.cpp:422] fconv7_11_concat <- fconv7_11+_relu7_11_0_split_1
I0405 21:45:23.581545  4881 net.cpp:422] fconv7_11_concat <- fconvb27_11+_relub27_11_0_split_1
I0405 21:45:23.581552  4881 net.cpp:380] fconv7_11_concat -> fconv7_11_concat
I0405 21:45:23.581559  4881 net.cpp:132] Setting up fconv7_11_concat
I0405 21:45:23.581565  4881 net.cpp:139] Top shape: 1 256 42 42 (451584)
I0405 21:45:23.581570  4881 layer_factory.hpp:74] Creating layer fconv7_12_concat
I0405 21:45:23.581575  4881 net.cpp:102] Creating Layer fconv7_12_concat
I0405 21:45:23.581580  4881 net.cpp:422] fconv7_12_concat <- fconv7_12+_relu7_12_0_split_1
I0405 21:45:23.581586  4881 net.cpp:422] fconv7_12_concat <- fconvb27_12+_relub27_12_0_split_1
I0405 21:45:23.581594  4881 net.cpp:380] fconv7_12_concat -> fconv7_12_concat
I0405 21:45:23.581601  4881 net.cpp:132] Setting up fconv7_12_concat
I0405 21:45:23.581607  4881 net.cpp:139] Top shape: 1 256 42 42 (451584)
I0405 21:45:23.581612  4881 layer_factory.hpp:74] Creating layer fconv7_13_concat
I0405 21:45:23.581617  4881 net.cpp:102] Creating Layer fconv7_13_concat
I0405 21:45:23.581622  4881 net.cpp:422] fconv7_13_concat <- fconv7_13+_relu7_13_0_split_1
I0405 21:45:23.581629  4881 net.cpp:422] fconv7_13_concat <- fconvb27_13+_relub27_13_0_split_1
I0405 21:45:23.581636  4881 net.cpp:380] fconv7_13_concat -> fconv7_13_concat
I0405 21:45:23.581643  4881 net.cpp:132] Setting up fconv7_13_concat
I0405 21:45:23.581650  4881 net.cpp:139] Top shape: 1 256 42 42 (451584)
I0405 21:45:23.581653  4881 layer_factory.hpp:74] Creating layer fconv7_14_concat
I0405 21:45:23.581660  4881 net.cpp:102] Creating Layer fconv7_14_concat
I0405 21:45:23.581665  4881 net.cpp:422] fconv7_14_concat <- fconv7_14+_relu7_14_0_split_1
I0405 21:45:23.581671  4881 net.cpp:422] fconv7_14_concat <- fconvb27_14+
I0405 21:45:23.581677  4881 net.cpp:380] fconv7_14_concat -> fconv7_14_concat
I0405 21:45:23.581684  4881 net.cpp:132] Setting up fconv7_14_concat
I0405 21:45:23.581691  4881 net.cpp:139] Top shape: 1 256 42 42 (451584)
I0405 21:45:23.581694  4881 layer_factory.hpp:74] Creating layer fconv7_15_concat
I0405 21:45:23.581701  4881 net.cpp:102] Creating Layer fconv7_15_concat
I0405 21:45:23.581706  4881 net.cpp:422] fconv7_15_concat <- fconv7_15+_relu7_15_0_split_1
I0405 21:45:23.581710  4881 net.cpp:422] fconv7_15_concat <- fconvb27_15+_relub27_15_0_split_2
I0405 21:45:23.581718  4881 net.cpp:380] fconv7_15_concat -> fconv7_15_concat
I0405 21:45:23.581725  4881 net.cpp:132] Setting up fconv7_15_concat
I0405 21:45:23.581732  4881 net.cpp:139] Top shape: 1 256 42 42 (451584)
I0405 21:45:23.581737  4881 layer_factory.hpp:74] Creating layer fconv7_16_concat
I0405 21:45:23.581742  4881 net.cpp:102] Creating Layer fconv7_16_concat
I0405 21:45:23.581746  4881 net.cpp:422] fconv7_16_concat <- fconv7_16+_relu7_16_0_split_1
I0405 21:45:23.581753  4881 net.cpp:422] fconv7_16_concat <- fconvb27_16+_relub27_16_0_split_1
I0405 21:45:23.581760  4881 net.cpp:380] fconv7_16_concat -> fconv7_16_concat
I0405 21:45:23.581766  4881 net.cpp:132] Setting up fconv7_16_concat
I0405 21:45:23.581773  4881 net.cpp:139] Top shape: 1 256 42 42 (451584)
I0405 21:45:23.581778  4881 layer_factory.hpp:74] Creating layer fconv7_17_concat
I0405 21:45:23.581784  4881 net.cpp:102] Creating Layer fconv7_17_concat
I0405 21:45:23.581789  4881 net.cpp:422] fconv7_17_concat <- fconv7_17+_relu7_17_0_split_1
I0405 21:45:23.581794  4881 net.cpp:422] fconv7_17_concat <- fconvb27_17+_relub27_17_0_split_1
I0405 21:45:23.581800  4881 net.cpp:380] fconv7_17_concat -> fconv7_17_concat
I0405 21:45:23.581806  4881 net.cpp:132] Setting up fconv7_17_concat
I0405 21:45:23.581812  4881 net.cpp:139] Top shape: 1 256 42 42 (451584)
I0405 21:45:23.581817  4881 layer_factory.hpp:74] Creating layer fconv7_18_concat
I0405 21:45:23.581825  4881 net.cpp:102] Creating Layer fconv7_18_concat
I0405 21:45:23.581830  4881 net.cpp:422] fconv7_18_concat <- fconv7_18+_relu7_18_0_split_1
I0405 21:45:23.581835  4881 net.cpp:422] fconv7_18_concat <- fconvb27_18+_relub27_18_0_split_1
I0405 21:45:23.581842  4881 net.cpp:380] fconv7_18_concat -> fconv7_18_concat
I0405 21:45:23.581848  4881 net.cpp:132] Setting up fconv7_18_concat
I0405 21:45:23.581854  4881 net.cpp:139] Top shape: 1 256 42 42 (451584)
I0405 21:45:23.581859  4881 layer_factory.hpp:74] Creating layer fconv7_19_concat
I0405 21:45:23.581864  4881 net.cpp:102] Creating Layer fconv7_19_concat
I0405 21:45:23.581869  4881 net.cpp:422] fconv7_19_concat <- fconv7_19+_relu7_19_0_split_1
I0405 21:45:23.581876  4881 net.cpp:422] fconv7_19_concat <- fconvb27_19+
I0405 21:45:23.581882  4881 net.cpp:380] fconv7_19_concat -> fconv7_19_concat
I0405 21:45:23.581888  4881 net.cpp:132] Setting up fconv7_19_concat
I0405 21:45:23.581894  4881 net.cpp:139] Top shape: 1 256 42 42 (451584)
I0405 21:45:23.581898  4881 layer_factory.hpp:74] Creating layer fconv7_20_concat
I0405 21:45:23.581904  4881 net.cpp:102] Creating Layer fconv7_20_concat
I0405 21:45:23.581908  4881 net.cpp:422] fconv7_20_concat <- fconv7_20+_relu7_20_0_split_1
I0405 21:45:23.581914  4881 net.cpp:422] fconv7_20_concat <- fconvb27_20+_relub27_20_0_split_1
I0405 21:45:23.581925  4881 net.cpp:380] fconv7_20_concat -> fconv7_20_concat
I0405 21:45:23.581935  4881 net.cpp:132] Setting up fconv7_20_concat
I0405 21:45:23.581941  4881 net.cpp:139] Top shape: 1 256 42 42 (451584)
I0405 21:45:23.581946  4881 layer_factory.hpp:74] Creating layer fconv7_21_concat
I0405 21:45:23.581951  4881 net.cpp:102] Creating Layer fconv7_21_concat
I0405 21:45:23.581956  4881 net.cpp:422] fconv7_21_concat <- fconv7_21+_relu7_21_0_split_1
I0405 21:45:23.581962  4881 net.cpp:422] fconv7_21_concat <- fconvb27_21+_relub27_21_0_split_1
I0405 21:45:23.581969  4881 net.cpp:380] fconv7_21_concat -> fconv7_21_concat
I0405 21:45:23.581975  4881 net.cpp:132] Setting up fconv7_21_concat
I0405 21:45:23.581981  4881 net.cpp:139] Top shape: 1 256 42 42 (451584)
I0405 21:45:23.581986  4881 layer_factory.hpp:74] Creating layer fconv7_22_concat
I0405 21:45:23.581991  4881 net.cpp:102] Creating Layer fconv7_22_concat
I0405 21:45:23.581996  4881 net.cpp:422] fconv7_22_concat <- fconv7_22+_relu7_22_0_split_1
I0405 21:45:23.582002  4881 net.cpp:422] fconv7_22_concat <- fconvb27_22+_relub27_22_0_split_1
I0405 21:45:23.582010  4881 net.cpp:380] fconv7_22_concat -> fconv7_22_concat
I0405 21:45:23.582015  4881 net.cpp:132] Setting up fconv7_22_concat
I0405 21:45:23.582021  4881 net.cpp:139] Top shape: 1 256 42 42 (451584)
I0405 21:45:23.582026  4881 layer_factory.hpp:74] Creating layer fconv7_23_concat
I0405 21:45:23.582031  4881 net.cpp:102] Creating Layer fconv7_23_concat
I0405 21:45:23.582036  4881 net.cpp:422] fconv7_23_concat <- fconv7_23+_relu7_23_0_split_1
I0405 21:45:23.582043  4881 net.cpp:422] fconv7_23_concat <- fconvb27_23+_relub27_23_0_split_1
I0405 21:45:23.582052  4881 net.cpp:380] fconv7_23_concat -> fconv7_23_concat
I0405 21:45:23.582058  4881 net.cpp:132] Setting up fconv7_23_concat
I0405 21:45:23.582065  4881 net.cpp:139] Top shape: 1 256 42 42 (451584)
I0405 21:45:23.582069  4881 layer_factory.hpp:74] Creating layer fconv7_24_concat
I0405 21:45:23.582075  4881 net.cpp:102] Creating Layer fconv7_24_concat
I0405 21:45:23.582079  4881 net.cpp:422] fconv7_24_concat <- fconv7_24+_relu7_24_0_split_1
I0405 21:45:23.582085  4881 net.cpp:422] fconv7_24_concat <- fconvb27_24+_relub27_24_0_split_1
I0405 21:45:23.582093  4881 net.cpp:380] fconv7_24_concat -> fconv7_24_concat
I0405 21:45:23.582098  4881 net.cpp:132] Setting up fconv7_24_concat
I0405 21:45:23.582104  4881 net.cpp:139] Top shape: 1 256 42 42 (451584)
I0405 21:45:23.582108  4881 layer_factory.hpp:74] Creating layer fconv7_25_concat
I0405 21:45:23.582114  4881 net.cpp:102] Creating Layer fconv7_25_concat
I0405 21:45:23.582119  4881 net.cpp:422] fconv7_25_concat <- fconv7_25+_relu7_25_0_split_1
I0405 21:45:23.582125  4881 net.cpp:422] fconv7_25_concat <- fconvb27_25+_relub27_25_0_split_1
I0405 21:45:23.582131  4881 net.cpp:380] fconv7_25_concat -> fconv7_25_concat
I0405 21:45:23.582137  4881 net.cpp:132] Setting up fconv7_25_concat
I0405 21:45:23.582144  4881 net.cpp:139] Top shape: 1 256 42 42 (451584)
I0405 21:45:23.582149  4881 layer_factory.hpp:74] Creating layer fconv7_26_concat
I0405 21:45:23.582155  4881 net.cpp:102] Creating Layer fconv7_26_concat
I0405 21:45:23.582160  4881 net.cpp:422] fconv7_26_concat <- fconv7_26+_relu7_26_0_split_1
I0405 21:45:23.582166  4881 net.cpp:422] fconv7_26_concat <- fconvb27_26+
I0405 21:45:23.582172  4881 net.cpp:380] fconv7_26_concat -> fconv7_26_concat
I0405 21:45:23.582180  4881 net.cpp:132] Setting up fconv7_26_concat
I0405 21:45:23.582185  4881 net.cpp:139] Top shape: 1 256 42 42 (451584)
I0405 21:45:23.582190  4881 layer_factory.hpp:74] Creating layer fconv9_1
I0405 21:45:23.582196  4881 net.cpp:102] Creating Layer fconv9_1
I0405 21:45:23.582201  4881 net.cpp:422] fconv9_1 <- fconv7_1_concat
I0405 21:45:23.582208  4881 net.cpp:380] fconv9_1 -> fconv9_1
I0405 21:45:23.582216  4881 net.cpp:132] Setting up fconv9_1
I0405 21:45:23.585647  4881 net.cpp:139] Top shape: 1 13 42 42 (22932)
I0405 21:45:23.585660  4881 layer_factory.hpp:74] Creating layer fconv9_2
I0405 21:45:23.585670  4881 net.cpp:102] Creating Layer fconv9_2
I0405 21:45:23.585676  4881 net.cpp:422] fconv9_2 <- fconv7_2_concat
I0405 21:45:23.585683  4881 net.cpp:380] fconv9_2 -> fconv9_2
I0405 21:45:23.585695  4881 net.cpp:132] Setting up fconv9_2
I0405 21:45:23.588892  4881 net.cpp:139] Top shape: 1 13 42 42 (22932)
I0405 21:45:23.588906  4881 layer_factory.hpp:74] Creating layer fconv9_3
I0405 21:45:23.588915  4881 net.cpp:102] Creating Layer fconv9_3
I0405 21:45:23.588922  4881 net.cpp:422] fconv9_3 <- fconv7_3_concat
I0405 21:45:23.588928  4881 net.cpp:380] fconv9_3 -> fconv9_3
I0405 21:45:23.588937  4881 net.cpp:132] Setting up fconv9_3
I0405 21:45:23.592429  4881 net.cpp:139] Top shape: 1 13 42 42 (22932)
I0405 21:45:23.592453  4881 layer_factory.hpp:74] Creating layer fconv9_4
I0405 21:45:23.592464  4881 net.cpp:102] Creating Layer fconv9_4
I0405 21:45:23.592470  4881 net.cpp:422] fconv9_4 <- fconv7_4_concat
I0405 21:45:23.592478  4881 net.cpp:380] fconv9_4 -> fconv9_4
I0405 21:45:23.592496  4881 net.cpp:132] Setting up fconv9_4
I0405 21:45:23.596252  4881 net.cpp:139] Top shape: 1 13 42 42 (22932)
I0405 21:45:23.596274  4881 layer_factory.hpp:74] Creating layer fconv9_5
I0405 21:45:23.596288  4881 net.cpp:102] Creating Layer fconv9_5
I0405 21:45:23.596297  4881 net.cpp:422] fconv9_5 <- fconv7_5_concat
I0405 21:45:23.596307  4881 net.cpp:380] fconv9_5 -> fconv9_5
I0405 21:45:23.596318  4881 net.cpp:132] Setting up fconv9_5
I0405 21:45:23.599548  4881 net.cpp:139] Top shape: 1 13 42 42 (22932)
I0405 21:45:23.599561  4881 layer_factory.hpp:74] Creating layer fconv9_6
I0405 21:45:23.599571  4881 net.cpp:102] Creating Layer fconv9_6
I0405 21:45:23.599577  4881 net.cpp:422] fconv9_6 <- fconv7_6_concat
I0405 21:45:23.599586  4881 net.cpp:380] fconv9_6 -> fconv9_6
I0405 21:45:23.599594  4881 net.cpp:132] Setting up fconv9_6
I0405 21:45:23.603091  4881 net.cpp:139] Top shape: 1 13 42 42 (22932)
I0405 21:45:23.603104  4881 layer_factory.hpp:74] Creating layer fconv9_7
I0405 21:45:23.603114  4881 net.cpp:102] Creating Layer fconv9_7
I0405 21:45:23.603121  4881 net.cpp:422] fconv9_7 <- fconv7_7_concat
I0405 21:45:23.603127  4881 net.cpp:380] fconv9_7 -> fconv9_7
I0405 21:45:23.603137  4881 net.cpp:132] Setting up fconv9_7
I0405 21:45:23.606595  4881 net.cpp:139] Top shape: 1 13 42 42 (22932)
I0405 21:45:23.606607  4881 layer_factory.hpp:74] Creating layer fconv9_8
I0405 21:45:23.606617  4881 net.cpp:102] Creating Layer fconv9_8
I0405 21:45:23.606623  4881 net.cpp:422] fconv9_8 <- fconv7_8_concat
I0405 21:45:23.606632  4881 net.cpp:380] fconv9_8 -> fconv9_8
I0405 21:45:23.606640  4881 net.cpp:132] Setting up fconv9_8
I0405 21:45:23.610100  4881 net.cpp:139] Top shape: 1 13 42 42 (22932)
I0405 21:45:23.610122  4881 layer_factory.hpp:74] Creating layer fconv9_9
I0405 21:45:23.610134  4881 net.cpp:102] Creating Layer fconv9_9
I0405 21:45:23.610141  4881 net.cpp:422] fconv9_9 <- fconv7_9_concat
I0405 21:45:23.610148  4881 net.cpp:380] fconv9_9 -> fconv9_9
I0405 21:45:23.610157  4881 net.cpp:132] Setting up fconv9_9
I0405 21:45:23.613720  4881 net.cpp:139] Top shape: 1 13 42 42 (22932)
I0405 21:45:23.613736  4881 layer_factory.hpp:74] Creating layer fconv9_10
I0405 21:45:23.613745  4881 net.cpp:102] Creating Layer fconv9_10
I0405 21:45:23.613751  4881 net.cpp:422] fconv9_10 <- fconv7_10_concat
I0405 21:45:23.613764  4881 net.cpp:380] fconv9_10 -> fconv9_10
I0405 21:45:23.613773  4881 net.cpp:132] Setting up fconv9_10
I0405 21:45:23.617053  4881 net.cpp:139] Top shape: 1 13 42 42 (22932)
I0405 21:45:23.617076  4881 layer_factory.hpp:74] Creating layer fconv9_11
I0405 21:45:23.617085  4881 net.cpp:102] Creating Layer fconv9_11
I0405 21:45:23.617091  4881 net.cpp:422] fconv9_11 <- fconv7_11_concat
I0405 21:45:23.617100  4881 net.cpp:380] fconv9_11 -> fconv9_11
I0405 21:45:23.617110  4881 net.cpp:132] Setting up fconv9_11
I0405 21:45:23.620530  4881 net.cpp:139] Top shape: 1 13 42 42 (22932)
I0405 21:45:23.620543  4881 layer_factory.hpp:74] Creating layer fconv9_12
I0405 21:45:23.620553  4881 net.cpp:102] Creating Layer fconv9_12
I0405 21:45:23.620559  4881 net.cpp:422] fconv9_12 <- fconv7_12_concat
I0405 21:45:23.620566  4881 net.cpp:380] fconv9_12 -> fconv9_12
I0405 21:45:23.620574  4881 net.cpp:132] Setting up fconv9_12
I0405 21:45:23.623786  4881 net.cpp:139] Top shape: 1 13 42 42 (22932)
I0405 21:45:23.623810  4881 layer_factory.hpp:74] Creating layer fconv9_13
I0405 21:45:23.623819  4881 net.cpp:102] Creating Layer fconv9_13
I0405 21:45:23.623826  4881 net.cpp:422] fconv9_13 <- fconv7_13_concat
I0405 21:45:23.623832  4881 net.cpp:380] fconv9_13 -> fconv9_13
I0405 21:45:23.623841  4881 net.cpp:132] Setting up fconv9_13
I0405 21:45:23.627625  4881 net.cpp:139] Top shape: 1 13 42 42 (22932)
I0405 21:45:23.627645  4881 layer_factory.hpp:74] Creating layer fconv9_14
I0405 21:45:23.627657  4881 net.cpp:102] Creating Layer fconv9_14
I0405 21:45:23.627663  4881 net.cpp:422] fconv9_14 <- fconv7_14_concat
I0405 21:45:23.627676  4881 net.cpp:380] fconv9_14 -> fconv9_14
I0405 21:45:23.627688  4881 net.cpp:132] Setting up fconv9_14
I0405 21:45:23.631225  4881 net.cpp:139] Top shape: 1 13 42 42 (22932)
I0405 21:45:23.631238  4881 layer_factory.hpp:74] Creating layer fconv9_15
I0405 21:45:23.631249  4881 net.cpp:102] Creating Layer fconv9_15
I0405 21:45:23.631255  4881 net.cpp:422] fconv9_15 <- fconv7_15_concat
I0405 21:45:23.631263  4881 net.cpp:380] fconv9_15 -> fconv9_15
I0405 21:45:23.631271  4881 net.cpp:132] Setting up fconv9_15
I0405 21:45:23.634523  4881 net.cpp:139] Top shape: 1 13 42 42 (22932)
I0405 21:45:23.634536  4881 layer_factory.hpp:74] Creating layer fconv9_16
I0405 21:45:23.634546  4881 net.cpp:102] Creating Layer fconv9_16
I0405 21:45:23.634552  4881 net.cpp:422] fconv9_16 <- fconv7_16_concat
I0405 21:45:23.634562  4881 net.cpp:380] fconv9_16 -> fconv9_16
I0405 21:45:23.634578  4881 net.cpp:132] Setting up fconv9_16
I0405 21:45:23.638098  4881 net.cpp:139] Top shape: 1 13 42 42 (22932)
I0405 21:45:23.638109  4881 layer_factory.hpp:74] Creating layer fconv9_17
I0405 21:45:23.638118  4881 net.cpp:102] Creating Layer fconv9_17
I0405 21:45:23.638123  4881 net.cpp:422] fconv9_17 <- fconv7_17_concat
I0405 21:45:23.638134  4881 net.cpp:380] fconv9_17 -> fconv9_17
I0405 21:45:23.638151  4881 net.cpp:132] Setting up fconv9_17
I0405 21:45:23.641458  4881 net.cpp:139] Top shape: 1 13 42 42 (22932)
I0405 21:45:23.641472  4881 layer_factory.hpp:74] Creating layer fconv9_18
I0405 21:45:23.641482  4881 net.cpp:102] Creating Layer fconv9_18
I0405 21:45:23.641489  4881 net.cpp:422] fconv9_18 <- fconv7_18_concat
I0405 21:45:23.641496  4881 net.cpp:380] fconv9_18 -> fconv9_18
I0405 21:45:23.641513  4881 net.cpp:132] Setting up fconv9_18
I0405 21:45:23.645340  4881 net.cpp:139] Top shape: 1 13 42 42 (22932)
I0405 21:45:23.645356  4881 layer_factory.hpp:74] Creating layer fconv9_19
I0405 21:45:23.645365  4881 net.cpp:102] Creating Layer fconv9_19
I0405 21:45:23.645371  4881 net.cpp:422] fconv9_19 <- fconv7_19_concat
I0405 21:45:23.645380  4881 net.cpp:380] fconv9_19 -> fconv9_19
I0405 21:45:23.645390  4881 net.cpp:132] Setting up fconv9_19
I0405 21:45:23.649045  4881 net.cpp:139] Top shape: 1 13 42 42 (22932)
I0405 21:45:23.649066  4881 layer_factory.hpp:74] Creating layer fconv9_20
I0405 21:45:23.649080  4881 net.cpp:102] Creating Layer fconv9_20
I0405 21:45:23.649087  4881 net.cpp:422] fconv9_20 <- fconv7_20_concat
I0405 21:45:23.649107  4881 net.cpp:380] fconv9_20 -> fconv9_20
I0405 21:45:23.649118  4881 net.cpp:132] Setting up fconv9_20
I0405 21:45:23.652667  4881 net.cpp:139] Top shape: 1 13 42 42 (22932)
I0405 21:45:23.652686  4881 layer_factory.hpp:74] Creating layer fconv9_21
I0405 21:45:23.652701  4881 net.cpp:102] Creating Layer fconv9_21
I0405 21:45:23.652709  4881 net.cpp:422] fconv9_21 <- fconv7_21_concat
I0405 21:45:23.652717  4881 net.cpp:380] fconv9_21 -> fconv9_21
I0405 21:45:23.652727  4881 net.cpp:132] Setting up fconv9_21
I0405 21:45:23.656407  4881 net.cpp:139] Top shape: 1 13 42 42 (22932)
I0405 21:45:23.656427  4881 layer_factory.hpp:74] Creating layer fconv9_22
I0405 21:45:23.656440  4881 net.cpp:102] Creating Layer fconv9_22
I0405 21:45:23.656447  4881 net.cpp:422] fconv9_22 <- fconv7_22_concat
I0405 21:45:23.656457  4881 net.cpp:380] fconv9_22 -> fconv9_22
I0405 21:45:23.656468  4881 net.cpp:132] Setting up fconv9_22
I0405 21:45:23.659423  4881 net.cpp:139] Top shape: 1 13 42 42 (22932)
I0405 21:45:23.659437  4881 layer_factory.hpp:74] Creating layer fconv9_23
I0405 21:45:23.659451  4881 net.cpp:102] Creating Layer fconv9_23
I0405 21:45:23.659457  4881 net.cpp:422] fconv9_23 <- fconv7_23_concat
I0405 21:45:23.659466  4881 net.cpp:380] fconv9_23 -> fconv9_23
I0405 21:45:23.659476  4881 net.cpp:132] Setting up fconv9_23
I0405 21:45:23.662749  4881 net.cpp:139] Top shape: 1 13 42 42 (22932)
I0405 21:45:23.662765  4881 layer_factory.hpp:74] Creating layer fconv9_24
I0405 21:45:23.662773  4881 net.cpp:102] Creating Layer fconv9_24
I0405 21:45:23.662780  4881 net.cpp:422] fconv9_24 <- fconv7_24_concat
I0405 21:45:23.662792  4881 net.cpp:380] fconv9_24 -> fconv9_24
I0405 21:45:23.662802  4881 net.cpp:132] Setting up fconv9_24
I0405 21:45:23.666070  4881 net.cpp:139] Top shape: 1 13 42 42 (22932)
I0405 21:45:23.666085  4881 layer_factory.hpp:74] Creating layer fconv9_25
I0405 21:45:23.666095  4881 net.cpp:102] Creating Layer fconv9_25
I0405 21:45:23.666101  4881 net.cpp:422] fconv9_25 <- fconv7_25_concat
I0405 21:45:23.666113  4881 net.cpp:380] fconv9_25 -> fconv9_25
I0405 21:45:23.666131  4881 net.cpp:132] Setting up fconv9_25
I0405 21:45:23.669021  4881 net.cpp:139] Top shape: 1 13 42 42 (22932)
I0405 21:45:23.669034  4881 layer_factory.hpp:74] Creating layer fconv9_26
I0405 21:45:23.669044  4881 net.cpp:102] Creating Layer fconv9_26
I0405 21:45:23.669049  4881 net.cpp:422] fconv9_26 <- fconv7_26_concat
I0405 21:45:23.669059  4881 net.cpp:380] fconv9_26 -> fconv9_26
I0405 21:45:23.669075  4881 net.cpp:132] Setting up fconv9_26
I0405 21:45:23.672245  4881 net.cpp:139] Top shape: 1 13 42 42 (22932)
I0405 21:45:23.672256  4881 layer_factory.hpp:74] Creating layer fconv9_27
I0405 21:45:23.672267  4881 net.cpp:102] Creating Layer fconv9_27
I0405 21:45:23.672274  4881 net.cpp:422] fconv9_27 <- fconvb27_27+
I0405 21:45:23.672283  4881 net.cpp:380] fconv9_27 -> fconv9_27
I0405 21:45:23.672302  4881 net.cpp:132] Setting up fconv9_27
I0405 21:45:23.675182  4881 net.cpp:139] Top shape: 1 1 42 42 (1764)
I0405 21:45:23.675205  4881 layer_factory.hpp:74] Creating layer fconv9
I0405 21:45:23.675217  4881 net.cpp:102] Creating Layer fconv9
I0405 21:45:23.675232  4881 net.cpp:422] fconv9 <- fconv9_1
I0405 21:45:23.675248  4881 net.cpp:422] fconv9 <- fconv9_2
I0405 21:45:23.675254  4881 net.cpp:422] fconv9 <- fconv9_3
I0405 21:45:23.675261  4881 net.cpp:422] fconv9 <- fconv9_4
I0405 21:45:23.675266  4881 net.cpp:422] fconv9 <- fconv9_5
…
