…
  name: "data"
  type: "Data"
  top: "data"
  include {
    phase: TRAIN
  }
  transform_param {
    mirror: false
    mean_value: 128
    mean_value: 128
    mean_value: 128
  }
  data_param {
    source: "/home/xchu/code/CVPR2016/RNNpose/cache/flic_fconv/Data/LMDB_train"
    batch_size: 16
    backend: LMDB
  }
}
layer {
  name: "data2"
  type: "Data"
  top: "labelmask"
  include {
    phase: TRAIN
  }
  data_param {
    source: "/home/xchu/code/CVPR2016/RNNpose/cache/flic_fconv/Data/LMDB_train_label_lessNeg"
    batch_size: 16
    backend: LMDB
  }
}
layer {
  name: "slice_label_train"
  type: "Slice"
  bottom: "labelmask"
  top: "label0"
  top: "mask"
  include {
    phase: TRAIN
  }
  slice_param {
    slice_point: 18
    axis: 1
  }
}
layer {
  name: "mix"
  type: "Data"
  top: "mix"
  include {
    phase: TRAIN
  }
  data_param {
    source: "/home/xchu/code/CVPR2016/RNNpose/cache/flic_fconv/Data/LMDB_train_mixtype_ext"
    batch_size: 16
    backend: LMDB
  }
}
layer {
  name: "label2mix"
  type: "LabelMix"
  bottom: "label0"
  bottom: "mix"
  top: "label"
  include {
    phase: TRAIN
  }
  label_mix_param {
    mix_num: 13
  }
}
layer {
  name: "conv1_1"
  type: "Convolution"
  bottom: "data"
  top: "conv1_1"
  param {
    lr_mult: 1
    decay_mult: 1
  }
  param {
    lr_mult: 2
    decay_mult: 0
  }
  convolution_param {
    num_output: 64
    pad: 1
    kernel_size: 3
  }
}
layer {
  name: "relu1_1"
  type: "ReLU"
  bottom: "conv1_1"
  top: "conv1_1"
}
layer {
  name: "conv1_2"
  type: "Convolution"
  bottom: "conv1_1"
  top: "conv1_2"
  param {
    lr_mult: 1
    decay_mult: 1
  }
  param {
    lr_mult: 2
    decay_mult: 0
  }
  convolution_param {
    num_output: 64
    pad: 1
    kernel_size: 3
  }
}
layer {
  name: "relu1_2"
  type: "ReLU"
  bottom: "conv1_2"
  top: "conv1_2"
}
layer {
  name: "pool1"
  type: "Pooling"
  bottom: "conv1_2"
  top: "pool1"
  pooling_param {
    pool: MAX
    kernel_size: 2
    stride: 2
  }
}
layer {
  name: "conv2_1"
  type: "Convolution"
  bottom: "pool1"
  top: "conv2_1"
  param {
    lr_mult: 1
    decay_mult: 1
  }
  param {
    lr_mult: 2
    decay_mult: 0
  }
  convolution_param {
    num_output: 128
    pad: 1
    kernel_size: 3
  }
}
layer {
  name: "relu2_1"
  type: "ReLU"
  bottom: "conv2_1"
  top: "conv2_1"
}
layer {
  name: "conv2_2"
  type: "Convolution"
  bottom: "conv2_1"
  top: "conv2_2"
  param {
    lr_mult: 1
    decay_mult: 1
  }
  param {
    lr_mult: 2
    decay_mult: 0
  }
  convolution_param {
    num_output: 128
    pad: 1
    kernel_size: 3
  }
}
layer {
  name: "relu2_2"
  type: "ReLU"
  bottom: "conv2_2"
  top: "conv2_2"
}
layer {
  name: "pool2"
  type: "Pooling"
  bottom: "conv2_2"
  top: "pool2"
  pooling_param {
    pool: MAX
    kernel_size: 2
    stride: 2
  }
}
layer {
  name: "conv3_1"
  type: "Convolution"
  bottom: "pool2"
  top: "conv3_1"
  param {
    lr_mult: 1
    decay_mult: 1
  }
  param {
    lr_mult: 2
    decay_mult: 0
  }
  convolution_param {
    num_output: 256
    pad: 1
    kernel_size: 3
  }
}
layer {
  name: "relu3_1"
  type: "ReLU"
  bottom: "conv3_1"
  top: "conv3_1"
}
layer {
  name: "conv3_2"
  type: "Convolution"
  bottom: "conv3_1"
  top: "conv3_2"
  param {
    lr_mult: 1
    decay_mult: 1
  }
  param {
    lr_mult: 2
    decay_mult: 0
  }
  convolution_param {
    num_output: 256
    pad: 1
    kernel_size: 3
  }
}
layer {
  name: "relu3_2"
  type: "ReLU"
  bottom: "conv3_2"
  top: "conv3_2"
}
layer {
  name: "conv3_3"
  type: "Convolution"
  bottom: "conv3_2"
  top: "conv3_3"
  param {
    lr_mult: 1
    decay_mult: 1
  }
  param {
    lr_mult: 2
    decay_mult: 0
  }
  convolution_param {
    num_output: 256
    pad: 1
    kernel_size: 3
  }
}
layer {
  name: "relu3_3"
  type: "ReLU"
  bottom: "conv3_3"
  top: "conv3_3"
}
layer {
  name: "pool3"
  type: "Pooling"
  bottom: "conv3_3"
  top: "pool3"
  pooling_param {
    pool: MAX
    kernel_size: 2
    stride: 2
  }
}
layer {
  name: "conv4_1"
  type: "Convolution"
  bottom: "pool3"
  top: "conv4_1"
  param {
    lr_mult: 1
    decay_mult: 1
  }
  param {
    lr_mult: 2
    decay_mult: 0
  }
  convolution_param {
    num_output: 512
    pad: 1
    kernel_size: 3
  }
}
layer {
  name: "relu4_1"
  type: "ReLU"
  bottom: "conv4_1"
  top: "conv4_1"
}
layer {
  name: "conv4_2"
  type: "Convolution"
  bottom: "conv4_1"
  top: "conv4_2"
  param {
    lr_mult: 1
    decay_mult: 1
  }
  param {
    lr_mult: 2
    decay_mult: 0
  }
  convolution_param {
    num_output: 512
    pad: 1
    kernel_size: 3
  }
}
layer {
  name: "relu4_2"
  type: "ReLU"
  bottom: "conv4_2"
  top: "conv4_2"
}
layer {
  name: "conv4_3"
  type: "Convolution"
  bottom: "conv4_2"
  top: "conv4_3"
  param {
    lr_mult: 1
    decay_mult: 1
  }
  param {
    lr_mult: 2
    decay_mult: 0
  }
  convolution_param {
    num_output: 512
    pad: 1
    kernel_size: 3
  }
}
layer {
  name: "relu4_3"
  type: "ReLU"
  bottom: "conv4_3"
  top: "pool5"
}
layer {
  name: "fconv6-1024"
  type: "Convolution"
  bottom: "pool5"
  top: "fconv6"
  param {
    lr_mult: 5
    decay_mult: 1
  }
  param {
    lr_mult: 10
    decay_mult: 0
  }
  convolution_param {
    num_output: 1024
    pad: 2
    kernel_size: 5
    weight_filler {
      type: "gaussian"
      std: 0.001
    }
    bias_filler {
      type: "constant"
      value: 0
    }
  }
}
layer {
  name: "fconv6_bn"
  type: "BN"
  bottom: "fconv6"
  top: "fconv6_bn"
  param {
    lr_mult: 1
    decay_mult: 0
  }
  param {
    lr_mult: 1
    decay_mult: 0
  }
  bn_param {
    slope_filler {
      type: "constant"
      value: 1
    }
    bias_filler {
      type: "constant"
      value: 0
    }
  }
}
layer {
  name: "relu6"
  type: "ReLU"
  bottom: "fconv6_bn"
  top: "fconv6_bn"
}
layer {
  name: "drop6"
  type: "ChannelDropout"
  bottom: "fconv6_bn"
  top: "fconv6_bn"
  dropout_param {
    dropout_ratio: 0.5
  }
}
layer {
  name: "fconv7_7"
  type: "Convolution"
  bottom: "fconv6_bn"
  top: "fconv7_7"
  param {
    lr_mult: 10
    decay_mult: 2
  }
  param {
    lr_mult: 20
    decay_mult: 0
  }
  convolution_param {
    num_output: 128
    pad: 0
    kernel_size: 1
    weight_filler {
      type: "gaussian"
      std: 0.01
    }
    bias_filler {
      type: "constant"
      value: 0
    }
  }
}
layer {
  name: "relu7_7"
  type: "ReLU"
  bottom: "fconv7_7"
  top: "fconv7_7+"
}
layer {
  name: "fconv7_7to6_step1"
  type: "Convolution"
  bottom: "fconv7_7+"
  top: "fconv7_7to6_step1"
  param {
    lr_mult: 10
    decay_mult: 4
  }
  param {
    lr_mult: 20
    decay_mult: 0
  }
  convolution_param {
    num_output: 64
    pad: 4
    kernel_size: 9
    weight_filler {
      type: "gaussian"
      std: 0.01
    }
    bias_filler {
      type: "constant"
      value: 0
    }
  }
}
layer {
  name: "relu7_7to6_step1"
  type: "ReLU"
  bottom: "fconv7_7to6_step1"
  top: "fconv7_7to6_step1"
}
layer {
  name: "fconv7_7to6_step2"
  type: "Convolution"
  bottom: "fconv7_7to6_step1"
  top: "fconv7_7to6_step2"
  param {
    lr_mult: 10
    decay_mult: 4
  }
  param {
    lr_mult: 20
    decay_mult: 0
  }
  convolution_param {
    num_output: 128
    pad: 4
    kernel_size: 9
    weight_filler {
      type: "gaussian"
      std: 0.01
    }
    bias_filler {
      type: "constant"
      value: 0
    }
  }
}
layer {
  name: "fconv7_6"
  type: "Convolution"
  bottom: "fconv6_bn"
  top: "fconv7_6"
  param {
    lr_mult: 10
    decay_mult: 2
  }
  param {
    lr_mult: 20
    decay_mult: 0
  }
  convolution_param {
    num_output: 128
    pad: 0
    kernel_size: 1
    weight_filler {
      type: "gaussian"
      std: 0.01
    }
    bias_filler {
      type: "constant"
      value: 0
    }
  }
}
layer {
  name: "Pass_7to6"
  type: "Eltwise"
  bottom: "fconv7_7to6_step2"
  bottom: "fconv7_6"
  top: "fconv7_6+"
  eltwise_param {
    operation: SUM
  }
}
layer {
  name: "relu7_6"
  type: "ReLU"
  bottom: "fconv7_6+"
  top: "fconv7_6+"
}
layer {
  name: "fconv7_6to5_step1"
  type: "Convolution"
  bottom: "fconv7_6+"
  top: "fconv7_6to5_step1"
  param {
    lr_mult: 10
    decay_mult: 4
  }
  param {
    lr_mult: 20
    decay_mult: 0
  }
  convolution_param {
    num_output: 64
    pad: 4
    kernel_size: 9
    weight_filler {
      type: "gaussian"
      std: 0.01
    }
    bias_filler {
      type: "constant"
      value: 0
    }
  }
}
layer {
  name: "relu7_6to5_step1"
  type: "ReLU"
  bottom: "fconv7_6to5_step1"
  top: "fconv7_6to5_step1"
}
layer {
  name: "fconv7_6to5_step2"
  type: "Convolution"
  bottom: "fconv7_6to5_step1"
  top: "fconv7_6to5_step2"
  param {
    lr_mult: 10
    decay_mult: 4
  }
  param {
    lr_mult: 20
    decay_mult: 0
  }
  convolution_param {
    num_output: 128
    pad: 4
    kernel_size: 9
    weight_filler {
      type: "gaussian"
      std: 0.01
    }
    bias_filler {
      type: "constant"
      value: 0
    }
  }
}
layer {
  name: "fconv7_5"
  type: "Convolution"
  bottom: "fconv6_bn"
  top: "fconv7_5"
  param {
    lr_mult: 10
    decay_mult: 2
  }
  param {
    lr_mult: 20
    decay_mult: 0
  }
  convolution_param {
    num_output: 128
    pad: 0
    kernel_size: 1
    weight_filler {
      type: "gaussian"
      std: 0.01
    }
    bias_filler {
      type: "constant"
      value: 0
    }
  }
}
layer {
  name: "Pass_6to5"
  type: "Eltwise"
  bottom: "fconv7_6to5_step2"
  bottom: "fconv7_5"
  top: "fconv7_5+"
}
layer {
  name: "relu7_5"
  type: "ReLU"
  bottom: "fconv7_5+"
  top: "fconv7_5+"
}
layer {
  name: "fconv7_5to4_step1"
  type: "Convolution"
  bottom: "fconv7_5+"
  top: "fconv7_5to4_step1"
  param {
    lr_mult: 10
    decay_mult: 4
  }
  param {
    lr_mult: 20
    decay_mult: 0
  }
  convolution_param {
    num_output: 64
    pad: 4
    kernel_size: 9
    weight_filler {
      type: "gaussian"
      std: 0.01
    }
    bias_filler {
      type: "constant"
      value: 0
    }
  }
}
layer {
  name: "relu7_5to4_step1"
  type: "ReLU"
  bottom: "fconv7_5to4_step1"
  top: "fconv7_5to4_step1"
}
layer {
  name: "fconv7_5to4_step2"
  type: "Convolution"
  bottom: "fconv7_5to4_step1"
  top: "fconv7_5to4_step2"
  param {
    lr_mult: 10
    decay_mult: 4
  }
  param {
    lr_mult: 20
    decay_mult: 0
  }
  convolution_param {
    num_output: 128
    pad: 4
    kernel_size: 9
    weight_filler {
      type: "gaussian"
      std: 0.01
    }
    bias_filler {
      type: "constant"
      value: 0
    }
  }
}
layer {
  name: "fconv7_4"
  type: "Convolution"
  bottom: "fconv6_bn"
  top: "fconv7_4"
  param {
    lr_mult: 10
    decay_mult: 2
  }
  param {
    lr_mult: 20
    decay_mult: 0
  }
  convolution_param {
    num_output: 128
    pad: 0
    kernel_size: 1
    weight_filler {
      type: "gaussian"
      std: 0.01
    }
    bias_filler {
      type: "constant"
      value: 0
    }
  }
}
layer {
  name: "Pass_5to4"
  type: "Eltwise"
  bottom: "fconv7_5to4_step2"
  bottom: "fconv7_4"
  top: "fconv7_4+"
}
layer {
  name: "relu7_4"
  type: "ReLU"
  bottom: "fconv7_4+"
  top: "fconv7_4+"
}
layer {
  name: "fconv7_4to3_step1"
  type: "Convolution"
  bottom: "fconv7_4+"
  top: "fconv7_4to3_step1"
  param {
    lr_mult: 10
    decay_mult: 4
  }
  param {
    lr_mult: 20
    decay_mult: 0
  }
  convolution_param {
    num_output: 64
    pad: 4
    kernel_size: 9
    weight_filler {
      type: "gaussian"
      std: 0.01
    }
    bias_filler {
      type: "constant"
      value: 0
    }
  }
}
layer {
  name: "relu7_4to3_step1"
  type: "ReLU"
  bottom: "fconv7_4to3_step1"
  top: "fconv7_4to3_step1"
}
layer {
  name: "fconv7_4to3_step2"
  type: "Convolution"
  bottom: "fconv7_4to3_step1"
  top: "fconv7_4to3_step2"
  param {
    lr_mult: 10
    decay_mult: 4
  }
  param {
    lr_mult: 20
    decay_mult: 0
  }
  convolution_param {
    num_output: 128
    pad: 4
    kernel_size: 9
    weight_filler {
      type: "gaussian"
      std: 0.01
    }
    bias_filler {
      type: "constant"
      value: 0
    }
  }
}
layer {
  name: "fconv7_10"
  type: "Convolution"
  bottom: "fconv6_bn"
  top: "fconv7_10"
  param {
    lr_mult: 10
    decay_mult: 2
  }
  param {
    lr_mult: 20
    decay_mult: 0
  }
  convolution_param {
    num_output: 128
    pad: 0
    kernel_size: 1
    weight_filler {
      type: "gaussian"
      std: 0.01
    }
    bias_filler {
      type: "constant"
      value: 0
    }
  }
}
layer {
  name: "relu7_10"
  type: "ReLU"
  bottom: "fconv7_10"
  top: "fconv7_10+"
}
layer {
  name: "fconv7_10to9_step1"
  type: "Convolution"
  bottom: "fconv7_10+"
  top: "fconv7_10to9_step1"
  param {
    lr_mult: 10
    decay_mult: 4
  }
  param {
    lr_mult: 20
    decay_mult: 0
  }
  convolution_param {
    num_output: 64
    pad: 4
    kernel_size: 9
    weight_filler {
      type: "gaussian"
      std: 0.01
    }
    bias_filler {
      type: "constant"
      value: 0
    }
  }
}
layer {
  name: "relu7_10to9_step1"
  type: "ReLU"
  bottom: "fconv7_10to9_step1"
  top: "fconv7_10to9_step1"
}
layer {
  name: "fconv7_10to9_step2"
  type: "Convolution"
  bottom: "fconv7_10to9_step1"
  top: "fconv7_10to9_step2"
  param {
    lr_mult: 10
    decay_mult: 4
  }
  param {
    lr_mult: 20
    decay_mult: 0
  }
  convolution_param {
    num_output: 128
    pad: 4
    kernel_size: 9
    weight_filler {
      type: "gaussian"
      std: 0.01
    }
    bias_filler {
      type: "constant"
      value: 0
    }
  }
}
layer {
  name: "fconv7_9"
  type: "Convolution"
  bottom: "fconv6_bn"
  top: "fconv7_9"
  param {
    lr_mult: 10
    decay_mult: 2
  }
  param {
    lr_mult: 20
    decay_mult: 0
  }
  convolution_param {
    num_output: 128
    pad: 0
    kernel_size: 1
    weight_filler {
      type: "gaussian"
      std: 0.01
    }
    bias_filler {
      type: "constant"
      value: 0
    }
  }
}
layer {
  name: "Pass_10to9"
  type: "Eltwise"
  bottom: "fconv7_10to9_step2"
  bottom: "fconv7_9"
  top: "fconv7_9+"
}
layer {
  name: "relu7_9"
  type: "ReLU"
  bottom: "fconv7_9+"
  top: "fconv7_9+"
}
layer {
  name: "fconv7_9to8_step1"
  type: "Convolution"
  bottom: "fconv7_9+"
  top: "fconv7_9to8_step1"
  param {
    lr_mult: 10
    decay_mult: 4
  }
  param {
    lr_mult: 20
    decay_mult: 0
  }
  convolution_param {
    num_output: 64
    pad: 4
    kernel_size: 9
    weight_filler {
      type: "gaussian"
      std: 0.01
    }
    bias_filler {
      type: "constant"
      value: 0
    }
  }
}
layer {
  name: "relu7_9to8_step1"
  type: "ReLU"
  bottom: "fconv7_9to8_step1"
  top: "fconv7_9to8_step1"
}
layer {
  name: "fconv7_9to8_step2"
  type: "Convolution"
  bottom: "fconv7_9to8_step1"
  top: "fconv7_9to8_step2"
  param {
    lr_mult: 10
    decay_mult: 4
  }
  param {
    lr_mult: 20
    decay_mult: 0
  }
  convolution_param {
    num_output: 128
    pad: 4
    kernel_size: 9
    weight_filler {
      type: "gaussian"
      std: 0.01
    }
    bias_filler {
      type: "constant"
      value: 0
    }
  }
}
layer {
  name: "fconv7_8"
  type: "Convolution"
  bottom: "fconv6_bn"
  top: "fconv7_8"
  param {
    lr_mult: 10
    decay_mult: 2
  }
  param {
    lr_mult: 20
    decay_mult: 0
  }
  convolution_param {
    num_output: 128
    pad: 0
    kernel_size: 1
    weight_filler {
      type: "gaussian"
      std: 0.01
    }
    bias_filler {
      type: "constant"
      value: 0
    }
  }
}
layer {
  name: "Pass_9to8"
  type: "Eltwise"
  bottom: "fconv7_9to8_step2"
  bottom: "fconv7_8"
  top: "fconv7_8+"
}
layer {
  name: "relu7_8"
  type: "ReLU"
  bottom: "fconv7_8+"
  top: "fconv7_8+"
}
layer {
  name: "fconv7_8to3_step1"
  type: "Convolution"
  bottom: "fconv7_8+"
  top: "fconv7_8to3_step1"
  param {
    lr_mult: 10
    decay_mult: 4
  }
  param {
    lr_mult: 20
    decay_mult: 0
  }
  convolution_param {
    num_output: 64
    pad: 4
    kernel_size: 9
    weight_filler {
      type: "gaussian"
      std: 0.01
    }
    bias_filler {
      type: "constant"
      value: 0
    }
  }
}
layer {
  name: "relu7_8to3_step1"
  type: "ReLU"
  bottom: "fconv7_8to3_step1"
  top: "fconv7_8to3_step1"
}
layer {
  name: "fconv7_8to3_step2"
  type: "Convolution"
  bottom: "fconv7_8to3_step1"
  top: "fconv7_8to3_step2"
  param {
    lr_mult: 10
    decay_mult: 4
  }
  param {
    lr_mult: 20
    decay_mult: 0
  }
  convolution_param {
    num_output: 128
    pad: 4
    kernel_size: 9
    weight_filler {
      type: "gaussian"
      std: 0.01
    }
    bias_filler {
      type: "constant"
      value: 0
    }
  }
}
layer {
  name: "fconv7_3"
  type: "Convolution"
  bottom: "fconv6_bn"
  top: "fconv7_3"
  param {
    lr_mult: 10
    decay_mult: 2
  }
  param {
    lr_mult: 20
    decay_mult: 0
  }
  convolution_param {
    num_output: 128
    pad: 0
    kernel_size: 1
    weight_filler {
      type: "gaussian"
      std: 0.01
    }
    bias_filler {
      type: "constant"
      value: 0
    }
  }
}
layer {
  name: "Pass_48to3"
  type: "Eltwise"
  bottom: "fconv7_8to3_step2"
  bottom: "fconv7_4to3_step2"
  bottom: "fconv7_3"
  top: "fconv7_3+"
}
layer {
  name: "relu7_3"
  type: "ReLU"
  bottom: "fconv7_3+"
  top: "fconv7_3+"
}
layer {
  name: "fconv7_3to2_step1"
  type: "Convolution"
  bottom: "fconv7_3+"
  top: "fconv7_3to2_step1"
  param {
    lr_mult: 10
    decay_mult: 4
  }
  param {
    lr_mult: 20
    decay_mult: 0
  }
  convolution_param {
    num_output: 64
    pad: 4
    kernel_size: 9
    weight_filler {
      type: "gaussian"
      std: 0.01
    }
    bias_filler {
      type: "constant"
      value: 0
    }
  }
}
layer {
  name: "relu7_3to2_step1"
  type: "ReLU"
  bottom: "fconv7_3to2_step1"
  top: "fconv7_3to2_step1"
}
layer {
  name: "fconv7_3to2_step2"
  type: "Convolution"
  bottom: "fconv7_3to2_step1"
  top: "fconv7_3to2_step2"
  param {
    lr_mult: 10
    decay_mult: 4
  }
  param {
    lr_mult: 20
    decay_mult: 0
  }
  convolution_param {
    num_output: 128
    pad: 4
    kernel_size: 9
    weight_filler {
      type: "gaussian"
      std: 0.01
    }
    bias_filler {
      type: "constant"
      value: 0
    }
  }
}
layer {
  name: "fconv7_15"
  type: "Convolution"
  bottom: "fconv6_bn"
  top: "fconv7_15"
  param {
    lr_mult: 10
    decay_mult: 2
  }
  param {
    lr_mult: 20
    decay_mult: 0
  }
  convolution_param {
    num_output: 128
    pad: 0
    kernel_size: 1
    weight_filler {
      type: "gaussian"
      std: 0.01
    }
    bias_filler {
      type: "constant"
      value: 0
    }
  }
}
layer {
  name: "relu7_15"
  type: "ReLU"
  bottom: "fconv7_15"
  top: "fconv7_15+"
}
layer {
  name: "fconv7_15to14_step1"
  type: "Convolution"
  bottom: "fconv7_15+"
  top: "fconv7_15to14_step1"
  param {
    lr_mult: 10
    decay_mult: 4
  }
  param {
    lr_mult: 20
    decay_mult: 0
  }
  convolution_param {
    num_output: 64
    pad: 4
    kernel_size: 9
    weight_filler {
      type: "gaussian"
      std: 0.01
    }
    bias_filler {
      type: "constant"
      value: 0
    }
  }
}
layer {
  name: "relu7_15to14_step1"
  type: "ReLU"
  bottom: "fconv7_15to14_step1"
  top: "fconv7_15to14_step1"
}
layer {
  name: "fconv7_15to14_step2"
  type: "Convolution"
  bottom: "fconv7_15to14_step1"
  top: "fconv7_15to14_step2"
  param {
    lr_mult: 10
    decay_mult: 4
  }
  param {
    lr_mult: 20
    decay_mult: 0
  }
  convolution_param {
    num_output: 128
    pad: 4
    kernel_size: 9
    weight_filler {
      type: "gaussian"
      std: 0.01
    }
    bias_filler {
      type: "constant"
      value: 0
    }
  }
}
layer {
  name: "fconv7_14"
  type: "Convolution"
  bottom: "fconv6_bn"
  top: "fconv7_14"
  param {
    lr_mult: 10
    decay_mult: 2
  }
  param {
    lr_mult: 20
    decay_mult: 0
  }
  convolution_param {
    num_output: 128
    pad: 0
    kernel_size: 1
    weight_filler {
      type: "gaussian"
      std: 0.01
    }
    bias_filler {
      type: "constant"
      value: 0
    }
  }
}
layer {
  name: "Pass_15to14"
  type: "Eltwise"
  bottom: "fconv7_15to14_step2"
  bottom: "fconv7_14"
  top: "fconv7_14+"
}
layer {
  name: "relu7_14"
  type: "ReLU"
  bottom: "fconv7_14+"
  top: "fconv7_14+"
}
layer {
  name: "fconv7_14to13_step1"
  type: "Convolution"
  bottom: "fconv7_14+"
  top: "fconv7_14to13_step1"
  param {
    lr_mult: 10
    decay_mult: 4
  }
  param {
    lr_mult: 20
    decay_mult: 0
  }
  convolution_param {
    num_output: 64
    pad: 4
    kernel_size: 9
    weight_filler {
      type: "gaussian"
      std: 0.01
    }
    bias_filler {
      type: "constant"
      value: 0
    }
  }
}
layer {
  name: "relu7_14to13_step1"
  type: "ReLU"
  bottom: "fconv7_14to13_step1"
  top: "fconv7_14to13_step1"
}
layer {
  name: "fconv7_14to13_step2"
  type: "Convolution"
  bottom: "fconv7_14to13_step1"
  top: "fconv7_14to13_step2"
  param {
    lr_mult: 10
    decay_mult: 4
  }
  param {
    lr_mult: 20
    decay_mult: 0
  }
  convolution_param {
    num_output: 128
    pad: 4
    kernel_size: 9
    weight_filler {
      type: "gaussian"
      std: 0.01
    }
    bias_filler {
      type: "constant"
      value: 0
    }
  }
}
layer {
  name: "fconv7_13"
  type: "Convolution"
  bottom: "fconv6_bn"
  top: "fconv7_13"
  param {
    lr_mult: 10
    decay_mult: 2
  }
  param {
    lr_mult: 20
    decay_mult: 0
  }
  convolution_param {
    num_output: 128
    pad: 0
    kernel_size: 1
    weight_filler {
      type: "gaussian"
      std: 0.01
    }
    bias_filler {
      type: "constant"
      value: 0
    }
  }
}
layer {
  name: "Pass_14to13"
  type: "Eltwise"
  bottom: "fconv7_14to13_step2"
  bottom: "fconv7_13"
  top: "fconv7_13+"
}
layer {
  name: "relu7_13"
  type: "ReLU"
  bottom: "fconv7_13+"
  top: "fconv7_13+"
}
layer {
  name: "fconv7_13to12_step1"
  type: "Convolution"
  bottom: "fconv7_13+"
  top: "fconv7_13to12_step1"
  param {
    lr_mult: 10
    decay_mult: 4
  }
  param {
    lr_mult: 20
    decay_mult: 0
  }
  convolution_param {
    num_output: 64
    pad: 4
    kernel_size: 9
    weight_filler {
      type: "gaussian"
      std: 0.01
    }
    bias_filler {
      type: "constant"
      value: 0
    }
  }
}
layer {
  name: "relu7_13to12_step1"
  type: "ReLU"
  bottom: "fconv7_13to12_step1"
  top: "fconv7_13to12_step1"
}
layer {
  name: "fconv7_13to12_step2"
  type: "Convolution"
  bottom: "fconv7_13to12_step1"
  top: "fconv7_13to12_step2"
  param {
    lr_mult: 10
    decay_mult: 4
  }
  param {
    lr_mult: 20
    decay_mult: 0
  }
  convolution_param {
    num_output: 128
    pad: 4
    kernel_size: 9
    weight_filler {
      type: "gaussian"
      std: 0.01
    }
    bias_filler {
      type: "constant"
      value: 0
    }
  }
}
layer {
  name: "fconv7_12"
  type: "Convolution"
  bottom: "fconv6_bn"
  top: "fconv7_12"
  param {
    lr_mult: 10
    decay_mult: 2
  }
  param {
    lr_mult: 20
    decay_mult: 0
  }
  convolution_param {
    num_output: 128
    pad: 0
    kernel_size: 1
    weight_filler {
      type: "gaussian"
      std: 0.01
    }
    bias_filler {
      type: "constant"
      value: 0
    }
  }
}
layer {
  name: "Pass_13to12"
  type: "Eltwise"
  bottom: "fconv7_13to12_step2"
  bottom: "fconv7_12"
  top: "fconv7_12+"
}
layer {
  name: "relu7_12"
  type: "ReLU"
  bottom: "fconv7_12+"
  top: "fconv7_12+"
}
layer {
  name: "fconv7_12to11_step1"
  type: "Convolution"
  bottom: "fconv7_12+"
  top: "fconv7_12to11_step1"
  param {
    lr_mult: 10
    decay_mult: 4
  }
  param {
    lr_mult: 20
    decay_mult: 0
  }
  convolution_param {
    num_output: 64
    pad: 4
    kernel_size: 9
    weight_filler {
      type: "gaussian"
      std: 0.01
    }
    bias_filler {
      type: "constant"
      value: 0
    }
  }
}
layer {
  name: "relu7_12to11_step1"
  type: "ReLU"
  bottom: "fconv7_12to11_step1"
  top: "fconv7_12to11_step1"
}
layer {
  name: "fconv7_12to11_step2"
  type: "Convolution"
  bottom: "fconv7_12to11_step1"
  top: "fconv7_12to11_step2"
  param {
    lr_mult: 10
    decay_mult: 4
  }
  param {
    lr_mult: 20
    decay_mult: 0
  }
  convolution_param {
    num_output: 128
    pad: 4
    kernel_size: 9
    weight_filler {
      type: "gaussian"
      std: 0.01
    }
    bias_filler {
      type: "constant"
      value: 0
    }
  }
}
layer {
  name: "fconv7_18"
  type: "Convolution"
  bottom: "fconv6_bn"
  top: "fconv7_18+"
  param {
    lr_mult: 10
    decay_mult: 2
  }
  param {
    lr_mult: 20
    decay_mult: 0
  }
  convolution_param {
    num_output: 128
    pad: 0
    kernel_size: 1
    weight_filler {
      type: "gaussian"
      std: 0.01
    }
    bias_filler {
      type: "constant"
      value: 0
    }
  }
}
layer {
  name: "relu7_18"
  type: "ReLU"
  bottom: "fconv7_18+"
  top: "fconv7_18+"
}
layer {
  name: "fconv7_18to17_step1"
  type: "Convolution"
  bottom: "fconv7_18+"
  top: "fconv7_18to17_step1"
  param {
    lr_mult: 10
    decay_mult: 4
  }
  param {
    lr_mult: 20
    decay_mult: 0
  }
  convolution_param {
    num_output: 64
    pad: 4
    kernel_size: 9
    weight_filler {
      type: "gaussian"
      std: 0.01
    }
    bias_filler {
      type: "constant"
      value: 0
    }
  }
}
layer {
  name: "relu7_18to17_step1"
  type: "ReLU"
  bottom: "fconv7_18to17_step1"
  top: "fconv7_18to17_step1"
}
layer {
  name: "fconv7_18to17_step2"
  type: "Convolution"
  bottom: "fconv7_18to17_step1"
  top: "fconv7_18to17_step2"
  param {
    lr_mult: 10
    decay_mult: 4
  }
  param {
    lr_mult: 20
    decay_mult: 0
  }
  convolution_param {
    num_output: 128
    pad: 4
    kernel_size: 9
    weight_filler {
      type: "gaussian"
      std: 0.01
    }
    bias_filler {
      type: "constant"
      value: 0
    }
  }
}
layer {
  name: "fconv7_17"
  type: "Convolution"
  bottom: "fconv6_bn"
  top: "fconv7_17"
  param {
    lr_mult: 10
    decay_mult: 2
  }
  param {
    lr_mult: 20
    decay_mult: 0
  }
  convolution_param {
    num_output: 128
    pad: 0
    kernel_size: 1
    weight_filler {
      type: "gaussian"
      std: 0.01
    }
    bias_filler {
      type: "constant"
      value: 0
    }
  }
}
layer {
  name: "Pass_18to17"
  type: "Eltwise"
  bottom: "fconv7_18to17_step2"
  bottom: "fconv7_17"
  top: "fconv7_17+"
}
layer {
  name: "relu7_17"
  type: "ReLU"
  bottom: "fconv7_17+"
  top: "fconv7_17+"
}
layer {
  name: "fconv7_17to16_step1"
  type: "Convolution"
  bottom: "fconv7_17+"
  top: "fconv7_17to16_step1"
  param {
    lr_mult: 10
    decay_mult: 4
  }
  param {
    lr_mult: 20
    decay_mult: 0
  }
  convolution_param {
    num_output: 64
    pad: 4
    kernel_size: 9
    weight_filler {
      type: "gaussian"
      std: 0.01
    }
    bias_filler {
      type: "constant"
      value: 0
    }
  }
}
layer {
  name: "relu7_17to16_step1"
  type: "ReLU"
  bottom: "fconv7_17to16_step1"
  top: "fconv7_17to16_step1"
}
layer {
  name: "fconv7_17to16_step2"
  type: "Convolution"
  bottom: "fconv7_17to16_step1"
  top: "fconv7_17to16_step2"
  param {
    lr_mult: 10
    decay_mult: 4
  }
  param {
    lr_mult: 20
    decay_mult: 0
  }
  convolution_param {
    num_output: 128
    pad: 4
    kernel_size: 9
    weight_filler {
      type: "gaussian"
      std: 0.01
    }
    bias_filler {
      type: "constant"
      value: 0
    }
  }
}
layer {
  name: "fconv7_16"
  type: "Convolution"
  bottom: "fconv6_bn"
  top: "fconv7_16"
  param {
    lr_mult: 10
    decay_mult: 2
  }
  param {
    lr_mult: 20
    decay_mult: 0
  }
  convolution_param {
    num_output: 128
    pad: 0
    kernel_size: 1
    weight_filler {
      type: "gaussian"
      std: 0.01
    }
    bias_filler {
      type: "constant"
      value: 0
    }
  }
}
layer {
  name: "Pass_17to16"
  type: "Eltwise"
  bottom: "fconv7_17to16_step2"
  bottom: "fconv7_16"
  top: "fconv7_16+"
}
layer {
  name: "relu7_16"
  type: "ReLU"
  bottom: "fconv7_16+"
  top: "fconv7_16+"
}
layer {
  name: "fconv7_16to11_step1"
  type: "Convolution"
  bottom: "fconv7_16+"
  top: "fconv7_16to11_step1"
  param {
    lr_mult: 10
    decay_mult: 4
  }
  param {
    lr_mult: 20
    decay_mult: 0
  }
  convolution_param {
    num_output: 64
    pad: 4
    kernel_size: 9
    weight_filler {
      type: "gaussian"
      std: 0.01
    }
    bias_filler {
      type: "constant"
      value: 0
    }
  }
}
layer {
  name: "relu7_16to11_step1"
  type: "ReLU"
  bottom: "fconv7_16to11_step1"
  top: "fconv7_16to11_step1"
}
layer {
  name: "fconv7_16to11_step2"
  type: "Convolution"
  bottom: "fconv7_16to11_step1"
  top: "fconv7_16to11_step2"
  param {
    lr_mult: 10
    decay_mult: 4
  }
  param {
    lr_mult: 20
    decay_mult: 0
  }
  convolution_param {
    num_output: 128
    pad: 4
    kernel_size: 9
    weight_filler {
      type: "gaussian"
      std: 0.01
    }
    bias_filler {
      type: "constant"
      value: 0
    }
  }
}
layer {
  name: "fconv7_11"
  type: "Convolution"
  bottom: "fconv6_bn"
  top: "fconv7_11"
  param {
    lr_mult: 10
    decay_mult: 2
  }
  param {
    lr_mult: 20
    decay_mult: 0
  }
  convolution_param {
    num_output: 128
    pad: 0
    kernel_size: 1
    weight_filler {
      type: "gaussian"
      std: 0.01
    }
    bias_filler {
      type: "constant"
      value: 0
    }
  }
}
layer {
  name: "Pass_1216to11"
  type: "Eltwise"
  bottom: "fconv7_16to11_step2"
  bottom: "fconv7_12to11_step2"
  bottom: "fconv7_11"
  top: "fconv7_11+"
}
layer {
  name: "relu7_11"
  type: "ReLU"
  bottom: "fconv7_11+"
  top: "fconv7_11+"
}
layer {
  name: "fconv7_11to2_step1"
  type: "Convolution"
  bottom: "fconv7_11+"
  top: "fconv7_11to2_step1"
  param {
    lr_mult: 10
    decay_mult: 4
  }
  param {
    lr_mult: 20
    decay_mult: 0
  }
  convolution_param {
    num_output: 64
    pad: 4
    kernel_size: 9
    weight_filler {
      type: "gaussian"
      std: 0.01
    }
    bias_filler {
      type: "constant"
      value: 0
    }
  }
}
layer {
  name: "relu7_11to2_step1"
  type: "ReLU"
  bottom: "fconv7_11to2_step1"
  top: "fconv7_11to2_step1"
}
layer {
  name: "fconv7_11to2_step2"
  type: "Convolution"
  bottom: "fconv7_11to2_step1"
  top: "fconv7_11to2_step2"
  param {
    lr_mult: 10
    decay_mult: 4
  }
  para
I0204 18:59:52.346930 25293 layer_factory.hpp:74] Creating layer data
I0204 18:59:52.347014 25293 net.cpp:102] Creating Layer data
I0204 18:59:52.347025 25293 net.cpp:380] data -> data
I0204 18:59:52.347053 25293 net.cpp:132] Setting up data
I0204 18:59:52.347240 25293 db_lmdb.cpp:22] Opened lmdb /home/xchu/code/CVPR2016/RNNpose/cache/flic_fconv/Data/LMDB_train
I0204 18:59:52.347430 25293 data_layer.cpp:53] Skipping first 0 data points.
I0204 18:59:52.359129 25293 data_layer.cpp:74] Decoding Datum
I0204 18:59:52.359177 25293 data_layer.cpp:98] output data size: 4,3,448,448
I0204 18:59:52.367655 25293 net.cpp:139] Top shape: 4 3 448 448 (2408448)
I0204 18:59:52.367702 25293 layer_factory.hpp:74] Creating layer data2
I0204 18:59:52.367727 25293 net.cpp:102] Creating Layer data2
I0204 18:59:52.367734 25293 net.cpp:380] data2 -> labelmask
I0204 18:59:52.367753 25293 net.cpp:132] Setting up data2
I0204 18:59:52.367888 25293 db_lmdb.cpp:22] Opened lmdb /home/xchu/code/CVPR2016/RNNpose/cache/flic_fconv/Data/LMDB_train_label_lessNeg
I0204 18:59:52.367938 25293 data_layer.cpp:53] Skipping first 0 data points.
I0204 18:59:52.368310 25293 data_layer.cpp:98] output data size: 4,36,56,56
I0204 18:59:52.368451 25293 net.cpp:139] Top shape: 4 36 56 56 (451584)
I0204 18:59:52.368460 25293 layer_factory.hpp:74] Creating layer slice_label_train
I0204 18:59:52.368479 25293 net.cpp:102] Creating Layer slice_label_train
I0204 18:59:52.368492 25293 net.cpp:422] slice_label_train <- labelmask
I0204 18:59:52.368508 25293 net.cpp:380] slice_label_train -> label0
I0204 18:59:52.368525 25293 net.cpp:380] slice_label_train -> mask
I0204 18:59:52.368533 25293 net.cpp:132] Setting up slice_label_train
I0204 18:59:52.368548 25293 net.cpp:139] Top shape: 4 18 56 56 (225792)
I0204 18:59:52.368556 25293 net.cpp:139] Top shape: 4 18 56 56 (225792)
I0204 18:59:52.368561 25293 layer_factory.hpp:74] Creating layer mix
I0204 18:59:52.368571 25293 net.cpp:102] Creating Layer mix
I0204 18:59:52.368577 25293 net.cpp:380] mix -> mix
I0204 18:59:52.368585 25293 net.cpp:132] Setting up mix
I0204 18:59:52.368643 25293 db_lmdb.cpp:22] Opened lmdb /home/xchu/code/CVPR2016/RNNpose/cache/flic_fconv/Data/LMDB_train_mixtype_ext
I0204 18:59:52.368665 25293 data_layer.cpp:53] Skipping first 0 data points.
I0204 18:59:52.368680 25293 data_layer.cpp:98] output data size: 4,18,1,1
I0204 18:59:52.368724 25293 net.cpp:139] Top shape: 4 18 1 1 (72)
I0204 18:59:52.368733 25293 layer_factory.hpp:74] Creating layer label2mix
I0204 18:59:52.368746 25293 net.cpp:102] Creating Layer label2mix
I0204 18:59:52.368752 25293 net.cpp:422] label2mix <- label0
I0204 18:59:52.368757 25293 net.cpp:422] label2mix <- mix
I0204 18:59:52.368765 25293 net.cpp:380] label2mix -> label
I0204 18:59:52.368774 25293 net.cpp:132] Setting up label2mix
I0204 18:59:52.368784 25293 net.cpp:139] Top shape: 4 234 56 56 (2935296)
I0204 18:59:52.368788 25293 layer_factory.hpp:74] Creating layer conv1_1
I0204 18:59:52.368800 25293 net.cpp:102] Creating Layer conv1_1
I0204 18:59:52.368808 25293 net.cpp:422] conv1_1 <- data
I0204 18:59:52.368815 25293 net.cpp:380] conv1_1 -> conv1_1
I0204 18:59:52.368824 25293 net.cpp:132] Setting up conv1_1
I0204 18:59:52.878504 25293 net.cpp:139] Top shape: 4 64 448 448 (51380224)
I0204 18:59:52.878572 25293 layer_factory.hpp:74] Creating layer relu1_1
I0204 18:59:52.878614 25293 net.cpp:102] Creating Layer relu1_1
I0204 18:59:52.878623 25293 net.cpp:422] relu1_1 <- conv1_1
I0204 18:59:52.878633 25293 net.cpp:369] relu1_1 -> conv1_1 (in-place)
I0204 18:59:52.878645 25293 net.cpp:132] Setting up relu1_1
I0204 18:59:52.879806 25293 net.cpp:139] Top shape: 4 64 448 448 (51380224)
I0204 18:59:52.879835 25293 layer_factory.hpp:74] Creating layer conv1_2
I0204 18:59:52.879865 25293 net.cpp:102] Creating Layer conv1_2
I0204 18:59:52.879875 25293 net.cpp:422] conv1_2 <- conv1_1
I0204 18:59:52.879891 25293 net.cpp:380] conv1_2 -> conv1_2
I0204 18:59:52.879921 25293 net.cpp:132] Setting up conv1_2
I0204 18:59:52.882702 25293 net.cpp:139] Top shape: 4 64 448 448 (51380224)
I0204 18:59:52.882730 25293 layer_factory.hpp:74] Creating layer relu1_2
I0204 18:59:52.882742 25293 net.cpp:102] Creating Layer relu1_2
I0204 18:59:52.882748 25293 net.cpp:422] relu1_2 <- conv1_2
I0204 18:59:52.882755 25293 net.cpp:369] relu1_2 -> conv1_2 (in-place)
I0204 18:59:52.882776 25293 net.cpp:132] Setting up relu1_2
I0204 18:59:52.882833 25293 net.cpp:139] Top shape: 4 64 448 448 (51380224)
I0204 18:59:52.882843 25293 layer_factory.hpp:74] Creating layer pool1
I0204 18:59:52.882856 25293 net.cpp:102] Creating Layer pool1
I0204 18:59:52.882866 25293 net.cpp:422] pool1 <- conv1_2
I0204 18:59:52.882875 25293 net.cpp:380] pool1 -> pool1
I0204 18:59:52.882884 25293 net.cpp:132] Setting up pool1
I0204 18:59:52.882969 25293 net.cpp:139] Top shape: 4 64 224 224 (12845056)
I0204 18:59:52.882979 25293 layer_factory.hpp:74] Creating layer conv2_1
I0204 18:59:52.882990 25293 net.cpp:102] Creating Layer conv2_1
I0204 18:59:52.882995 25293 net.cpp:422] conv2_1 <- pool1
I0204 18:59:52.883003 25293 net.cpp:380] conv2_1 -> conv2_1
I0204 18:59:52.883013 25293 net.cpp:132] Setting up conv2_1
I0204 18:59:52.884601 25293 net.cpp:139] Top shape: 4 128 224 224 (25690112)
I0204 18:59:52.884624 25293 layer_factory.hpp:74] Creating layer relu2_1
I0204 18:59:52.884639 25293 net.cpp:102] Creating Layer relu2_1
I0204 18:59:52.884644 25293 net.cpp:422] relu2_1 <- conv2_1
I0204 18:59:52.884650 25293 net.cpp:369] relu2_1 -> conv2_1 (in-place)
I0204 18:59:52.884659 25293 net.cpp:132] Setting up relu2_1
I0204 18:59:52.896255 25293 net.cpp:139] Top shape: 4 128 224 224 (25690112)
I0204 18:59:52.896306 25293 layer_factory.hpp:74] Creating layer conv2_2
I0204 18:59:52.896327 25293 net.cpp:102] Creating Layer conv2_2
I0204 18:59:52.896349 25293 net.cpp:422] conv2_2 <- conv2_1
I0204 18:59:52.896373 25293 net.cpp:380] conv2_2 -> conv2_2
I0204 18:59:52.896389 25293 net.cpp:132] Setting up conv2_2
I0204 18:59:52.928457 25293 net.cpp:139] Top shape: 4 128 224 224 (25690112)
I0204 18:59:52.928551 25293 layer_factory.hpp:74] Creating layer relu2_2
I0204 18:59:52.928570 25293 net.cpp:102] Creating Layer relu2_2
I0204 18:59:52.928586 25293 net.cpp:422] relu2_2 <- conv2_2
I0204 18:59:52.928612 25293 net.cpp:369] relu2_2 -> conv2_2 (in-place)
I0204 18:59:52.928624 25293 net.cpp:132] Setting up relu2_2
I0204 18:59:52.928706 25293 net.cpp:139] Top shape: 4 128 224 224 (25690112)
I0204 18:59:52.928719 25293 layer_factory.hpp:74] Creating layer pool2
I0204 18:59:52.928742 25293 net.cpp:102] Creating Layer pool2
I0204 18:59:52.928748 25293 net.cpp:422] pool2 <- conv2_2
I0204 18:59:52.928758 25293 net.cpp:380] pool2 -> pool2
I0204 18:59:52.928771 25293 net.cpp:132] Setting up pool2
I0204 18:59:52.928851 25293 net.cpp:139] Top shape: 4 128 112 112 (6422528)
I0204 18:59:52.928860 25293 layer_factory.hpp:74] Creating layer conv3_1
I0204 18:59:52.928871 25293 net.cpp:102] Creating Layer conv3_1
I0204 18:59:52.928876 25293 net.cpp:422] conv3_1 <- pool2
I0204 18:59:52.928884 25293 net.cpp:380] conv3_1 -> conv3_1
I0204 18:59:52.928894 25293 net.cpp:132] Setting up conv3_1
I0204 18:59:52.931855 25293 net.cpp:139] Top shape: 4 256 112 112 (12845056)
I0204 18:59:52.931900 25293 layer_factory.hpp:74] Creating layer relu3_1
I0204 18:59:52.931916 25293 net.cpp:102] Creating Layer relu3_1
I0204 18:59:52.931924 25293 net.cpp:422] relu3_1 <- conv3_1
I0204 18:59:52.931937 25293 net.cpp:369] relu3_1 -> conv3_1 (in-place)
I0204 18:59:52.931948 25293 net.cpp:132] Setting up relu3_1
I0204 18:59:52.932052 25293 net.cpp:139] Top shape: 4 256 112 112 (12845056)
I0204 18:59:52.932082 25293 layer_factory.hpp:74] Creating layer conv3_2
I0204 18:59:52.932099 25293 net.cpp:102] Creating Layer conv3_2
I0204 18:59:52.932107 25293 net.cpp:422] conv3_2 <- conv3_1
I0204 18:59:52.932122 25293 net.cpp:380] conv3_2 -> conv3_2
I0204 18:59:52.932142 25293 net.cpp:132] Setting up conv3_2
I0204 18:59:52.935588 25293 net.cpp:139] Top shape: 4 256 112 112 (12845056)
I0204 18:59:52.935616 25293 layer_factory.hpp:74] Creating layer relu3_2
I0204 18:59:52.935628 25293 net.cpp:102] Creating Layer relu3_2
I0204 18:59:52.935636 25293 net.cpp:422] relu3_2 <- conv3_2
I0204 18:59:52.935657 25293 net.cpp:369] relu3_2 -> conv3_2 (in-place)
I0204 18:59:52.935668 25293 net.cpp:132] Setting up relu3_2
I0204 18:59:52.937331 25293 net.cpp:139] Top shape: 4 256 112 112 (12845056)
I0204 18:59:52.937355 25293 layer_factory.hpp:74] Creating layer conv3_3
I0204 18:59:52.937373 25293 net.cpp:102] Creating Layer conv3_3
I0204 18:59:52.937381 25293 net.cpp:422] conv3_3 <- conv3_2
I0204 18:59:52.937393 25293 net.cpp:380] conv3_3 -> conv3_3
I0204 18:59:52.937405 25293 net.cpp:132] Setting up conv3_3
I0204 18:59:52.941696 25293 net.cpp:139] Top shape: 4 256 112 112 (12845056)
I0204 18:59:52.941715 25293 layer_factory.hpp:74] Creating layer relu3_3
I0204 18:59:52.941727 25293 net.cpp:102] Creating Layer relu3_3
I0204 18:59:52.941733 25293 net.cpp:422] relu3_3 <- conv3_3
I0204 18:59:52.941741 25293 net.cpp:369] relu3_3 -> conv3_3 (in-place)
I0204 18:59:52.941748 25293 net.cpp:132] Setting up relu3_3
I0204 18:59:52.941817 25293 net.cpp:139] Top shape: 4 256 112 112 (12845056)
I0204 18:59:52.941831 25293 layer_factory.hpp:74] Creating layer pool3
I0204 18:59:52.941841 25293 net.cpp:102] Creating Layer pool3
I0204 18:59:52.941846 25293 net.cpp:422] pool3 <- conv3_3
I0204 18:59:52.941855 25293 net.cpp:380] pool3 -> pool3
I0204 18:59:52.941869 25293 net.cpp:132] Setting up pool3
I0204 18:59:52.941932 25293 net.cpp:139] Top shape: 4 256 56 56 (3211264)
I0204 18:59:52.941942 25293 layer_factory.hpp:74] Creating layer conv4_1
I0204 18:59:52.941951 25293 net.cpp:102] Creating Layer conv4_1
I0204 18:59:52.941956 25293 net.cpp:422] conv4_1 <- pool3
I0204 18:59:52.941965 25293 net.cpp:380] conv4_1 -> conv4_1
I0204 18:59:52.941977 25293 net.cpp:132] Setting up conv4_1
I0204 18:59:52.975128 25293 net.cpp:139] Top shape: 4 512 56 56 (6422528)
I0204 18:59:52.975220 25293 layer_factory.hpp:74] Creating layer relu4_1
I0204 18:59:52.975265 25293 net.cpp:102] Creating Layer relu4_1
I0204 18:59:52.975286 25293 net.cpp:422] relu4_1 <- conv4_1
I0204 18:59:52.975306 25293 net.cpp:369] relu4_1 -> conv4_1 (in-place)
I0204 18:59:52.975322 25293 net.cpp:132] Setting up relu4_1
I0204 18:59:52.975430 25293 net.cpp:139] Top shape: 4 512 56 56 (6422528)
I0204 18:59:52.975445 25293 layer_factory.hpp:74] Creating layer conv4_2
I0204 18:59:52.975466 25293 net.cpp:102] Creating Layer conv4_2
I0204 18:59:52.975489 25293 net.cpp:422] conv4_2 <- conv4_1
I0204 18:59:52.975505 25293 net.cpp:380] conv4_2 -> conv4_2
I0204 18:59:52.975520 25293 net.cpp:132] Setting up conv4_2
I0204 18:59:52.999718 25293 net.cpp:139] Top shape: 4 512 56 56 (6422528)
I0204 18:59:52.999807 25293 layer_factory.hpp:74] Creating layer relu4_2
I0204 18:59:52.999831 25293 net.cpp:102] Creating Layer relu4_2
I0204 18:59:52.999842 25293 net.cpp:422] relu4_2 <- conv4_2
I0204 18:59:52.999855 25293 net.cpp:369] relu4_2 -> conv4_2 (in-place)
I0204 18:59:52.999869 25293 net.cpp:132] Setting up relu4_2
I0204 18:59:53.001381 25293 net.cpp:139] Top shape: 4 512 56 56 (6422528)
I0204 18:59:53.001413 25293 layer_factory.hpp:74] Creating layer conv4_3
I0204 18:59:53.001442 25293 net.cpp:102] Creating Layer conv4_3
I0204 18:59:53.001454 25293 net.cpp:422] conv4_3 <- conv4_2
I0204 18:59:53.001476 25293 net.cpp:380] conv4_3 -> conv4_3
I0204 18:59:53.001495 25293 net.cpp:132] Setting up conv4_3
I0204 18:59:53.036317 25293 net.cpp:139] Top shape: 4 512 56 56 (6422528)
I0204 18:59:53.036387 25293 layer_factory.hpp:74] Creating layer relu4_3
I0204 18:59:53.036413 25293 net.cpp:102] Creating Layer relu4_3
I0204 18:59:53.036425 25293 net.cpp:422] relu4_3 <- conv4_3
I0204 18:59:53.036440 25293 net.cpp:380] relu4_3 -> pool5
I0204 18:59:53.036458 25293 net.cpp:132] Setting up relu4_3
I0204 18:59:53.036597 25293 net.cpp:139] Top shape: 4 512 56 56 (6422528)
I0204 18:59:53.036617 25293 layer_factory.hpp:74] Creating layer fconv6-1024
I0204 18:59:53.036638 25293 net.cpp:102] Creating Layer fconv6-1024
I0204 18:59:53.036649 25293 net.cpp:422] fconv6-1024 <- pool5
I0204 18:59:53.036662 25293 net.cpp:380] fconv6-1024 -> fconv6
I0204 18:59:53.036696 25293 net.cpp:132] Setting up fconv6-1024
I0204 18:59:53.487983 25293 net.cpp:139] Top shape: 4 1024 56 56 (12845056)
I0204 18:59:53.488019 25293 layer_factory.hpp:74] Creating layer fconv6_bn
I0204 18:59:53.488041 25293 net.cpp:102] Creating Layer fconv6_bn
I0204 18:59:53.488049 25293 net.cpp:422] fconv6_bn <- fconv6
I0204 18:59:53.488059 25293 net.cpp:380] fconv6_bn -> fconv6_bn
I0204 18:59:53.488075 25293 net.cpp:132] Setting up fconv6_bn
I0204 18:59:53.488111 25293 net.cpp:139] Top shape: 4 1024 56 56 (12845056)
I0204 18:59:53.488123 25293 layer_factory.hpp:74] Creating layer relu6
I0204 18:59:53.488132 25293 net.cpp:102] Creating Layer relu6
I0204 18:59:53.488137 25293 net.cpp:422] relu6 <- fconv6_bn
I0204 18:59:53.488145 25293 net.cpp:369] relu6 -> fconv6_bn (in-place)
I0204 18:59:53.488158 25293 net.cpp:132] Setting up relu6
I0204 18:59:53.488231 25293 net.cpp:139] Top shape: 4 1024 56 56 (12845056)
I0204 18:59:53.488240 25293 layer_factory.hpp:74] Creating layer drop6
I0204 18:59:53.488265 25293 net.cpp:102] Creating Layer drop6
I0204 18:59:53.488272 25293 net.cpp:422] drop6 <- fconv6_bn
I0204 18:59:53.488279 25293 net.cpp:369] drop6 -> fconv6_bn (in-place)
I0204 18:59:53.488286 25293 net.cpp:132] Setting up drop6
I0204 18:59:53.488299 25293 net.cpp:139] Top shape: 4 1024 56 56 (12845056)
I0204 18:59:53.488306 25293 layer_factory.hpp:74] Creating layer fconv6_bn_drop6_0_split
I0204 18:59:53.488327 25293 net.cpp:102] Creating Layer fconv6_bn_drop6_0_split
I0204 18:59:53.488332 25293 net.cpp:422] fconv6_bn_drop6_0_split <- fconv6_bn
I0204 18:59:53.488343 25293 net.cpp:380] fconv6_bn_drop6_0_split -> fconv6_bn_drop6_0_split_0
I0204 18:59:53.488355 25293 net.cpp:380] fconv6_bn_drop6_0_split -> fconv6_bn_drop6_0_split_1
…
I0204 18:59:53.488703 25293 net.cpp:380] fconv6_bn_drop6_0_split -> fconv6_bn_drop6_0_split_31
I0204 18:59:53.488713 25293 net.cpp:380] fconv6_bn_drop6_0_split -> fconv6_bn_drop6_0_split_32
I0204 18:59:53.488726 25293 net.cpp:380] fconv6_bn_drop6_0_split -> fconv6_bn_drop6_0_split_33
I0204 18:59:53.488739 25293 net.cpp:380] fconv6_bn_drop6_0_split -> fconv6_bn_drop6_0_split_34
I0204 18:59:53.488749 25293 net.cpp:380] fconv6_bn_drop6_0_split -> fconv6_bn_drop6_0_split_35
I0204 18:59:53.488759 25293 net.cpp:380] fconv6_bn_drop6_0_split -> fconv6_bn_drop6_0_split_36
I0204 18:59:53.488767 25293 net.cpp:132] Setting up fconv6_bn_drop6_0_split
I0204 18:59:53.488790 25293 net.cpp:139] Top shape: 4 1024 56 56 (12845056)
I0204 18:59:53.488797 25293 net.cpp:139] Top shape: 4 1024 56 56 (12845056)
I0204 18:59:53.488802 25293 net.cpp:139] Top shape: 4 1024 56 56 (12845056)
I0204 18:59:53.488807 25293 net.cpp:139] Top shape: 4 1024 56 56 (12845056)
I0204 18:59:53.488812 25293 net.cpp:139] Top shape: 4 1024 56 56 (12845056)
I0204 18:59:53.488817 25293 net.cpp:139] Top shape: 4 1024 56 56 (12845056)
I0204 18:59:53.488822 25293 net.cpp:139] Top shape: 4 1024 56 56 (12845056)
I0204 18:59:53.488827 25293 net.cpp:139] Top shape: 4 1024 56 56 (12845056)
I0204 18:59:53.488832 25293 net.cpp:139] Top shape: 4 1024 56 56 (12845056)
I0204 18:59:53.488838 25293 net.cpp:139] Top shape: 4 1024 56 56 (12845056)
I0204 18:59:53.488843 25293 net.cpp:139] Top shape: 4 1024 56 56 (12845056)
I0204 18:59:53.488849 25293 net.cpp:139] Top shape: 4 1024 56 56 (12845056)
I0204 18:59:53.488854 25293 net.cpp:139] Top shape: 4 1024 56 56 (12845056)
I0204 18:59:53.488859 25293 net.cpp:139] Top shape: 4 1024 56 56 (12845056)
I0204 18:59:53.488864 25293 net.cpp:139] Top shape: 4 1024 56 56 (12845056)
I0204 18:59:53.488869 25293 net.cpp:139] Top shape: 4 1024 56 56 (12845056)
I0204 18:59:53.488874 25293 net.cpp:139] Top shape: 4 1024 56 56 (12845056)
I0204 18:59:53.488879 25293 net.cpp:139] Top shape: 4 1024 56 56 (12845056)
I0204 18:59:53.488884 25293 net.cpp:139] Top shape: 4 1024 56 56 (12845056)
I0204 18:59:53.488889 25293 net.cpp:139] Top shape: 4 1024 56 56 (12845056)
I0204 18:59:53.488894 25293 net.cpp:139] Top shape: 4 1024 56 56 (12845056)
I0204 18:59:53.488900 25293 net.cpp:139] Top shape: 4 1024 56 56 (12845056)
I0204 18:59:53.488905 25293 net.cpp:139] Top shape: 4 1024 56 56 (12845056)
I0204 18:59:53.488910 25293 net.cpp:139] Top shape: 4 1024 56 56 (12845056)
I0204 18:59:53.488915 25293 net.cpp:139] Top shape: 4 1024 56 56 (12845056)
I0204 18:59:53.488920 25293 net.cpp:139] Top shape: 4 1024 56 56 (12845056)
I0204 18:59:53.488925 25293 net.cpp:139] Top shape: 4 1024 56 56 (12845056)
I0204 18:59:53.488930 25293 net.cpp:139] Top shape: 4 1024 56 56 (12845056)
I0204 18:59:53.488935 25293 net.cpp:139] Top shape: 4 1024 56 56 (12845056)
I0204 18:59:53.488940 25293 net.cpp:139] Top shape: 4 1024 56 56 (12845056)
I0204 18:59:53.488945 25293 net.cpp:139] Top shape: 4 1024 56 56 (12845056)
I0204 18:59:53.488950 25293 net.cpp:139] Top shape: 4 1024 56 56 (12845056)
I0204 18:59:53.488955 25293 net.cpp:139] Top shape: 4 1024 56 56 (12845056)
I0204 18:59:53.488960 25293 net.cpp:139] Top shape: 4 1024 56 56 (12845056)
I0204 18:59:53.488965 25293 net.cpp:139] Top shape: 4 1024 56 56 (12845056)
I0204 18:59:53.488970 25293 net.cpp:139] Top shape: 4 1024 56 56 (12845056)
I0204 18:59:53.488976 25293 net.cpp:139] Top shape: 4 1024 56 56 (12845056)
I0204 18:59:53.488981 25293 layer_factory.hpp:74] Creating layer fconv7_7
I0204 18:59:53.488991 25293 net.cpp:102] Creating Layer fconv7_7
I0204 18:59:53.488996 25293 net.cpp:422] fconv7_7 <- fconv6_bn_drop6_0_split_0
I0204 18:59:53.489006 25293 net.cpp:380] fconv7_7 -> fconv7_7
I0204 18:59:53.489017 25293 net.cpp:132] Setting up fconv7_7
I0204 18:59:53.493155 25293 net.cpp:139] Top shape: 4 128 56 56 (1605632)
I0204 18:59:53.493172 25293 layer_factory.hpp:74] Creating layer relu7_7
I0204 18:59:53.493180 25293 net.cpp:102] Creating Layer relu7_7
I0204 18:59:53.493186 25293 net.cpp:422] relu7_7 <- fconv7_7
I0204 18:59:53.493194 25293 net.cpp:380] relu7_7 -> fconv7_7+
I0204 18:59:53.493201 25293 net.cpp:132] Setting up relu7_7
I0204 18:59:53.493268 25293 net.cpp:139] Top shape: 4 128 56 56 (1605632)
I0204 18:59:53.493278 25293 layer_factory.hpp:74] Creating layer fconv7_7+_relu7_7_0_split
I0204 18:59:53.493286 25293 net.cpp:102] Creating Layer fconv7_7+_relu7_7_0_split
I0204 18:59:53.493291 25293 net.cpp:422] fconv7_7+_relu7_7_0_split <- fconv7_7+
I0204 18:59:53.493299 25293 net.cpp:380] fconv7_7+_relu7_7_0_split -> fconv7_7+_relu7_7_0_split_0
I0204 18:59:53.493309 25293 net.cpp:380] fconv7_7+_relu7_7_0_split -> fconv7_7+_relu7_7_0_split_1
I0204 18:59:53.493320 25293 net.cpp:132] Setting up fconv7_7+_relu7_7_0_split
I0204 18:59:53.493327 25293 net.cpp:139] Top shape: 4 128 56 56 (1605632)
I0204 18:59:53.493333 25293 net.cpp:139] Top shape: 4 128 56 56 (1605632)
I0204 18:59:53.493337 25293 layer_factory.hpp:74] Creating layer fconv7_7to6_step1
I0204 18:59:53.493355 25293 net.cpp:102] Creating Layer fconv7_7to6_step1
I0204 18:59:53.493362 25293 net.cpp:422] fconv7_7to6_step1 <- fconv7_7+_relu7_7_0_split_0
I0204 18:59:53.493371 25293 net.cpp:380] fconv7_7to6_step1 -> fconv7_7to6_step1
I0204 18:59:53.493379 25293 net.cpp:132] Setting up fconv7_7to6_step1
I0204 18:59:53.512888 25293 net.cpp:139] Top shape: 4 64 56 56 (802816)
I0204 18:59:53.512915 25293 layer_factory.hpp:74] Creating layer relu7_7to6_step1
I0204 18:59:53.512928 25293 net.cpp:102] Creating Layer relu7_7to6_step1
I0204 18:59:53.512934 25293 net.cpp:422] relu7_7to6_step1 <- fconv7_7to6_step1
I0204 18:59:53.512943 25293 net.cpp:369] relu7_7to6_step1 -> fconv7_7to6_step1 (in-place)
I0204 18:59:53.512950 25293 net.cpp:132] Setting up relu7_7to6_step1
I0204 18:59:53.513294 25293 net.cpp:139] Top shape: 4 64 56 56 (802816)
I0204 18:59:53.513306 25293 layer_factory.hpp:74] Creating layer fconv7_7to6_step2
I0204 18:59:53.513320 25293 net.cpp:102] Creating Layer fconv7_7to6_step2
I0204 18:59:53.513325 25293 net.cpp:422] fconv7_7to6_step2 <- fconv7_7to6_step1
I0204 18:59:53.513335 25293 net.cpp:380] fconv7_7to6_step2 -> fconv7_7to6_step2
I0204 18:59:53.513355 25293 net.cpp:132] Setting up fconv7_7to6_step2
I0204 18:59:53.532308 25293 net.cpp:139] Top shape: 4 128 56 56 (1605632)
I0204 18:59:53.532342 25293 layer_factory.hpp:74] Creating layer fconv7_6
I0204 18:59:53.532361 25293 net.cpp:102] Creating Layer fconv7_6
I0204 18:59:53.532368 25293 net.cpp:422] fconv7_6 <- fconv6_bn_drop6_0_split_1
I0204 18:59:53.532379 25293 net.cpp:380] fconv7_6 -> fconv7_6
I0204 18:59:53.532390 25293 net.cpp:132] Setting up fconv7_6
I0204 18:59:53.536389 25293 net.cpp:139] Top shape: 4 128 56 56 (1605632)
I0204 18:59:53.536418 25293 layer_factory.hpp:74] Creating layer Pass_7to6
I0204 18:59:53.536432 25293 net.cpp:102] Creating Layer Pass_7to6
I0204 18:59:53.536437 25293 net.cpp:422] Pass_7to6 <- fconv7_7to6_step2
I0204 18:59:53.536445 25293 net.cpp:422] Pass_7to6 <- fconv7_6
I0204 18:59:53.536458 25293 net.cpp:380] Pass_7to6 -> fconv7_6+
I0204 18:59:53.536471 25293 net.cpp:132] Setting up Pass_7to6
I0204 18:59:53.536484 25293 net.cpp:139] Top shape: 4 128 56 56 (1605632)
I0204 18:59:53.536489 25293 layer_factory.hpp:74] Creating layer relu7_6
I0204 18:59:53.536499 25293 net.cpp:102] Creating Layer relu7_6
I0204 18:59:53.536504 25293 net.cpp:422] relu7_6 <- fconv7_6+
I0204 18:59:53.536509 25293 net.cpp:369] relu7_6 -> fconv7_6+ (in-place)
I0204 18:59:53.536516 25293 net.cpp:132] Setting up relu7_6
I0204 18:59:53.536588 25293 net.cpp:139] Top shape: 4 128 56 56 (1605632)
I0204 18:59:53.536598 25293 layer_factory.hpp:74] Creating layer fconv7_6+_relu7_6_0_split
I0204 18:59:53.536607 25293 net.cpp:102] Creating Layer fconv7_6+_relu7_6_0_split
I0204 18:59:53.536612 25293 net.cpp:422] fconv7_6+_relu7_6_0_split <- fconv7_6+
I0204 18:59:53.536622 25293 net.cpp:380] fconv7_6+_relu7_6_0_split -> fconv7_6+_relu7_6_0_split_0
I0204 18:59:53.536629 25293 net.cpp:380] fconv7_6+_relu7_6_0_split -> fconv7_6+_relu7_6_0_split_1
I0204 18:59:53.536638 25293 net.cpp:132] Setting up fconv7_6+_relu7_6_0_split
I0204 18:59:53.536644 25293 net.cpp:139] Top shape: 4 128 56 56 (1605632)
I0204 18:59:53.536650 25293 net.cpp:139] Top shape: 4 128 56 56 (1605632)
I0204 18:59:53.536656 25293 layer_factory.hpp:74] Creating layer fconv7_6to5_step1
I0204 18:59:53.536669 25293 net.cpp:102] Creating Layer fconv7_6to5_step1
I0204 18:59:53.536674 25293 net.cpp:422] fconv7_6to5_step1 <- fconv7_6+_relu7_6_0_split_0
I0204 18:59:53.536681 25293 net.cpp:380] fconv7_6to5_step1 -> fconv7_6to5_step1
I0204 18:59:53.536690 25293 net.cpp:132] Setting up fconv7_6to5_step1
I0204 18:59:53.555776 25293 net.cpp:139] Top shape: 4 64 56 56 (802816)
I0204 18:59:53.555812 25293 layer_factory.hpp:74] Creating layer relu7_6to5_step1
I0204 18:59:53.555824 25293 net.cpp:102] Creating Layer relu7_6to5_step1
I0204 18:59:53.555833 25293 net.cpp:422] relu7_6to5_step1 <- fconv7_6to5_step1
I0204 18:59:53.555842 25293 net.cpp:369] relu7_6to5_step1 -> fconv7_6to5_step1 (in-place)
I0204 18:59:53.555853 25293 net.cpp:132] Setting up relu7_6to5_step1
I0204 18:59:53.555922 25293 net.cpp:139] Top shape: 4 64 56 56 (802816)
I0204 18:59:53.555932 25293 layer_factory.hpp:74] Creating layer fconv7_6to5_step2
I0204 18:59:53.555943 25293 net.cpp:102] Creating Layer fconv7_6to5_step2
I0204 18:59:53.555948 25293 net.cpp:422] fconv7_6to5_step2 <- fconv7_6to5_step1
I0204 18:59:53.555959 25293 net.cpp:380] fconv7_6to5_step2 -> fconv7_6to5_step2
I0204 18:59:53.555974 25293 net.cpp:132] Setting up fconv7_6to5_step2
I0204 18:59:53.574600 25293 net.cpp:139] Top shape: 4 128 56 56 (1605632)
I0204 18:59:53.574616 25293 layer_factory.hpp:74] Creating layer fconv7_5
I0204 18:59:53.574630 25293 net.cpp:102] Creating Layer fconv7_5
I0204 18:59:53.574637 25293 net.cpp:422] fconv7_5 <- fconv6_bn_drop6_0_split_2
I0204 18:59:53.574647 25293 net.cpp:380] fconv7_5 -> fconv7_5
I0204 18:59:53.574662 25293 net.cpp:132] Setting up fconv7_5
I0204 18:59:53.578639 25293 net.cpp:139] Top shape: 4 128 56 56 (1605632)
I0204 18:59:53.578656 25293 layer_factory.hpp:74] Creating layer Pass_6to5
I0204 18:59:53.578666 25293 net.cpp:102] Creating Layer Pass_6to5
I0204 18:59:53.578672 25293 net.cpp:422] Pass_6to5 <- fconv7_6to5_step2
I0204 18:59:53.578678 25293 net.cpp:422] Pass_6to5 <- fconv7_5
I0204 18:59:53.578686 25293 net.cpp:380] Pass_6to5 -> fconv7_5+
I0204 18:59:53.578694 25293 net.cpp:132] Setting up Pass_6to5
I0204 18:59:53.578702 25293 net.cpp:139] Top shape: 4 128 56 56 (1605632)
I0204 18:59:53.578707 25293 layer_factory.hpp:74] Creating layer relu7_5
I0204 18:59:53.578713 25293 net.cpp:102] Creating Layer relu7_5
I0204 18:59:53.578718 25293 net.cpp:422] relu7_5 <- fconv7_5+
I0204 18:59:53.578727 25293 net.cpp:369] relu7_5 -> fconv7_5+ (in-place)
I0204 18:59:53.578739 25293 net.cpp:132] Setting up relu7_5
I0204 18:59:53.578944 25293 net.cpp:139] Top shape: 4 128 56 56 (1605632)
I0204 18:59:53.578955 25293 layer_factory.hpp:74] Creating layer fconv7_5+_relu7_5_0_split
I0204 18:59:53.578965 25293 net.cpp:102] Creating Layer fconv7_5+_relu7_5_0_split
I0204 18:59:53.578971 25293 net.cpp:422] fconv7_5+_relu7_5_0_split <- fconv7_5+
I0204 18:59:53.578980 25293 net.cpp:380] fconv7_5+_relu7_5_0_split -> fconv7_5+_relu7_5_0_split_0
I0204 18:59:53.578989 25293 net.cpp:380] fconv7_5+_relu7_5_0_split -> fconv7_5+_relu7_5_0_split_1
I0204 18:59:53.578996 25293 net.cpp:132] Setting up fconv7_5+_relu7_5_0_split
I0204 18:59:53.579005 25293 net.cpp:139] Top shape: 4 128 56 56 (1605632)
I0204 18:59:53.579010 25293 net.cpp:139] Top shape: 4 128 56 56 (1605632)
I0204 18:59:53.579016 25293 layer_factory.hpp:74] Creating layer fconv7_5to4_step1
I0204 18:59:53.579025 25293 net.cpp:102] Creating Layer fconv7_5to4_step1
I0204 18:59:53.579035 25293 net.cpp:422] fconv7_5to4_step1 <- fconv7_5+_relu7_5_0_split_0
I0204 18:59:53.579046 25293 net.cpp:380] fconv7_5to4_step1 -> fconv7_5to4_step1
I0204 18:59:53.579054 25293 net.cpp:132] Setting up fconv7_5to4_step1
I0204 18:59:53.597656 25293 net.cpp:139] Top shape: 4 64 56 56 (802816)
I0204 18:59:53.597672 25293 layer_factory.hpp:74] Creating layer relu7_5to4_step1
I0204 18:59:53.597681 25293 net.cpp:102] Creating Layer relu7_5to4_step1
I0204 18:59:53.597687 25293 net.cpp:422] relu7_5to4_step1 <- fconv7_5to4_step1
I0204 18:59:53.597693 25293 net.cpp:369] relu7_5to4_step1 -> fconv7_5to4_step1 (in-place)
I0204 18:59:53.597700 25293 net.cpp:132] Setting up relu7_5to4_step1
I0204 18:59:53.597767 25293 net.cpp:139] Top shape: 4 64 56 56 (802816)
I0204 18:59:53.597777 25293 layer_factory.hpp:74] Creating layer fconv7_5to4_step2
I0204 18:59:53.597790 25293 net.cpp:102] Creating Layer fconv7_5to4_step2
I0204 18:59:53.597795 25293 net.cpp:422] fconv7_5to4_step2 <- fconv7_5to4_step1
I0204 18:59:53.597805 25293 net.cpp:380] fconv7_5to4_step2 -> fconv7_5to4_step2
I0204 18:59:53.597813 25293 net.cpp:132] Setting up fconv7_5to4_step2
I0204 18:59:53.616425 25293 net.cpp:139] Top shape: 4 128 56 56 (1605632)
I0204 18:59:53.616441 25293 layer_factory.hpp:74] Creating layer fconv7_4
I0204 18:59:53.616454 25293 net.cpp:102] Creating Layer fconv7_4
I0204 18:59:53.616461 25293 net.cpp:422] fconv7_4 <- fconv6_bn_drop6_0_split_3
I0204 18:59:53.616469 25293 net.cpp:380] fconv7_4 -> fconv7_4
I0204 18:59:53.616478 25293 net.cpp:132] Setting up fconv7_4
I0204 18:59:53.620460 25293 net.cpp:139] Top shape: 4 128 56 56 (1605632)
I0204 18:59:53.620474 25293 layer_factory.hpp:74] Creating layer Pass_5to4
I0204 18:59:53.620484 25293 net.cpp:102] Creating Layer Pass_5to4
I0204 18:59:53.620491 25293 net.cpp:422] Pass_5to4 <- fconv7_5to4_step2
I0204 18:59:53.620498 25293 net.cpp:422] Pass_5to4 <- fconv7_4
I0204 18:59:53.620507 25293 net.cpp:380] Pass_5to4 -> fconv7_4+
I0204 18:59:53.620515 25293 net.cpp:132] Setting up Pass_5to4
I0204 18:59:53.620523 25293 net.cpp:139] Top shape: 4 128 56 56 (1605632)
I0204 18:59:53.620528 25293 layer_factory.hpp:74] Creating layer relu7_4
I0204 18:59:53.620534 25293 net.cpp:102] Creating Layer relu7_4
I0204 18:59:53.620543 25293 net.cpp:422] relu7_4 <- fconv7_4+
I0204 18:59:53.620550 25293 net.cpp:369] relu7_4 -> fconv7_4+ (in-place)
I0204 18:59:53.620556 25293 net.cpp:132] Setting up relu7_4
I0204 18:59:53.620620 25293 net.cpp:139] Top shape: 4 128 56 56 (1605632)
I0204 18:59:53.620630 25293 layer_factory.hpp:74] Creating layer fconv7_4+_relu7_4_0_split
I0204 18:59:53.620638 25293 net.cpp:102] Creating Layer fconv7_4+_relu7_4_0_split
I0204 18:59:53.620643 25293 net.cpp:422] fconv7_4+_relu7_4_0_split <- fconv7_4+
I0204 18:59:53.620651 25293 net.cpp:380] fconv7_4+_relu7_4_0_split -> fconv7_4+_relu7_4_0_split_0
I0204 18:59:53.620658 25293 net.cpp:380] fconv7_4+_relu7_4_0_split -> fconv7_4+_relu7_4_0_split_1
I0204 18:59:53.620666 25293 net.cpp:132] Setting up fconv7_4+_relu7_4_0_split
I0204 18:59:53.620673 25293 net.cpp:139] Top shape: 4 128 56 56 (1605632)
I0204 18:59:53.620678 25293 net.cpp:139] Top shape: 4 128 56 56 (1605632)
I0204 18:59:53.620684 25293 layer_factory.hpp:74] Creating layer fconv7_4to3_step1
I0204 18:59:53.620695 25293 net.cpp:102] Creating Layer fconv7_4to3_step1
I0204 18:59:53.620704 25293 net.cpp:422] fconv7_4to3_step1 <- fconv7_4+_relu7_4_0_split_0
I0204 18:59:53.620714 25293 net.cpp:380] fconv7_4to3_step1 -> fconv7_4to3_step1
I0204 18:59:53.620723 25293 net.cpp:132] Setting up fconv7_4to3_step1
I0204 18:59:53.639322 25293 net.cpp:139] Top shape: 4 64 56 56 (802816)
I0204 18:59:53.639339 25293 layer_factory.hpp:74] Creating layer relu7_4to3_step1
I0204 18:59:53.639350 25293 net.cpp:102] Creating Layer relu7_4to3_step1
I0204 18:59:53.639361 25293 net.cpp:422] relu7_4to3_step1 <- fconv7_4to3_step1
I0204 18:59:53.639369 25293 net.cpp:369] relu7_4to3_step1 -> fconv7_4to3_step1 (in-place)
I0204 18:59:53.639377 25293 net.cpp:132] Setting up relu7_4to3_step1
I0204 18:59:53.639443 25293 net.cpp:139] Top shape: 4 64 56 56 (802816)
I0204 18:59:53.639452 25293 layer_factory.hpp:74] Creating layer fconv7_4to3_step2
I0204 18:59:53.639464 25293 net.cpp:102] Creating Layer fconv7_4to3_step2
I0204 18:59:53.639469 25293 net.cpp:422] fconv7_4to3_step2 <- fconv7_4to3_step1
I0204 18:59:53.639479 25293 net.cpp:380] fconv7_4to3_step2 -> fconv7_4to3_step2
I0204 18:59:53.639488 25293 net.cpp:132] Setting up fconv7_4to3_step2
I0204 18:59:53.658303 25293 net.cpp:139] Top shape: 4 128 56 56 (1605632)
I0204 18:59:53.658319 25293 layer_factory.hpp:74] Creating layer fconv7_10
I0204 18:59:53.658332 25293 net.cpp:102] Creating Layer fconv7_10
I0204 18:59:53.658339 25293 net.cpp:422] fconv7_10 <- fconv6_bn_drop6_0_split_4
I0204 18:59:53.658351 25293 net.cpp:380] fconv7_10 -> fconv7_10
I0204 18:59:53.658361 25293 net.cpp:132] Setting up fconv7_10
I0204 18:59:53.662336 25293 net.cpp:139] Top shape: 4 128 56 56 (1605632)
I0204 18:59:53.662353 25293 layer_factory.hpp:74] Creating layer relu7_10
I0204 18:59:53.662361 25293 net.cpp:102] Creating Layer relu7_10
I0204 18:59:53.662366 25293 net.cpp:422] relu7_10 <- fconv7_10
I0204 18:59:53.662376 25293 net.cpp:380] relu7_10 -> fconv7_10+
I0204 18:59:53.662384 25293 net.cpp:132] Setting up relu7_10
I0204 18:59:53.662595 25293 net.cpp:139] Top shape: 4 128 56 56 (1605632)
I0204 18:59:53.662607 25293 layer_factory.hpp:74] Creating layer fconv7_10+_relu7_10_0_split
I0204 18:59:53.662617 25293 net.cpp:102] Creating Layer fconv7_10+_relu7_10_0_split
I0204 18:59:53.662623 25293 net.cpp:422] fconv7_10+_relu7_10_0_split <- fconv7_10+
I0204 18:59:53.662631 25293 net.cpp:380] fconv7_10+_relu7_10_0_split -> fconv7_10+_relu7_10_0_split_0
I0204 18:59:53.662641 25293 net.cpp:380] fconv7_10+_relu7_10_0_split -> fconv7_10+_relu7_10_0_split_1
I0204 18:59:53.662647 25293 net.cpp:132] Setting up fconv7_10+_relu7_10_0_split
I0204 18:59:53.662657 25293 net.cpp:139] Top shape: 4 128 56 56 (1605632)
I0204 18:59:53.662662 25293 net.cpp:139] Top shape: 4 128 56 56 (1605632)
I0204 18:59:53.662667 25293 layer_factory.hpp:74] Creating layer fconv7_10to9_step1
I0204 18:59:53.662677 25293 net.cpp:102] Creating Layer fconv7_10to9_step1
I0204 18:59:53.662681 25293 net.cpp:422] fconv7_10to9_step1 <- fconv7_10+_relu7_10_0_split_0
I0204 18:59:53.662690 25293 net.cpp:380] fconv7_10to9_step1 -> fconv7_10to9_step1
I0204 18:59:53.662704 25293 net.cpp:132] Setting up fconv7_10to9_step1
I0204 18:59:53.681296 25293 net.cpp:139] Top shape: 4 64 56 56 (802816)
I0204 18:59:53.681313 25293 layer_factory.hpp:74] Creating layer relu7_10to9_step1
I0204 18:59:53.681335 25293 net.cpp:102] Creating Layer relu7_10to9_step1
I0204 18:59:53.681341 25293 net.cpp:422] relu7_10to9_step1 <- fconv7_10to9_step1
I0204 18:59:53.681354 25293 net.cpp:369] relu7_10to9_step1 -> fconv7_10to9_step1 (in-place)
I0204 18:59:53.681362 25293 net.cpp:132] Setting up relu7_10to9_step1
I0204 18:59:53.681428 25293 net.cpp:139] Top shape: 4 64 56 56 (802816)
I0204 18:59:53.681439 25293 layer_factory.hpp:74] Creating layer fconv7_10to9_step2
I0204 18:59:53.681452 25293 net.cpp:102] Creating Layer fconv7_10to9_step2
I0204 18:59:53.681463 25293 net.cpp:422] fconv7_10to9_step2 <- fconv7_10to9_step1
I0204 18:59:53.681470 25293 net.cpp:380] fconv7_10to9_step2 -> fconv7_10to9_step2
I0204 18:59:53.681479 25293 net.cpp:132] Setting up fconv7_10to9_step2
I0204 18:59:53.700080 25293 net.cpp:139] Top shape: 4 128 56 56 (1605632)
I0204 18:59:53.700096 25293 layer_factory.hpp:74] Creating layer fconv7_9
I0204 18:59:53.700108 25293 net.cpp:102] Creating Layer fconv7_9
I0204 18:59:53.700114 25293 net.cpp:422] fconv7_9 <- fconv6_bn_drop6_0_split_5
I0204 18:59:53.700124 25293 net.cpp:380] fconv7_9 -> fconv7_9
I0204 18:59:53.700134 25293 net.cpp:132] Setting up fconv7_9
I0204 18:59:53.704100 25293 net.cpp:139] Top shape: 4 128 56 56 (1605632)
I0204 18:59:53.704115 25293 layer_factory.hpp:74] Creating layer Pass_10to9
I0204 18:59:53.704126 25293 net.cpp:102] Creating Layer Pass_10to9
I0204 18:59:53.704133 25293 net.cpp:422] Pass_10to9 <- fconv7_10to9_step2
I0204 18:59:53.704139 25293 net.cpp:422] Pass_10to9 <- fconv7_9
I0204 18:59:53.704146 25293 net.cpp:380] Pass_10to9 -> fconv7_9+
I0204 18:59:53.704154 25293 net.cpp:132] Setting up Pass_10to9
I0204 18:59:53.704162 25293 net.cpp:139] Top shape: 4 128 56 56 (1605632)
I0204 18:59:53.704167 25293 layer_factory.hpp:74] Creating layer relu7_9
I0204 18:59:53.704175 25293 net.cpp:102] Creating Layer relu7_9
I0204 18:59:53.704180 25293 net.cpp:422] relu7_9 <- fconv7_9+
I0204 18:59:53.704187 25293 net.cpp:369] relu7_9 -> fconv7_9+ (in-place)
I0204 18:59:53.704195 25293 net.cpp:132] Setting up relu7_9
I0204 18:59:53.704262 25293 net.cpp:139] Top shape: 4 128 56 56 (1605632)
I0204 18:59:53.704272 25293 layer_factory.hpp:74] Creating layer fconv7_9+_relu7_9_0_split
I0204 18:59:53.704282 25293 net.cpp:102] Creating Layer fconv7_9+_relu7_9_0_split
I0204 18:59:53.704287 25293 net.cpp:422] fconv7_9+_relu7_9_0_split <- fconv7_9+
I0204 18:59:53.704293 25293 net.cpp:380] fconv7_9+_relu7_9_0_split -> fconv7_9+_relu7_9_0_split_0
I0204 18:59:53.704303 25293 net.cpp:380] fconv7_9+_relu7_9_0_split -> fconv7_9+_relu7_9_0_split_1
I0204 18:59:53.704309 25293 net.cpp:132] Setting up fconv7_9+_relu7_9_0_split
I0204 18:59:53.704319 25293 net.cpp:139] Top shape: 4 128 56 56 (1605632)
I0204 18:59:53.704324 25293 net.cpp:139] Top shape: 4 128 56 56 (1605632)
I0204 18:59:53.704329 25293 layer_factory.hpp:74] Creating layer fconv7_9to8_step1
I0204 18:59:53.704339 25293 net.cpp:102] Creating Layer fconv7_9to8_step1
I0204 18:59:53.704344 25293 net.cpp:422] fconv7_9to8_step1 <- fconv7_9+_relu7_9_0_split_0
I0204 18:59:53.704352 25293 net.cpp:380] fconv7_9to8_step1 -> fconv7_9to8_step1
I0204 18:59:53.704365 25293 net.cpp:132] Setting up fconv7_9to8_step1
I0204 18:59:53.722997 25293 net.cpp:139] Top shape: 4 64 56 56 (802816)
I0204 18:59:53.723014 25293 layer_factory.hpp:74] Creating layer relu7_9to8_step1
I0204 18:59:53.723026 25293 net.cpp:102] Creating Layer relu7_9to8_step1
I0204 18:59:53.723032 25293 net.cpp:422] relu7_9to8_step1 <- fconv7_9to8_step1
I0204 18:59:53.723039 25293 net.cpp:369] relu7_9to8_step1 -> fconv7_9to8_step1 (in-place)
I0204 18:59:53.723047 25293 net.cpp:132] Setting up relu7_9to8_step1
I0204 18:59:53.723112 25293 net.cpp:139] Top shape: 4 64 56 56 (802816)
I0204 18:59:53.723122 25293 layer_factory.hpp:74] Creating layer fconv7_9to8_step2
I0204 18:59:53.723134 25293 net.cpp:102] Creating Layer fconv7_9to8_step2
I0204 18:59:53.723140 25293 net.cpp:422] fconv7_9to8_step2 <- fconv7_9to8_step1
I0204 18:59:53.723150 25293 net.cpp:380] fconv7_9to8_step2 -> fconv7_9to8_step2
I0204 18:59:53.723158 25293 net.cpp:132] Setting up fconv7_9to8_step2
I0204 18:59:53.741747 25293 net.cpp:139] Top shape: 4 128 56 56 (1605632)
I0204 18:59:53.741763 25293 layer_factory.hpp:74] Creating layer fconv7_8
I0204 18:59:53.741775 25293 net.cpp:102] Creating Layer fconv7_8
I0204 18:59:53.741781 25293 net.cpp:422] fconv7_8 <- fconv6_bn_drop6_0_split_6
I0204 18:59:53.741791 25293 net.cpp:380] fconv7_8 -> fconv7_8
I0204 18:59:53.741803 25293 net.cpp:132] Setting up fconv7_8
I0204 18:59:53.745770 25293 net.cpp:139] Top shape: 4 128 56 56 (1605632)
I0204 18:59:53.745785 25293 layer_factory.hpp:74] Creating layer Pass_9to8
I0204 18:59:53.745795 25293 net.cpp:102] Creating Layer Pass_9to8
I0204 18:59:53.745801 25293 net.cpp:422] Pass_9to8 <- fconv7_9to8_step2
I0204 18:59:53.745808 25293 net.cpp:422] Pass_9to8 <- fconv7_8
I0204 18:59:53.745817 25293 net.cpp:380] Pass_9to8 -> fconv7_8+
I0204 18:59:53.745826 25293 net.cpp:132] Setting up Pass_9to8
I0204 18:59:53.745834 25293 net.cpp:139] Top shape: 4 128 56 56 (1605632)
I0204 18:59:53.745839 25293 layer_factory.hpp:74] Creating layer relu7_8
I0204 18:59:53.745846 25293 net.cpp:102] Creating Layer relu7_8
I0204 18:59:53.745851 25293 net.cpp:422] relu7_8 <- fconv7_8+
I0204 18:59:53.745857 25293 net.cpp:369] relu7_8 -> fconv7_8+ (in-place)
I0204 18:59:53.745863 25293 net.cpp:132] Setting up relu7_8
I0204 18:59:53.746071 25293 net.cpp:139] Top shape: 4 128 56 56 (1605632)
I0204 18:59:53.746083 25293 layer_factory.hpp:74] Creating layer fconv7_8+_relu7_8_0_split
I0204 18:59:53.746090 25293 net.cpp:102] Creating Layer fconv7_8+_relu7_8_0_split
I0204 18:59:53.746096 25293 net.cpp:422] fconv7_8+_relu7_8_0_split <- fconv7_8+
I0204 18:59:53.746104 25293 net.cpp:380] fconv7_8+_relu7_8_0_split -> fconv7_8+_relu7_8_0_split_0
I0204 18:59:53.746114 25293 net.cpp:380] fconv7_8+_relu7_8_0_split -> fconv7_8+_relu7_8_0_split_1
I0204 18:59:53.746121 25293 net.cpp:132] Setting up fconv7_8+_relu7_8_0_split
I0204 18:59:53.746129 25293 net.cpp:139] Top shape: 4 128 56 56 (1605632)
I0204 18:59:53.746134 25293 net.cpp:139] Top shape: 4 128 56 56 (1605632)
I0204 18:59:53.746140 25293 layer_factory.hpp:74] Creating layer fconv7_8to3_step1
I0204 18:59:53.746150 25293 net.cpp:102] Creating Layer fconv7_8to3_step1
I0204 18:59:53.746160 25293 net.cpp:422] fconv7_8to3_step1 <- fconv7_8+_relu7_8_0_split_0
I0204 18:59:53.746168 25293 net.cpp:380] fconv7_8to3_step1 -> fconv7_8to3_step1
I0204 18:59:53.746177 25293 net.cpp:132] Setting up fconv7_8to3_step1
I0204 18:59:53.764765 25293 net.cpp:139] Top shape: 4 64 56 56 (802816)
I0204 18:59:53.764803 25293 layer_factory.hpp:74] Creating layer relu7_8to3_step1
I0204 18:59:53.764814 25293 net.cpp:102] Creating Layer relu7_8to3_step1
I0204 18:59:53.764821 25293 net.cpp:422] relu7_8to3_step1 <- fconv7_8to3_step1
I0204 18:59:53.764827 25293 net.cpp:369] relu7_8to3_step1 -> fconv7_8to3_step1 (in-place)
I0204 18:59:53.764835 25293 net.cpp:132] Setting up relu7_8to3_step1
I0204 18:59:53.764899 25293 net.cpp:139] Top shape: 4 64 56 56 (802816)
I0204 18:59:53.764909 25293 layer_factory.hpp:74] Creating layer fconv7_8to3_step2
I0204 18:59:53.764920 25293 net.cpp:102] Creating Layer fconv7_8to3_step2
I0204 18:59:53.764926 25293 net.cpp:422] fconv7_8to3_step2 <- fconv7_8to3_step1
I0204 18:59:53.764936 25293 net.cpp:380] fconv7_8to3_step2 -> fconv7_8to3_step2
I0204 18:59:53.764945 25293 net.cpp:132] Setting up fconv7_8to3_step2
I0204 18:59:53.783547 25293 net.cpp:139] Top shape: 4 128 56 56 (1605632)
I0204 18:59:53.783563 25293 layer_factory.hpp:74] Creating layer fconv7_3
I0204 18:59:53.783576 25293 net.cpp:102] Creating Layer fconv7_3
I0204 18:59:53.783582 25293 net.cpp:422] fconv7_3 <- fconv6_bn_drop6_0_split_7
I0204 18:59:53.783594 25293 net.cpp:380] fconv7_3 -> fconv7_3
I0204 18:59:53.783603 25293 net.cpp:132] Setting up fconv7_3
I0204 18:59:53.787575 25293 net.cpp:139] Top shape: 4 128 56 56 (1605632)
I0204 18:59:53.787590 25293 layer_factory.hpp:74] Creating layer Pass_48to3
I0204 18:59:53.787598 25293 net.cpp:102] Creating Layer Pass_48to3
I0204 18:59:53.787603 25293 net.cpp:422] Pass_48to3 <- fconv7_8to3_step2
I0204 18:59:53.787611 25293 net.cpp:422] Pass_48to3 <- fconv7_4to3_step2
I0204 18:59:53.787617 25293 net.cpp:422] Pass_48to3 <- fconv7_3
I0204 18:59:53.787626 25293 net.cpp:380] Pass_48to3 -> fconv7_3+
I0204 18:59:53.787634 25293 net.cpp:132] Setting up Pass_48to3
I0204 18:59:53.787643 25293 net.cpp:139] Top shape: 4 128 56 56 (1605632)
I0204 18:59:53.787648 25293 layer_factory.hpp:74] Creating layer relu7_3
I0204 18:59:53.787657 25293 net.cpp:102] Creating Layer relu7_3
I0204 18:59:53.787662 25293 net.cpp:422] relu7_3 <- fconv7_3+
I0204 18:59:53.787670 25293 net.cpp:369] relu7_3 -> fconv7_3+ (in-place)
I0204 18:59:53.787678 25293 net.cpp:132] Setting up relu7_3
I0204 18:59:53.787744 25293 net.cpp:139] Top shape: 4 128 56 56 (1605632)
I0204 18:59:53.787753 25293 layer_factory.hpp:74] Creating layer fconv7_3+_relu7_3_0_split
I0204 18:59:53.787761 25293 net.cpp:102] Creating Layer fconv7_3+_relu7_3_0_split
I0204 18:59:53.787766 25293 net.cpp:422] fconv7_3+_relu7_3_0_split <- fconv7_3+
I0204 18:59:53.787775 25293 net.cpp:380] fconv7_3+_relu7_3_0_split -> fconv7_3+_relu7_3_0_split_0
I0204 18:59:53.787783 25293 net.cpp:380] fconv7_3+_relu7_3_0_split -> fconv7_3+_relu7_3_0_split_1
I0204 18:59:53.787791 25293 net.cpp:132] Setting up fconv7_3+_relu7_3_0_split
I0204 18:59:53.787798 25293 net.cpp:139] Top shape: 4 128 56 56 (1605632)
I0204 18:59:53.787803 25293 net.cpp:139] Top shape: 4 128 56 56 (1605632)
I0204 18:59:53.787808 25293 layer_factory.hpp:74] Creating layer fconv7_3to2_step1
I0204 18:59:53.787819 25293 net.cpp:102] Creating Layer fconv7_3to2_step1
I0204 18:59:53.787827 25293 net.cpp:422] fconv7_3to2_step1 <- fconv7_3+_relu7_3_0_split_0
I0204 18:59:53.787837 25293 net.cpp:380] fconv7_3to2_step1 -> fconv7_3to2_step1
I0204 18:59:53.787845 25293 net.cpp:132] Setting up fconv7_3to2_step1
I0204 18:59:53.806459 25293 net.cpp:139] Top shape: 4 64 56 56 (802816)
I0204 18:59:53.806478 25293 layer_factory.hpp:74] Creating layer relu7_3to2_step1
I0204 18:59:53.806485 25293 net.cpp:102] Creating Layer relu7_3to2_step1
I0204 18:59:53.806490 25293 net.cpp:422] relu7_3to2_step1 <- fconv7_3to2_step1
I0204 18:59:53.806499 25293 net.cpp:369] relu7_3to2_step1 -> fconv7_3to2_step1 (in-place)
I0204 18:59:53.806505 25293 net.cpp:132] Setting up relu7_3to2_step1
I0204 18:59:53.806574 25293 net.cpp:139] Top shape: 4 64 56 56 (802816)
I0204 18:59:53.806584 25293 layer_factory.hpp:74] Creating layer fconv7_3to2_step2
I0204 18:59:53.806598 25293 net.cpp:102] Creating Layer fconv7_3to2_step2
I0204 18:59:53.806608 25293 net.cpp:422] fconv7_3to2_step2 <- fconv7_3to2_step1
I0204 18:59:53.806617 25293 net.cpp:380] fconv7_3to2_step2 -> fconv7_3to2_step2
I0204 18:59:53.806625 25293 net.cpp:132] Setting up fconv7_3to2_step2
I0204 18:59:53.825244 25293 net.cpp:139] Top shape: 4 128 56 56 (1605632)
I0204 18:59:53.825261 25293 layer_factory.hpp:74] Creating layer fconv7_15
I0204 18:59:53.825274 25293 net.cpp:102] Creating Layer fconv7_15
I0204 18:59:53.825279 25293 net.cpp:422] fconv7_15 <- fconv6_bn_drop6_0_split_8
I0204 18:59:53.825289 25293 net.cpp:380] fconv7_15 -> fconv7_15
I0204 18:59:53.825297 25293 net.cpp:132] Setting up fconv7_15
I0204 18:59:53.829264 25293 net.cpp:139] Top shape: 4 128 56 56 (1605632)
I0204 18:59:53.829280 25293 layer_factory.hpp:74] Creating layer relu7_15
I0204 18:59:53.829290 25293 net.cpp:102] Creating Layer relu7_15
I0204 18:59:53.829296 25293 net.cpp:422] relu7_15 <- fconv7_15
I0204 18:59:53.829303 25293 net.cpp:380] relu7_15 -> fconv7_15+
I0204 18:59:53.829311 25293 net.cpp:132] Setting up relu7_15
I0204 18:59:53.829516 25293 net.cpp:139] Top shape: 4 128 56 56 (1605632)
I0204 18:59:53.829529 25293 layer_factory.hpp:74] Creating layer fconv7_15+_relu7_15_0_split
I0204 18:59:53.829535 25293 net.cpp:102] Creating Layer fconv7_15+_relu7_15_0_split
I0204 18:59:53.829545 25293 net.cpp:422] fconv7_15+_relu7_15_0_split <- fconv7_15+
I0204 18:59:53.829552 25293 net.cpp:380] fconv7_15+_relu7_15_0_split -> fconv7_15+_relu7_15_0_split_0
I0204 18:59:53.829562 25293 net.cpp:380] fconv7_15+_relu7_15_0_split -> fconv7_15+_relu7_15_0_split_1
I0204 18:59:53.829569 25293 net.cpp:132] Setting up fconv7_15+_relu7_15_0_split
I0204 18:59:53.829576 25293 net.cpp:139] Top shape: 4 128 56 56 (1605632)
I0204 18:59:53.829582 25293 net.cpp:139] Top shape: 4 128 56 56 (1605632)
I0204 18:59:53.829586 25293 layer_factory.hpp:74] Creating layer fconv7_15to14_step1
I0204 18:59:53.829599 25293 net.cpp:102] Creating Layer fconv7_15to14_step1
I0204 18:59:53.829605 25293 net.cpp:422] fconv7_15to14_step1 <- fconv7_15+_relu7_15_0_split_0
I0204 18:59:53.829618 25293 net.cpp:380] fconv7_15to14_step1 -> fconv7_15to14_step1
I0204 18:59:53.829628 25293 net.cpp:132] Setting up fconv7_15to14_step1
I0204 18:59:53.848240 25293 net.cpp:139] Top shape: 4 64 56 56 (802816)
I0204 18:59:53.848258 25293 layer_factory.hpp:74] Creating layer relu7_15to14_step1
I0204 18:59:53.848266 25293 net.cpp:102] Creating Layer relu7_15to14_step1
I0204 18:59:53.848271 25293 net.cpp:422] relu7_15to14_step1 <- fconv7_15to14_step1
I0204 18:59:53.848281 25293 net.cpp:369] relu7_15to14_step1 -> fconv7_15to14_step1 (in-place)
I0204 18:59:53.848289 25293 net.cpp:132] Setting up relu7_15to14_step1
I0204 18:59:53.848356 25293 net.cpp:139] Top shape: 4 64 56 56 (802816)
I0204 18:59:53.848366 25293 layer_factory.hpp:74] Creating layer fconv7_15to14_step2
I0204 18:59:53.848376 25293 net.cpp:102] Creating Layer fconv7_15to14_step2
I0204 18:59:53.848381 25293 net.cpp:422] fconv7_15to14_step2 <- fconv7_15to14_step1
I0204 18:59:53.848392 25293 net.cpp:380] fconv7_15to14_step2 -> fconv7_15to14_step2
I0204 18:59:53.848402 25293 net.cpp:132] Setting up fconv7_15to14_step2
I0204 18:59:53.867017 25293 net.cpp:139] Top shape: 4 128 56 56 (1605632)
I0204 18:59:53.867033 25293 layer_factory.hpp:74] Creating layer fconv7_14
I0204 18:59:53.867046 25293 net.cpp:102] Creating Layer fconv7_14
I0204 18:59:53.867053 25293 net.cpp:422] fconv7_14 <- fconv6_bn_drop6_0_split_9
I0204 18:59:53.867063 25293 net.cpp:380] fconv7_14 -> fconv7_14
I0204 18:59:53.867072 25293 net.cpp:132] Setting up fconv7_14
I0204 18:59:53.871044 25293 net.cpp:139] Top shape: 4 128 56 56 (1605632)
I0204 18:59:53.871060 25293 layer_factory.hpp:74] Creating layer Pass_15to14
I0204 18:59:53.871069 25293 net.cpp:102] Creating Layer Pass_15to14
I0204 18:59:53.871075 25293 net.cpp:422] Pass_15to14 <- fconv7_15to14_step2
I0204 18:59:53.871083 25293 net.cpp:422] Pass_15to14 <- fconv7_14
I0204 18:59:53.871093 25293 net.cpp:380] Pass_15to14 -> fconv7_14+
I0204 18:59:53.871100 25293 net.cpp:132] Setting up Pass_15to14
I0204 18:59:53.871109 25293 net.cpp:139] Top shape: 4 128 56 56 (1605632)
I0204 18:59:53.871114 25293 layer_factory.hpp:74] Creating layer relu7_14
I0204 18:59:53.871121 25293 net.cpp:102] Creating Layer relu7_14
I0204 18:59:53.871126 25293 net.cpp:422] relu7_14 <- fconv7_14+
I0204 18:59:53.871135 25293 net.cpp:369] relu7_14 -> fconv7_14+ (in-place)
I0204 18:59:53.871141 25293 net.cpp:132] Setting up relu7_14
I0204 18:59:53.871208 25293 net.cpp:139] Top shape: 4 128 56 56 (1605632)
I0204 18:59:53.871218 25293 layer_factory.hpp:74] Creating layer fconv7_14+_relu7_14_0_split
I0204 18:59:53.871227 25293 net.cpp:102] Creating Layer fconv7_14+_relu7_14_0_split
I0204 18:59:53.871232 25293 net.cpp:422] fconv7_14+_relu7_14_0_split <- fconv7_14+
I0204 18:59:53.871242 25293 net.cpp:380] fconv7_14+_relu7_14_0_split -> fconv7_14+_relu7_14_0_split_0
I0204 18:59:53.871250 25293 net.cpp:380] fconv7_14+_relu7_14_0_split -> fconv7_14+_relu7_14_0_split_1
I0204 18:59:53.871261 25293 net.cpp:132] Setting up fconv7_14+_relu7_14_0_split
I0204 18:59:53.871269 25293 net.cpp:139] Top shape: 4 128 56 56 (1605632)
I0204 18:59:53.871275 25293 net.cpp:139] Top shape: 4 128 56 56 (1605632)
I0204 18:59:53.871279 25293 layer_factory.hpp:74] Creating layer fconv7_14to13_step1
I0204 18:59:53.871291 25293 net.cpp:102] Creating Layer fconv7_14to13_step1
I0204 18:59:53.871299 25293 net.cpp:422] fconv7_14to13_step1 <- fconv7_14+_relu7_14_0_split_0
I0204 18:59:53.871307 25293 net.cpp:380] fconv7_14to13_step1 -> fconv7_14to13_step1
I0204 18:59:53.871315 25293 net.cpp:132] Setting up fconv7_14to13_step1
I0204 18:59:53.889911 25293 net.cpp:139] Top shape: 4 64 56 56 (802816)
I0204 18:59:53.889926 25293 layer_factory.hpp:74] Creating layer relu7_14to13_step1
I0204 18:59:53.889935 25293 net.cpp:102] Creating Layer relu7_14to13_step1
I0204 18:59:53.889940 25293 net.cpp:422] relu7_14to13_step1 <- fconv7_14to13_step1
I0204 18:59:53.889950 25293 net.cpp:369] relu7_14to13_step1 -> fconv7_14to13_step1 (in-place)
I0204 18:59:53.889958 25293 net.cpp:132] Setting up relu7_14to13_step1
I0204 18:59:53.890163 25293 net.cpp:139] Top shape: 4 64 56 56 (802816)
I0204 18:59:53.890177 25293 layer_factory.hpp:74] Creating layer fconv7_14to13_step2
I0204 18:59:53.890187 25293 net.cpp:102] Creating Layer fconv7_14to13_step2
I0204 18:59:53.890192 25293 net.cpp:422] fconv7_14to13_step2 <- fconv7_14to13_step1
I0204 18:59:53.890203 25293 net.cpp:380] fconv7_14to13_step2 -> fconv7_14to13_step2
I0204 18:59:53.890215 25293 net.cpp:132] Setting up fconv7_14to13_step2
I0204 18:59:53.908823 25293 net.cpp:139] Top shape: 4 128 56 56 (1605632)
I0204 18:59:53.908838 25293 layer_factory.hpp:74] Creating layer fconv7_13
I0204 18:59:53.908850 25293 net.cpp:102] Creating Layer fconv7_13
I0204 18:59:53.908857 25293 net.cpp:422] fconv7_13 <- fconv6_bn_drop6_0_split_10
I0204 18:59:53.908870 25293 net.cpp:380] fconv7_13 -> fconv7_13
I0204 18:59:53.908880 25293 net.cpp:132] Setting up fconv7_13
I0204 18:59:53.912850 25293 net.cpp:139] Top shape: 4 128 56 56 (1605632)
I0204 18:59:53.912866 25293 layer_factory.hpp:74] Creating layer Pass_14to13
I0204 18:59:53.912878 25293 net.cpp:102] Creating Layer Pass_14to13
I0204 18:59:53.912884 25293 net.cpp:422] Pass_14to13 <- fconv7_14to13_step2
I0204 18:59:53.912891 25293 net.cpp:422] Pass_14to13 <- fconv7_13
I0204 18:59:53.912899 25293 net.cpp:380] Pass_14to13 -> fconv7_13+
I0204 18:59:53.912906 25293 net.cpp:132] Setting up Pass_14to13
I0204 18:59:53.912914 25293 net.cpp:139] Top shape: 4 128 56 56 (1605632)
I0204 18:59:53.912919 25293 layer_factory.hpp:74] Creating layer relu7_13
I0204 18:59:53.912925 25293 net.cpp:102] Creating Layer relu7_13
I0204 18:59:53.912930 25293 net.cpp:422] relu7_13 <- fconv7_13+
I0204 18:59:53.912940 25293 net.cpp:369] relu7_13 -> fconv7_13+ (in-place)
I0204 18:59:53.912946 25293 net.cpp:132] Setting up relu7_13
I0204 18:59:53.913012 25293 net.cpp:139] Top shape: 4 128 56 56 (1605632)
I0204 18:59:53.913023 25293 layer_factory.hpp:74] Creating layer fconv7_13+_relu7_13_0_split
I0204 18:59:53.913030 25293 net.cpp:102] Creating Layer fconv7_13+_relu7_13_0_split
I0204 18:59:53.913035 25293 net.cpp:422] fconv7_13+_relu7_13_0_split <- fconv7_13+
I0204 18:59:53.913044 25293 net.cpp:380] fconv7_13+_relu7_13_0_split -> fconv7_13+_relu7_13_0_split_0
I0204 18:59:53.913053 25293 net.cpp:380] fconv7_13+_relu7_13_0_split -> fconv7_13+_relu7_13_0_split_1
I0204 18:59:53.913061 25293 net.cpp:132] Setting up fconv7_13+_relu7_13_0_split
I0204 18:59:53.913069 25293 net.cpp:139] Top shape: 4 128 56 56 (1605632)
I0204 18:59:53.913074 25293 net.cpp:139] Top shape: 4 128 56 56 (1605632)
I0204 18:59:53.913079 25293 layer_factory.hpp:74] Creating layer fconv7_13to12_step1
I0204 18:59:53.913090 25293 net.cpp:102] Creating Layer fconv7_13to12_step1
I0204 18:59:53.913100 25293 net.cpp:422] fconv7_13to12_step1 <- fconv7_13+_relu7_13_0_split_0
I0204 18:59:53.913107 25293 net.cpp:380] fconv7_13to12_step1 -> fconv7_13to12_step1
I0204 18:59:53.913115 25293 net.cpp:132] Setting up fconv7_13to12_step1
I0204 18:59:53.931756 25293 net.cpp:139] Top shape: 4 64 56 56 (802816)
I0204 18:59:53.931773 25293 layer_factory.hpp:74] Creating layer relu7_13to12_step1
I0204 18:59:53.931782 25293 net.cpp:102] Creating Layer relu7_13to12_step1
I0204 18:59:53.931787 25293 net.cpp:422] relu7_13to12_step1 <- fconv7_13to12_step1
I0204 18:59:53.931797 25293 net.cpp:369] relu7_13to12_step1 -> fconv7_13to12_step1 (in-place)
I0204 18:59:53.931804 25293 net.cpp:132] Setting up relu7_13to12_step1
I0204 18:59:53.931869 25293 net.cpp:139] Top shape: 4 64 56 56 (802816)
I0204 18:59:53.931879 25293 layer_factory.hpp:74] Creating layer fconv7_13to12_step2
I0204 18:59:53.931891 25293 net.cpp:102] Creating Layer fconv7_13to12_step2
I0204 18:59:53.931897 25293 net.cpp:422] fconv7_13to12_step2 <- fconv7_13to12_step1
I0204 18:59:53.931907 25293 net.cpp:380] fconv7_13to12_step2 -> fconv7_13to12_step2
I0204 18:59:53.931915 25293 net.cpp:132] Setting up fconv7_13to12_step2
I0204 18:59:53.950601 25293 net.cpp:139] Top shape: 4 128 56 56 (1605632)
I0204 18:59:53.950618 25293 layer_factory.hpp:74] Creating layer fconv7_12
I0204 18:59:53.950633 25293 net.cpp:102] Creating Layer fconv7_12
I0204 18:59:53.950639 25293 net.cpp:422] fconv7_12 <- fconv6_bn_drop6_0_split_11
I0204 18:59:53.950649 25293 net.cpp:380] fconv7_12 -> fconv7_12
I0204 18:59:53.950659 25293 net.cpp:132] Setting up fconv7_12
I0204 18:59:53.954690 25293 net.cpp:139] Top shape: 4 128 56 56 (1605632)
I0204 18:59:53.954706 25293 layer_factory.hpp:74] Creating layer Pass_13to12
I0204 18:59:53.954715 25293 net.cpp:102] Creating Layer Pass_13to12
I0204 18:59:53.954720 25293 net.cpp:422] Pass_13to12 <- fconv7_13to12_step2
I0204 18:59:53.954727 25293 net.cpp:422] Pass_13to12 <- fconv7_12
I0204 18:59:53.954736 25293 net.cpp:380] Pass_13to12 -> fconv7_12+
I0204 18:59:53.954746 25293 net.cpp:132] Setting up Pass_13to12
I0204 18:59:53.954753 25293 net.cpp:139] Top shape: 4 128 56 56 (1605632)
I0204 18:59:53.954766 25293 layer_factory.hpp:74] Creating layer relu7_12
I0204 18:59:53.954772 25293 net.cpp:102] Creating Layer relu7_12
I0204 18:59:53.954777 25293 net.cpp:422] relu7_12 <- fconv7_12+
I0204 18:59:53.954785 25293 net.cpp:369] relu7_12 -> fconv7_12+ (in-place)
I0204 18:59:53.954792 25293 net.cpp:132] Setting up relu7_12
I0204 18:59:53.954855 25293 net.cpp:139] Top shape: 4 128 56 56 (1605632)
I0204 18:59:53.954867 25293 layer_factory.hpp:74] Creating layer fconv7_12+_relu7_12_0_split
I0204 18:59:53.954877 25293 net.cpp:102] Creating Layer fconv7_12+_relu7_12_0_split
I0204 18:59:53.954882 25293 net.cpp:422] fconv7_12+_relu7_12_0_split <- fconv7_12+
I0204 18:59:53.954892 25293 net.cpp:380] fconv7_12+_relu7_12_0_split -> fconv7_12+_relu7_12_0_split_0
I0204 18:59:53.954905 25293 net.cpp:380] fconv7_12+_relu7_12_0_split -> fconv7_12+_relu7_12_0_split_1
I0204 18:59:53.954932 25293 net.cpp:132] Setting up fconv7_12+_relu7_12_0_split
I0204 18:59:53.954942 25293 net.cpp:139] Top shape: 4 128 56 56 (1605632)
I0204 18:59:53.954951 25293 net.cpp:139] Top shape: 4 128 56 56 (1605632)
I0204 18:59:53.954955 25293 layer_factory.hpp:74] Creating layer fconv7_12to11_step1
I0204 18:59:53.954965 25293 net.cpp:102] Creating Layer fconv7_12to11_step1
I0204 18:59:53.954975 25293 net.cpp:422] fconv7_12to11_step1 <- fconv7_12+_relu7_12_0_split_0
I0204 18:59:53.954987 25293 net.cpp:380] fconv7_12to11_step1 -> fconv7_12to11_step1
I0204 18:59:53.954995 25293 net.cpp:132] Setting up fconv7_12to11_step1
I0204 18:59:53.973661 25293 net.cpp:139] Top shape: 4 64 56 56 (802816)
I0204 18:59:53.973680 25293 layer_factory.hpp:74] Creating layer relu7_12to11_step1
I0204 18:59:53.973690 25293 net.cpp:102] Creating Layer relu7_12to11_step1
I0204 18:59:53.973696 25293 net.cpp:422] relu7_12to11_step1 <- fconv7_12to11_step1
I0204 18:59:53.973705 25293 net.cpp:369] relu7_12to11_step1 -> fconv7_12to11_step1 (in-place)
I0204 18:59:53.973711 25293 net.cpp:132] Setting up relu7_12to11_step1
I0204 18:59:53.973932 25293 net.cpp:139] Top shape: 4 64 56 56 (802816)
I0204 18:59:53.973943 25293 layer_factory.hpp:74] Creating layer fconv7_12to11_step2
I0204 18:59:53.973956 25293 net.cpp:102] Creating Layer fconv7_12to11_step2
I0204 18:59:53.973965 25293 net.cpp:422] fconv7_12to11_step2 <- fconv7_12to11_step1
I0204 18:59:53.973974 25293 net.cpp:380] fconv7_12to11_step2 -> fconv7_12to11_step2
I0204 18:59:53.973989 25293 net.cpp:132] Setting up fconv7_12to11_step2
I0204 18:59:53.992707 25293 net.cpp:139] Top shape: 4 128 56 56 (1605632)
I0204 18:59:53.992723 25293 layer_factory.hpp:74] Creating layer fconv7_18
I0204 18:59:53.992738 25293 net.cpp:102] Creating Layer fconv7_18
I0204 18:59:53.992743 25293 net.cpp:422] fconv7_18 <- fconv6_bn_drop6_0_split_12
I0204 18:59:53.992753 25293 net.cpp:380] fconv7_18 -> fconv7_18+
I0204 18:59:53.992764 25293 net.cpp:132] Setting up fconv7_18
I0204 18:59:53.998636 25293 net.cpp:139] Top shape: 4 128 56 56 (1605632)
I0204 18:59:53.998656 25293 layer_factory.hpp:74] Creating layer relu7_18
I0204 18:59:53.998667 25293 net.cpp:102] Creating Layer relu7_18
I0204 18:59:53.998672 25293 net.cpp:422] relu7_18 <- fconv7_18+
I0204 18:59:53.998679 25293 net.cpp:369] relu7_18 -> fconv7_18+ (in-place)
I0204 18:59:53.998687 25293 net.cpp:132] Setting up relu7_18
I0204 18:59:53.998757 25293 net.cpp:139] Top shape: 4 128 56 56 (1605632)
I0204 18:59:53.998766 25293 layer_factory.hpp:74] Creating layer fconv7_18+_relu7_18_0_split
I0204 18:59:53.998776 25293 net.cpp:102] Creating Layer fconv7_18+_relu7_18_0_split
I0204 18:59:53.998781 25293 net.cpp:422] fconv7_18+_relu7_18_0_split <- fconv7_18+
I0204 18:59:53.998788 25293 net.cpp:380] fconv7_18+_relu7_18_0_split -> fconv7_18+_relu7_18_0_split_0
I0204 18:59:53.998798 25293 net.cpp:380] fconv7_18+_relu7_18_0_split -> fconv7_18+_relu7_18_0_split_1
I0204 18:59:53.998805 25293 net.cpp:132] Setting up fconv7_18+_relu7_18_0_split
I0204 18:59:53.998813 25293 net.cpp:139] Top shape: 4 128 56 56 (1605632)
I0204 18:59:53.998818 25293 net.cpp:139] Top shape: 4 128 56 56 (1605632)
I0204 18:59:53.998823 25293 layer_factory.hpp:74] Creating layer fconv7_18to17_step1
I0204 18:59:53.998834 25293 net.cpp:102] Creating Layer fconv7_18to17_step1
I0204 18:59:53.998844 25293 net.cpp:422] fconv7_18to17_step1 <- fconv7_18+_relu7_18_0_split_0
I0204 18:59:53.998854 25293 net.cpp:380] fconv7_18to17_step1 -> fconv7_18to17_step1
I0204 18:59:53.998863 25293 net.cpp:132] Setting up fconv7_18to17_step1
I0204 18:59:54.017546 25293 net.cpp:139] Top shape: 4 64 56 56 (802816)
I0204 18:59:54.017565 25293 layer_factory.hpp:74] Creating layer relu7_18to17_step1
I0204 18:59:54.017573 25293 net.cpp:102] Creating Layer relu7_18to17_step1
I0204 18:59:54.017580 25293 net.cpp:422] relu7_18to17_step1 <- fconv7_18to17_step1
I0204 18:59:54.017590 25293 net.cpp:369] relu7_18to17_step1 -> fconv7_18to17_step1 (in-place)
I0204 18:59:54.017597 25293 net.cpp:132] Setting up relu7_18to17_step1
I0204 18:59:54.017664 25293 net.cpp:139] Top shape: 4 64 56 56 (802816)
I0204 18:59:54.017673 25293 layer_factory.hpp:74] Creating layer fconv7_18to17_step2
I0204 18:59:54.017686 25293 net.cpp:102] Creating Layer fconv7_18to17_step2
I0204 18:59:54.017691 25293 net.cpp:422] fconv7_18to17_step2 <- fconv7_18to17_step1
I0204 18:59:54.017700 25293 net.cpp:380] fconv7_18to17_step2 -> fconv7_18to17_step2
I0204 18:59:54.017709 25293 net.cpp:132] Setting up fconv7_18to17_step2
I0204 18:59:54.036391 25293 net.cpp:139] Top shape: 4 128 56 56 (1605632)
I0204 18:59:54.036411 25293 layer_factory.hpp:74] Creating layer fconv7_17
I0204 18:59:54.036422 25293 net.cpp:102] Creating Layer fconv7_17
I0204 18:59:54.036427 25293 net.cpp:422] fconv7_17 <- fconv6_bn_drop6_0_split_13
I0204 18:59:54.036437 25293 net.cpp:380] fconv7_17 -> fconv7_17
I0204 18:59:54.036448 25293 net.cpp:132] Setting up fconv7_17
I0204 18:59:54.040472 25293 net.cpp:139] Top shape: 4 128 56 56 (1605632)
I0204 18:59:54.040488 25293 layer_factory.hpp:74] Creating layer Pass_18to17
I0204 18:59:54.040498 25293 net.cpp:102] Creating Layer Pass_18to17
I0204 18:59:54.040504 25293 net.cpp:422] Pass_18to17 <- fconv7_18to17_step2
I0204 18:59:54.040511 25293 net.cpp:422] Pass_18to17 <- fconv7_17
I0204 18:59:54.040518 25293 net.cpp:380] Pass_18to17 -> fconv7_17+
I0204 18:59:54.040526 25293 net.cpp:132] Setting up Pass_18to17
I0204 18:59:54.040546 25293 net.cpp:139] Top shape: 4 128 56 56 (1605632)
I0204 18:59:54.040554 25293 layer_factory.hpp:74] Creating layer relu7_17
I0204 18:59:54.040562 25293 net.cpp:102] Creating Layer relu7_17
I0204 18:59:54.040575 25293 net.cpp:422] relu7_17 <- fconv7_17+
I0204 18:59:54.040581 25293 net.cpp:369] relu7_17 -> fconv7_17+ (in-place)
I0204 18:59:54.040588 25293 net.cpp:132] Setting up relu7_17
I0204 18:59:54.040654 25293 net.cpp:139] Top shape: 4 128 56 56 (1605632)
I0204 18:59:54.040663 25293 layer_factory.hpp:74] Creating layer fconv7_17+_relu7_17_0_split
I0204 18:59:54.040673 25293 net.cpp:102] Creating Layer fconv7_17+_relu7_17_0_split
I0204 18:59:54.040678 25293 net.cpp:422] fconv7_17+_relu7_17_0_split <- fconv7_17+
I0204 18:59:54.040685 25293 net.cpp:380] fconv7_17+_relu7_17_0_split -> fconv7_17+_relu7_17_0_split_0
I0204 18:59:54.040693 25293 net.cpp:380] fconv7_17+_relu7_17_0_split -> fconv7_17+_relu7_17_0_split_1
I0204 18:59:54.040705 25293 net.cpp:132] Setting up fconv7_17+_relu7_17_0_split
I0204 18:59:54.040716 25293 net.cpp:139] Top shape: 4 128 56 56 (1605632)
I0204 18:59:54.040722 25293 net.cpp:139] Top shape: 4 128 56 56 (1605632)
I0204 18:59:54.040727 25293 layer_factory.hpp:74] Creating layer fconv7_17to16_step1
I0204 18:59:54.040736 25293 net.cpp:102] Creating Layer fconv7_17to16_step1
I0204 18:59:54.040741 25293 net.cpp:422] fconv7_17to16_step1 <- fconv7_17+_relu7_17_0_split_0
I0204 18:59:54.040751 25293 net.cpp:380] fconv7_17to16_step1 -> fconv7_17to16_step1
I0204 18:59:54.040760 25293 net.cpp:132] Setting up fconv7_17to16_step1
I0204 18:59:54.059404 25293 net.cpp:139] Top shape: 4 64 56 56 (802816)
I0204 18:59:54.059422 25293 layer_factory.hpp:74] Creating layer relu7_17to16_step1
I0204 18:59:54.059432 25293 net.cpp:102] Creating Layer relu7_17to16_step1
I0204 18:59:54.059438 25293 net.cpp:422] relu7_17to16_step1 <- fconv7_17to16_step1
I0204 18:59:54.059445 25293 net.cpp:369] relu7_17to16_step1 -> fconv7_17to16_step1 (in-place)
I0204 18:59:54.059453 25293 net.cpp:132] Setting up relu7_17to16_step1
I0204 18:59:54.059676 25293 net.cpp:139] Top shape: 4 64 56 56 (802816)
I0204 18:59:54.059689 25293 layer_factory.hpp:74] Creating layer fconv7_17to16_step2
I0204 18:59:54.059702 25293 net.cpp:102] Creating Layer fconv7_17to16_step2
I0204 18:59:54.059708 25293 net.cpp:422] fconv7_17to16_step2 <- fconv7_17to16_step1
I0204 18:59:54.059720 25293 net.cpp:380] fconv7_17to16_step2 -> fconv7_17to16_step2
I0204 18:59:54.059728 25293 net.cpp:132] Setting up fconv7_17to16_step2
I0204 18:59:54.078490 25293 net.cpp:139] Top shape: 4 128 56 56 (1605632)
I0204 18:59:54.078505 25293 layer_factory.hpp:74] Creating layer fconv7_16
I0204 18:59:54.078518 25293 net.cpp:102] Creating Layer fconv7_16
I0204 18:59:54.078524 25293 net.cpp:422] fconv7_16 <- fconv6_bn_drop6_0_split_14
I0204 18:59:54.078533 25293 net.cpp:380] fconv7_16 -> fconv7_16
I0204 18:59:54.078547 25293 net.cpp:132] Setting up fconv7_16
I0204 18:59:54.082551 25293 net.cpp:139] Top shape: 4 128 56 56 (1605632)
I0204 18:59:54.082567 25293 layer_factory.hpp:74] Creating layer Pass_17to16
I0204 18:59:54.082598 25293 net.cpp:102] Creating Layer Pass_17to16
I0204 18:59:54.082605 25293 net.cpp:422] Pass_17to16 <- fconv7_17to16_step2
I0204 18:59:54.082612 25293 net.cpp:422] Pass_17to16 <- fconv7_16
I0204 18:59:54.082618 25293 net.cpp:380] Pass_17to16 -> fconv7_16+
I0204 18:59:54.082628 25293 net.cpp:132] Setting up Pass_17to16
I0204 18:59:54.082635 25293 net.cpp:139] Top shape: 4 128 56 56 (1605632)
I0204 18:59:54.082641 25293 layer_factory.hpp:74] Creating layer relu7_16
I0204 18:59:54.082649 25293 net.cpp:102] Creating Layer relu7_16
I0204 18:59:54.082655 25293 net.cpp:422] relu7_16 <- fconv7_16+
I0204 18:59:54.082661 25293 net.cpp:369] relu7_16 -> fconv7_16+ (in-place)
I0204 18:59:54.082669 25293 net.cpp:132] Setting up relu7_16
I0204 18:59:54.082736 25293 net.cpp:139] Top shape: 4 128 56 56 (1605632)
I0204 18:59:54.082746 25293 layer_factory.hpp:74] Creating layer fconv7_16+_relu7_16_0_split
I0204 18:59:54.082757 25293 net.cpp:102] Creating Layer fconv7_16+_relu7_16_0_split
I0204 18:59:54.082762 25293 net.cpp:422] fconv7_16+_relu7_16_0_split <- fconv7_16+
I0204 18:59:54.082769 25293 net.cpp:380] fconv7_16+_relu7_16_0_split -> fconv7_16+_relu7_16_0_split_0
I0204 18:59:54.082778 25293 net.cpp:380] fconv7_16+_relu7_16_0_split -> fconv7_16+_relu7_16_0_split_1
I0204 18:59:54.082785 25293 net.cpp:132] Setting up fconv7_16+_relu7_16_0_split
I0204 18:59:54.082793 25293 net.cpp:139] Top shape: 4 128 56 56 (1605632)
I0204 18:59:54.082798 25293 net.cpp:139] Top shape: 4 128 56 56 (1605632)
I0204 18:59:54.082803 25293 layer_factory.hpp:74] Creating layer fconv7_16to11_step1
I0204 18:59:54.082814 25293 net.cpp:102] Creating Layer fconv7_16to11_step1
I0204 18:59:54.082821 25293 net.cpp:422] fconv7_16to11_step1 <- fconv7_16+_relu7_16_0_split_0
I0204 18:59:54.082831 25293 net.cpp:380] fconv7_16to11_step1 -> fconv7_16to11_step1
I0204 18:59:54.082840 25293 net.cpp:132] Setting up fconv7_16to11_step1
I0204 18:59:54.101514 25293 net.cpp:139] Top shape: 4 64 56 56 (802816)
I0204 18:59:54.101531 25293 layer_factory.hpp:74] Creating layer relu7_16to11_step1
I0204 18:59:54.101541 25293 net.cpp:102] Creating Layer relu7_16to11_step1
I0204 18:59:54.101548 25293 net.cpp:422] relu7_16to11_step1 <- fconv7_16to11_step1
I0204 18:59:54.101557 25293 net.cpp:369] relu7_16to11_step1 -> fconv7_16to11_step1 (in-place)
I0204 18:59:54.101565 25293 net.cpp:132] Setting up relu7_16to11_step1
I0204 18:59:54.101630 25293 net.cpp:139] Top shape: 4 64 56 56 (802816)
I0204 18:59:54.101640 25293 layer_factory.hpp:74] Creating layer fconv7_16to11_step2
I0204 18:59:54.101654 25293 net.cpp:102] Creating Layer fconv7_16to11_step2
I0204 18:59:54.101660 25293 net.cpp:422] fconv7_16to11_step2 <- fconv7_16to11_step1
I0204 18:59:54.101667 25293 net.cpp:380] fconv7_16to11_step2 -> fconv7_16to11_step2
I0204 18:59:54.101682 25293 net.cpp:132] Setting up fconv7_16to11_step2
I0204 18:59:54.120349 25293 net.cpp:139] Top shape: 4 128 56 56 (1605632)
I0204 18:59:54.120368 25293 layer_factory.hpp:74] Creating layer fconv7_11
I0204 18:59:54.120380 25293 net.cpp:102] Creating Layer fconv7_11
I0204 18:59:54.120386 25293 net.cpp:422] fconv7_11 <- fconv6_bn_drop6_0_split_15
I0204 18:59:54.120398 25293 net.cpp:380] fconv7_11 -> fconv7_11
I0204 18:59:54.120409 25293 net.cpp:132] Setting up fconv7_11
I0204 18:59:54.124455 25293 net.cpp:139] Top shape: 4 128 56 56 (1605632)
I0204 18:59:54.124471 25293 layer_factory.hpp:74] Creating layer Pass_1216to11
I0204 18:59:54.124481 25293 net.cpp:102] Creating Layer Pass_1216to11
I0204 18:59:54.124487 25293 net.cpp:422] Pass_1216to11 <- fconv7_16to11_step2
I0204 18:59:54.124495 25293 net.cpp:422] Pass_1216to11 <- fconv7_12to11_step2
I0204 18:59:54.124503 25293 net.cpp:422] Pass_1216to11 <- fconv7_11
I0204 18:59:54.124511 25293 net.cpp:380] Pass_1216to11 -> fconv7_11+
I0204 18:59:54.124518 25293 net.cpp:132] Setting up Pass_1216to11
I0204 18:59:54.124526 25293 net.cpp:139] Top shape: 4 128 56 56 (1605632)
I0204 18:59:54.124531 25293 layer_factory.hpp:74] Creating layer relu7_11
I0204 18:59:54.124544 25293 net.cpp:102] Creating Layer relu7_11
I0204 18:59:54.124552 25293 net.cpp:422] relu7_11 <- fconv7_11+
I0204 18:59:54.124558 25293 net.cpp:369] relu7_11 -> fconv7_11+ (in-place)
I0204 18:59:54.124565 25293 net.cpp:132] Setting up relu7_11
I0204 18:59:54.124635 25293 net.cpp:139] Top shape: 4 128 56 56 (1605632)
I0204 18:59:54.124644 25293 layer_factory.hpp:74] Creating layer fconv7_11+_relu7_11_0_split
I0204 18:59:54.124652 25293 net.cpp:102] Creating Layer fconv7_11+_relu7_11_0_split
I0204 18:59:54.124657 25293 net.cpp:422] fconv7_11+_relu7_11_0_split <- fconv7_11+
I0204 18:59:54.124666 25293 net.cpp:380] fconv7_11+_relu7_11_0_split -> fconv7_11+_relu7_11_0_split_0
I0204 18:59:54.124675 25293 net.cpp:380] fconv7_11+_relu7_11_0_split -> fconv7_11+_relu7_11_0_split_1
I0204 18:59:54.124683 25293 net.cpp:132] Setting up fconv7_11+_relu7_11_0_split
I0204 18:59:54.124691 25293 net.cpp:139] Top shape: 4 128 56 56 (1605632)
I0204 18:59:54.124696 25293 net.cpp:139] Top shape: 4 128 56 56 (1605632)
I0204 18:59:54.124702 25293 layer_factory.hpp:74] Creating layer fconv7_11to2_step1
I0204 18:59:54.124712 25293 net.cpp:102] Creating Layer fconv7_11to2_step1
I0204 18:59:54.124718 25293 net.cpp:422] fconv7_11to2_step1 <- fconv7_11+_relu7_11_0_split_0
I0204 18:59:54.124725 25293 net.cpp:380] fconv7_11to2_step1 -> fconv7_11to2_step1
I0204 18:59:54.124733 25293 net.cpp:132] Setting up fconv7_11to2_step1
I0204 18:59:54.143388 25293 net.cpp:139] Top shape: 4 64 56 56 (802816)
I0204 18:59:54.143404 25293 layer_factory.hpp:74] Creating layer relu7_11to2_step1
I0204 18:59:54.143414 25293 net.cpp:102] Creating Layer relu7_11to2_step1
I0204 18:59:54.143420 25293 net.cpp:422] relu7_11to2_step1 <- fconv7_11to2_step1
I0204 18:59:54.143426 25293 net.cpp:369] relu7_11to2_step1 -> fconv7_11to2_step1 (in-place)
I0204 18:59:54.143435 25293 net.cpp:132] Setting up relu7_11to2_step1
I0204 18:59:54.143656 25293 net.cpp:139] Top shape: 4 64 56 56 (802816)
I0204 18:59:54.143668 25293 layer_factory.hpp:74] Creating layer fconv7_11to2_step2
I0204 18:59:54.143678 25293 net.cpp:102] Creating Layer fconv7_11to2_step2
I0204 18:59:54.143684 25293 net.cpp:422] fconv7_11to2_step2 <- fconv7_11to2_step1
I0204 18:59:54.143694 25293 net.cpp:380] fconv7_11to2_step2 -> fconv7_11to2_step2
I0204 18:59:54.143708 25293 net.cpp:132] Setting up fconv7_11to2_step2
I0204 18:59:54.162392 25293 net.cpp:139] Top shape: 4 128 56 56 (1605632)
I0204 18:59:54.162408 25293 layer_factory.hpp:74] Creating layer fconv7_2
I0204 18:59:54.162423 25293 net.cpp:102] Creating Layer fconv7_2
I0204 18:59:54.162430 25293 net.cpp:422] fconv7_2 <- fconv6_bn_drop6_0_split_16
I0204 18:59:54.162441 25293 net.cpp:380] fconv7_2 -> fconv7_2
I0204 18:59:54.162451 25293 net.cpp:132] Setting up fconv7_2
I0204 18:59:54.166445 25293 net.cpp:139] Top shape: 4 128 56 56 (1605632)
I0204 18:59:54.166460 25293 layer_factory.hpp:74] Creating layer Pass_311to2
I0204 18:59:54.166471 25293 net.cpp:102] Creating Layer Pass_311to2
I0204 18:59:54.166478 25293 net.cpp:422] Pass_311to2 <- fconv7_3to2_step2
I0204 18:59:54.166486 25293 net.cpp:422] Pass_311to2 <- fconv7_11to2_step2
I0204 18:59:54.166492 25293 net.cpp:422] Pass_311to2 <- fconv7_2
I0204 18:59:54.166498 25293 net.cpp:380] Pass_311to2 -> fconv7_2+
I0204 18:59:54.166507 25293 net.cpp:132] Setting up Pass_311to2
I0204 18:59:54.166515 25293 net.cpp:139] Top shape: 4 128 56 56 (1605632)
I0204 18:59:54.166520 25293 layer_factory.hpp:74] Creating layer relu7_2
I0204 18:59:54.166527 25293 net.cpp:102] Creating Layer relu7_2
I0204 18:59:54.166532 25293 net.cpp:422] relu7_2 <- fconv7_2+
I0204 18:59:54.166544 25293 net.cpp:369] relu7_2 -> fconv7_2+ (in-place)
I0204 18:59:54.166555 25293 net.cpp:132] Setting up relu7_2
I0204 18:59:54.166623 25293 net.cpp:139] Top shape: 4 128 56 56 (1605632)
I0204 18:59:54.166632 25293 layer_factory.hpp:74] Creating layer fconv7_2+_relu7_2_0_split
I0204 18:59:54.166643 25293 net.cpp:102] Creating Layer fconv7_2+_relu7_2_0_split
I0204 18:59:54.166648 25293 net.cpp:422] fconv7_2+_relu7_2_0_split <- fconv7_2+
I0204 18:59:54.166659 25293 net.cpp:380] fconv7_2+_relu7_2_0_split -> fconv7_2+_relu7_2_0_split_0
I0204 18:59:54.166671 25293 net.cpp:380] fconv7_2+_relu7_2_0_split -> fconv7_2+_relu7_2_0_split_1
I0204 18:59:54.166678 25293 net.cpp:132] Setting up fconv7_2+_relu7_2_0_split
I0204 18:59:54.166687 25293 net.cpp:139] Top shape: 4 128 56 56 (1605632)
I0204 18:59:54.166692 25293 net.cpp:139] Top shape: 4 128 56 56 (1605632)
I0204 18:59:54.166697 25293 layer_factory.hpp:74] Creating layer fconv7_2to1_step1
I0204 18:59:54.166708 25293 net.cpp:102] Creating Layer fconv7_2to1_step1
I0204 18:59:54.166715 25293 net.cpp:422] fconv7_2to1_step1 <- fconv7_2+_relu7_2_0_split_0
I0204 18:59:54.166723 25293 net.cpp:380] fconv7_2to1_step1 -> fconv7_2to1_step1
I0204 18:59:54.166731 25293 net.cpp:132] Setting up fconv7_2to1_step1
I0204 18:59:54.185459 25293 net.cpp:139] Top shape: 4 64 56 56 (802816)
I0204 18:59:54.185477 25293 layer_factory.hpp:74] Creating layer relu7_2to1_step1
I0204 18:59:54.185488 25293 net.cpp:102] Creating Layer relu7_2to1_step1
I0204 18:59:54.185494 25293 net.cpp:422] relu7_2to1_step1 <- fconv7_2to1_step1
I0204 18:59:54.185502 25293 net.cpp:369] relu7_2to1_step1 -> fconv7_2to1_step1 (in-place)
I0204 18:59:54.185508 25293 net.cpp:132] Setting up relu7_2to1_step1
I0204 18:59:54.185582 25293 net.cpp:139] Top shape: 4 64 56 56 (802816)
I0204 18:59:54.185592 25293 layer_factory.hpp:74] Creating layer fconv7_2to1_step2
I0204 18:59:54.185606 25293 net.cpp:102] Creating Layer fconv7_2to1_step2
I0204 18:59:54.185612 25293 net.cpp:422] fconv7_2to1_step2 <- fconv7_2to1_step1
I0204 18:59:54.185622 25293 net.cpp:380] fconv7_2to1_step2 -> fconv7_2to1_step2
I0204 18:59:54.185631 25293 net.cpp:132] Setting up fconv7_2to1_step2
I0204 18:59:54.204315 25293 net.cpp:139] Top shape: 4 128 56 56 (1605632)
I0204 18:59:54.204331 25293 layer_factory.hpp:74] Creating layer fconv7_1
I0204 18:59:54.204344 25293 net.cpp:102] Creating Layer fconv7_1
I0204 18:59:54.204351 25293 net.cpp:422] fconv7_1 <- fconv6_bn_drop6_0_split_17
I0204 18:59:54.204361 25293 net.cpp:380] fconv7_1 -> fconv7_1
I0204 18:59:54.204370 25293 net.cpp:132] Setting up fconv7_1
I0204 18:59:54.208370 25293 net.cpp:139] Top shape: 4 128 56 56 (1605632)
I0204 18:59:54.208416 25293 layer_factory.hpp:74] Creating layer Pass_2to1
I0204 18:59:54.208430 25293 net.cpp:102] Creating Layer Pass_2to1
I0204 18:59:54.208436 25293 net.cpp:422] Pass_2to1 <- fconv7_2to1_step2
I0204 18:59:54.208441 25293 net.cpp:422] Pass_2to1 <- fconv7_1
I0204 18:59:54.208448 25293 net.cpp:380] Pass_2to1 -> fconv7_1+
I0204 18:59:54.208456 25293 net.cpp:132] Setting up Pass_2to1
I0204 18:59:54.208464 25293 net.cpp:139] Top shape: 4 128 56 56 (1605632)
I0204 18:59:54.208469 25293 layer_factory.hpp:74] Creating layer relu7_1
I0204 18:59:54.208478 25293 net.cpp:102] Creating Layer relu7_1
I0204 18:59:54.208483 25293 net.cpp:422] relu7_1 <- fconv7_1+
I0204 18:59:54.208489 25293 net.cpp:369] relu7_1 -> fconv7_1+ (in-place)
I0204 18:59:54.208495 25293 net.cpp:132] Setting up relu7_1
I0204 18:59:54.208719 25293 net.cpp:139] Top shape: 4 128 56 56 (1605632)
I0204 18:59:54.208734 25293 layer_factory.hpp:74] Creating layer fconv7b2_1
I0204 18:59:54.208744 25293 net.cpp:102] Creating Layer fconv7b2_1
I0204 18:59:54.208750 25293 net.cpp:422] fconv7b2_1 <- fconv6_bn_drop6_0_split_18
I0204 18:59:54.208758 25293 net.cpp:380] fconv7b2_1 -> fconv7b2_1+
I0204 18:59:54.208767 25293 net.cpp:132] Setting up fconv7b2_1
I0204 18:59:54.212762 25293 net.cpp:139] Top shape: 4 128 56 56 (1605632)
I0204 18:59:54.212779 25293 layer_factory.hpp:74] Creating layer relu7b2_1
I0204 18:59:54.212790 25293 net.cpp:102] Creating Layer relu7b2_1
I0204 18:59:54.212795 25293 net.cpp:422] relu7b2_1 <- fconv7b2_1+
I0204 18:59:54.212802 25293 net.cpp:369] relu7b2_1 -> fconv7b2_1+ (in-place)
I0204 18:59:54.212811 25293 net.cpp:132] Setting up relu7b2_1
I0204 18:59:54.212878 25293 net.cpp:139] Top shape: 4 128 56 56 (1605632)
I0204 18:59:54.212893 25293 layer_factory.hpp:74] Creating layer fconv7b2_1+_relu7b2_1_0_split
I0204 18:59:54.212900 25293 net.cpp:102] Creating Layer fconv7b2_1+_relu7b2_1_0_split
I0204 18:59:54.212905 25293 net.cpp:422] fconv7b2_1+_relu7b2_1_0_split <- fconv7b2_1+
I0204 18:59:54.212914 25293 net.cpp:380] fconv7b2_1+_relu7b2_1_0_split -> fconv7b2_1+_relu7b2_1_0_split_0
I0204 18:59:54.212924 25293 net.cpp:380] fconv7b2_1+_relu7b2_1_0_split -> fconv7b2_1+_relu7b2_1_0_split_1
I0204 18:59:54.212930 25293 net.cpp:132] Setting up fconv7b2_1+_relu7b2_1_0_split
I0204 18:59:54.212939 25293 net.cpp:139] Top shape: 4 128 56 56 (1605632)
I0204 18:59:54.212944 25293 net.cpp:139] Top shape: 4 128 56 56 (1605632)
I0204 18:59:54.212949 25293 layer_factory.hpp:74] Creating layer fconv7b2_2to1_step1
I0204 18:59:54.212959 25293 net.cpp:102] Creating Layer fconv7b2_2to1_step1
I0204 18:59:54.212963 25293 net.cpp:422] fconv7b2_2to1_step1 <- fconv7b2_1+_relu7b2_1_0_split_0
I0204 18:59:54.212972 25293 net.cpp:380] fconv7b2_2to1_step1 -> fconv7b2_2to1_step1
I0204 18:59:54.212981 25293 net.cpp:132] Setting up fconv7b2_2to1_step1
I0204 18:59:54.231689 25293 net.cpp:139] Top shape: 4 64 56 56 (802816)
I0204 18:59:54.231706 25293 layer_factory.hpp:74] Creating layer relu7b2_2to1_step1
I0204 18:59:54.231715 25293 net.cpp:102] Creating Layer relu7b2_2to1_step1
I0204 18:59:54.231722 25293 net.cpp:422] relu7b2_2to1_step1 <- fconv7b2_2to1_step1
I0204 18:59:54.231729 25293 net.cpp:369] relu7b2_2to1_step1 -> fconv7b2_2to1_step1 (in-place)
I0204 18:59:54.231736 25293 net.cpp:132] Setting up relu7b2_2to1_step1
I0204 18:59:54.231803 25293 net.cpp:139] Top shape: 4 64 56 56 (802816)
I0204 18:59:54.231814 25293 layer_factory.hpp:74] Creating layer fconv7b2_2to1_step2
I0204 18:59:54.231827 25293 net.cpp:102] Creating Layer fconv7b2_2to1_step2
I0204 18:59:54.231832 25293 net.cpp:422] fconv7b2_2to1_step2 <- fconv7b2_2to1_step1
I0204 18:59:54.231840 25293 net.cpp:380] fconv7b2_2to1_step2 -> fconv7b2_2to1_step2
I0204 18:59:54.231848 25293 net.cpp:132] Setting up fconv7b2_2to1_step2
I0204 18:59:54.250594 25293 net.cpp:139] Top shape: 4 128 56 56 (1605632)
I0204 18:59:54.250610 25293 layer_factory.hpp:74] Creating layer fconv7b2_2
I0204 18:59:54.250624 25293 net.cpp:102] Creating Layer fconv7b2_2
I0204 18:59:54.250632 25293 net.cpp:422] fconv7b2_2 <- fconv6_bn_drop6_0_split_19
I0204 18:59:54.250643 25293 net.cpp:380] fconv7b2_2 -> fconv7b2_2
I0204 18:59:54.250653 25293 net.cpp:132] Setting up fconv7b2_2
I0204 18:59:54.254667 25293 net.cpp:139] Top shape: 4 128 56 56 (1605632)
I0204 18:59:54.254683 25293 layer_factory.hpp:74] Creating layer Pass_1to2
I0204 18:59:54.254694 25293 net.cpp:102] Creating Layer Pass_1to2
I0204 18:59:54.254700 25293 net.cpp:422] Pass_1to2 <- fconv7b2_2to1_step2
I0204 18:59:54.254706 25293 net.cpp:422] Pass_1to2 <- fconv7b2_2
I0204 18:59:54.254714 25293 net.cpp:380] Pass_1to2 -> fconv7b2_2+
I0204 18:59:54.254722 25293 net.cpp:132] Setting up Pass_1to2
I0204 18:59:54.254730 25293 net.cpp:139] Top shape: 4 128 56 56 (1605632)
I0204 18:59:54.254735 25293 layer_factory.hpp:74] Creating layer relu7b2_2
I0204 18:59:54.254742 25293 net.cpp:102] Creating Layer relu7b2_2
I0204 18:59:54.254747 25293 net.cpp:422] relu7b2_2 <- fconv7b2_2+
I0204 18:59:54.254755 25293 net.cpp:369] relu7b2_2 -> fconv7b2_2+ (in-place)
I0204 18:59:54.254761 25293 net.cpp:132] Setting up relu7b2_2
I0204 18:59:54.254835 25293 net.cpp:139] Top shape: 4 128 56 56 (1605632)
I0204 18:59:54.254847 25293 layer_factory.hpp:74] Creating layer fconv7b2_2+_relu7b2_2_0_split
I0204 18:59:54.254854 25293 net.cpp:102] Creating Layer fconv7b2_2+_relu7b2_2_0_split
I0204 18:59:54.254859 25293 net.cpp:422] fconv7b2_2+_relu7b2_2_0_split <- fconv7b2_2+
I0204 18:59:54.254868 25293 net.cpp:380] fconv7b2_2+_relu7b2_2_0_split -> fconv7b2_2+_relu7b2_2_0_split_0
I0204 18:59:54.254875 25293 net.cpp:380] fconv7b2_2+_relu7b2_2_0_split -> fconv7b2_2+_relu7b2_2_0_split_1
I0204 18:59:54.254884 25293 net.cpp:380] fconv7b2_2+_relu7b2_2_0_split -> fconv7b2_2+_relu7b2_2_0_split_2
I0204 18:59:54.254891 25293 net.cpp:132] Setting up fconv7b2_2+_relu7b2_2_0_split
I0204 18:59:54.254899 25293 net.cpp:139] Top shape: 4 128 56 56 (1605632)
I0204 18:59:54.254904 25293 net.cpp:139] Top shape: 4 128 56 56 (1605632)
I0204 18:59:54.254909 25293 net.cpp:139] Top shape: 4 128 56 56 (1605632)
I0204 18:59:54.254915 25293 layer_factory.hpp:74] Creating layer fconv7b2_2to3_step1
I0204 18:59:54.254928 25293 net.cpp:102] Creating Layer fconv7b2_2to3_step1
I0204 18:59:54.254936 25293 net.cpp:422] fconv7b2_2to3_step1 <- fconv7b2_2+_relu7b2_2_0_split_0
I0204 18:59:54.254946 25293 net.cpp:380] fconv7b2_2to3_step1 -> fconv7b2_2to3_step1
I0204 18:59:54.254955 25293 net.cpp:132] Setting up fconv7b2_2to3_step1
I0204 18:59:54.273675 25293 net.cpp:139] Top shape: 4 64 56 56 (802816)
I0204 18:59:54.273691 25293 layer_factory.hpp:74] Creating layer relu7b2_2to3_step1
I0204 18:59:54.273701 25293 net.cpp:102] Creating Layer relu7b2_2to3_step1
I0204 18:59:54.273708 25293 net.cpp:422] relu7b2_2to3_step1 <- fconv7b2_2to3_step1
I0204 18:59:54.273715 25293 net.cpp:369] relu7b2_2to3_step1 -> fconv7b2_2to3_step1 (in-place)
I0204 18:59:54.273725 25293 net.cpp:132] Setting up relu7b2_2to3_step1
I0204 18:59:54.273938 25293 net.cpp:139] Top shape: 4 64 56 56 (802816)
I0204 18:59:54.273950 25293 layer_factory.hpp:74] Creating layer fconv7b2_2to3_step2
I0204 18:59:54.273962 25293 net.cpp:102] Creating Layer fconv7b2_2to3_step2
I0204 18:59:54.273970 25293 net.cpp:422] fconv7b2_2to3_step2 <- fconv7b2_2to3_step1
I0204 18:59:54.273978 25293 net.cpp:380] fconv7b2_2to3_step2 -> fconv7b2_2to3_step2
I0204 18:59:54.273988 25293 net.cpp:132] Setting up fconv7b2_2to3_step2
I0204 18:59:54.292690 25293 net.cpp:139] Top shape: 4 128 56 56 (1605632)
I0204 18:59:54.292706 25293 layer_factory.hpp:74] Creating layer fconv7b2_2to11_step1
I0204 18:59:54.292721 25293 net.cpp:102] Creating Layer fconv7b2_2to11_step1
I0204 18:59:54.292726 25293 net.cpp:422] fconv7b2_2to11_step1 <- fconv7b2_2+_relu7b2_2_0_split_1
I0204 18:59:54.292735 25293 net.cpp:380] fconv7b2_2to11_step1 -> fconv7b2_2to11_step1
I0204 18:59:54.292744 25293 net.cpp:132] Setting up fconv7b2_2to11_step1
I0204 18:59:54.311437 25293 net.cpp:139] Top shape: 4 64 56 56 (802816)
I0204 18:59:54.311455 25293 layer_factory.hpp:74] Creating layer relu7b2_2to11_step1
I0204 18:59:54.311465 25293 net.cpp:102] Creating Layer relu7b2_2to11_step1
I0204 18:59:54.311471 25293 net.cpp:422] relu7b2_2to11_step1 <- fconv7b2_2to11_step1
I0204 18:59:54.311478 25293 net.cpp:369] relu7b2_2to11_step1 -> fconv7b2_2to11_step1 (in-place)
I0204 18:59:54.311486 25293 net.cpp:132] Setting up relu7b2_2to11_step1
I0204 18:59:54.311558 25293 net.cpp:139] Top shape: 4 64 56 56 (802816)
I0204 18:59:54.311568 25293 layer_factory.hpp:74] Creating layer fconv7b2_2to11_step2
I0204 18:59:54.311583 25293 net.cpp:102] Creating Layer fconv7b2_2to11_step2
I0204 18:59:54.311589 25293 net.cpp:422] fconv7b2_2to11_step2 <- fconv7b2_2to11_step1
I0204 18:59:54.311599 25293 net.cpp:380] fconv7b2_2to11_step2 -> fconv7b2_2to11_step2
I0204 18:59:54.311611 25293 net.cpp:132] Setting up fconv7b2_2to11_step2
I0204 18:59:54.330310 25293 net.cpp:139] Top shape: 4 128 56 56 (1605632)
I0204 18:59:54.330327 25293 layer_factory.hpp:74] Creating layer fconv7b2_3
I0204 18:59:54.330340 25293 net.cpp:102] Creating Layer fconv7b2_3
I0204 18:59:54.330348 25293 net.cpp:422] fconv7b2_3 <- fconv6_bn_drop6_0_split_20
I0204 18:59:54.330359 25293 net.cpp:380] fconv7b2_3 -> fconv7b2_3
I0204 18:59:54.330370 25293 net.cpp:132] Setting up fconv7b2_3
I0204 18:59:54.334378 25293 net.cpp:139] Top shape: 4 128 56 56 (1605632)
I0204 18:59:54.334393 25293 layer_factory.hpp:74] Creating layer Pass_2to3
I0204 18:59:54.334404 25293 net.cpp:102] Creating Layer Pass_2to3
I0204 18:59:54.334410 25293 net.cpp:422] Pass_2to3 <- fconv7b2_2to3_step2
I0204 18:59:54.334417 25293 net.cpp:422] Pass_2to3 <- fconv7b2_3
I0204 18:59:54.334424 25293 net.cpp:380] Pass_2to3 -> fconv7b2_3+
I0204 18:59:54.334432 25293 net.cpp:132] Setting up Pass_2to3
I0204 18:59:54.334440 25293 net.cpp:139] Top shape: 4 128 56 56 (1605632)
I0204 18:59:54.334446 25293 layer_factory.hpp:74] Creating layer relu7b2_3
I0204 18:59:54.334455 25293 net.cpp:102] Creating Layer relu7b2_3
I0204 18:59:54.334460 25293 net.cpp:422] relu7b2_3 <- fconv7b2_3+
I0204 18:59:54.334466 25293 net.cpp:369] relu7b2_3 -> fconv7b2_3+ (in-place)
I0204 18:59:54.334473 25293 net.cpp:132] Setting up relu7b2_3
I0204 18:59:54.334545 25293 net.cpp:139] Top shape: 4 128 56 56 (1605632)
I0204 18:59:54.334556 25293 layer_factory.hpp:74] Creating layer fconv7b2_3+_relu7b2_3_0_split
I0204 18:59:54.334568 25293 net.cpp:102] Creating Layer fconv7b2_3+_relu7b2_3_0_split
I0204 18:59:54.334573 25293 net.cpp:422] fconv7b2_3+_relu7b2_3_0_split <- fconv7b2_3+
I0204 18:59:54.334579 25293 net.cpp:380] fconv7b2_3+_relu7b2_3_0_split -> fconv7b2_3+_relu7b2_3_0_split_0
I0204 18:59:54.334595 25293 net.cpp:380] fconv7b2_3+_relu7b2_3_0_split -> fconv7b2_3+_relu7b2_3_0_split_1
I0204 18:59:54.334604 25293 net.cpp:380] fconv7b2_3+_relu7b2_3_0_split -> fconv7b2_3+_relu7b2_3_0_split_2
I0204 18:59:54.334611 25293 net.cpp:132] Setting up fconv7b2_3+_relu7b2_3_0_split
I0204 18:59:54.334619 25293 net.cpp:139] Top shape: 4 128 56 56 (1605632)
I0204 18:59:54.334625 25293 net.cpp:139] Top shape: 4 128 56 56 (1605632)
I0204 18:59:54.334630 25293 net.cpp:139] Top shape: 4 128 56 56 (1605632)
I0204 18:59:54.334635 25293 layer_factory.hpp:74] Creating layer fconv7b2_3to4_step1
I0204 18:59:54.334645 25293 net.cpp:102] Creating Layer fconv7b2_3to4_step1
I0204 18:59:54.334650 25293 net.cpp:422] fconv7b2_3to4_step1 <- fconv7b2_3+_relu7b2_3_0_split_0
I0204 18:59:54.334660 25293 net.cpp:380] fconv7b2_3to4_step1 -> fconv7b2_3to4_step1
I0204 18:59:54.334671 25293 net.cpp:132] Setting up fconv7b2_3to4_step1
I0204 18:59:54.353365 25293 net.cpp:139] Top shape: 4 64 56 56 (802816)
I0204 18:59:54.353381 25293 layer_factory.hpp:74] Creating layer relu7b2_3to4_step1
I0204 18:59:54.353390 25293 net.cpp:102] Creating Layer relu7b2_3to4_step1
I0204 18:59:54.353396 25293 net.cpp:422] relu7b2_3to4_step1 <- fconv7b2_3to4_step1
I0204 18:59:54.353404 25293 net.cpp:369] relu7b2_3to4_step1 -> fconv7b2_3to4_step1 (in-place)
I0204 18:59:54.353411 25293 net.cpp:132] Setting up relu7b2_3to4_step1
I0204 18:59:54.353479 25293 net.cpp:139] Top shape: 4 64 56 56 (802816)
I0204 18:59:54.353490 25293 layer_factory.hpp:74] Creating layer fconv7b2_3to4_step2
I0204 18:59:54.353500 25293 net.cpp:102] Creating Layer fconv7b2_3to4_step2
I0204 18:59:54.353507 25293 net.cpp:422] fconv7b2_3to4_step2 <- fconv7b2_3to4_step1
I0204 18:59:54.353516 25293 net.cpp:380] fconv7b2_3to4_step2 -> fconv7b2_3to4_step2
I0204 18:59:54.353528 25293 net.cpp:132] Setting up fconv7b2_3to4_step2
I0204 18:59:54.372242 25293 net.cpp:139] Top shape: 4 128 56 56 (1605632)
I0204 18:59:54.372262 25293 layer_factory.hpp:74] Creating layer fconv7b2_3to8_step1
I0204 18:59:54.372274 25293 net.cpp:102] Creating Layer fconv7b2_3to8_step1
I0204 18:59:54.372280 25293 net.cpp:422] fconv7b2_3to8_step1 <- fconv7b2_3+_relu7b2_3_0_split_1
I0204 18:59:54.372290 25293 net.cpp:380] fconv7b2_3to8_step1 -> fconv7b2_3to8_step1
I0204 18:59:54.372301 25293 net.cpp:132] Setting up fconv7b2_3to8_step1
I0204 18:59:54.391024 25293 net.cpp:139] Top shape: 4 64 56 56 (802816)
I0204 18:59:54.391041 25293 layer_factory.hpp:74] Creating layer relu7b2_3to8_step1
I0204 18:59:54.391050 25293 net.cpp:102] Creating Layer relu7b2_3to8_step1
I0204 18:59:54.391057 25293 net.cpp:422] relu7b2_3to8_step1 <- fconv7b2_3to8_step1
I0204 18:59:54.391063 25293 net.cpp:369] relu7b2_3to8_step1 -> fconv7b2_3to8_step1 (in-place)
I0204 18:59:54.391072 25293 net.cpp:132] Setting up relu7b2_3to8_step1
I0204 18:59:54.391294 25293 net.cpp:139] Top shape: 4 64 56 56 (802816)
I0204 18:59:54.391306 25293 layer_factory.hpp:74] Creating layer fconv7b2_3to8_step2
I0204 18:59:54.391319 25293 net.cpp:102] Creating Layer fconv7b2_3to8_step2
I0204 18:59:54.391324 25293 net.cpp:422] fconv7b2_3to8_step2 <- fconv7b2_3to8_step1
I0204 18:59:54.391333 25293 net.cpp:380] fconv7b2_3to8_step2 -> fconv7b2_3to8_step2
I0204 18:59:54.391342 25293 net.cpp:132] Setting up fconv7b2_3to8_step2
I0204 18:59:54.410130 25293 net.cpp:139] Top shape: 4 128 56 56 (1605632)
I0204 18:59:54.410146 25293 layer_factory.hpp:74] Creating layer fconv7b2_4
I0204 18:59:54.410157 25293 net.cpp:102] Creating Layer fconv7b2_4
I0204 18:59:54.410164 25293 net.cpp:422] fconv7b2_4 <- fconv6_bn_drop6_0_split_21
I0204 18:59:54.410174 25293 net.cpp:380] fconv7b2_4 -> fconv7b2_4
I0204 18:59:54.410187 25293 net.cpp:132] Setting up fconv7b2_4
I0204 18:59:54.414194 25293 net.cpp:139] Top shape: 4 128 56 56 (1605632)
I0204 18:59:54.414211 25293 layer_factory.hpp:74] Creating layer Pass_3to4
I0204 18:59:54.414219 25293 net.cpp:102] Creating Layer Pass_3to4
I0204 18:59:54.414224 25293 net.cpp:422] Pass_3to4 <- fconv7b2_3to4_step2
I0204 18:59:54.414232 25293 net.cpp:422] Pass_3to4 <- fconv7b2_4
I0204 18:59:54.414238 25293 net.cpp:380] Pass_3to4 -> fconv7b2_4+
I0204 18:59:54.414247 25293 net.cpp:132] Setting up Pass_3to4
I0204 18:59:54.414254 25293 net.cpp:139] Top shape: 4 128 56 56 (1605632)
I0204 18:59:54.414259 25293 layer_factory.hpp:74] Creating layer relu7b2_4
I0204 18:59:54.414269 25293 net.cpp:102] Creating Layer relu7b2_4
I0204 18:59:54.414279 25293 net.cpp:422] relu7b2_4 <- fconv7b2_4+
I0204 18:59:54.414286 25293 net.cpp:369] relu7b2_4 -> fconv7b2_4+ (in-place)
I0204 18:59:54.414293 25293 net.cpp:132] Setting up relu7b2_4
I0204 18:59:54.414361 25293 net.cpp:139] Top shape: 4 128 56 56 (1605632)
I0204 18:59:54.414371 25293 layer_factory.hpp:74] Creating layer fconv7b2_4+_relu7b2_4_0_split
I0204 18:59:54.414379 25293 net.cpp:102] Creating Layer fconv7b2_4+_relu7b2_4_0_split
I0204 18:59:54.414386 25293 net.cpp:422] fconv7b2_4+_relu7b2_4_0_split <- fconv7b2_4+
I0204 18:59:54.414392 25293 net.cpp:380] fconv7b2_4+_relu7b2_4_0_split -> fconv7b2_4+_relu7b2_4_0_split_0
I0204 18:59:54.414402 25293 net.cpp:380] fconv7b2_4+_relu7b2_4_0_split -> fconv7b2_4+_relu7b2_4_0_split_1
I0204 18:59:54.414410 25293 net.cpp:132] Setting up fconv7b2_4+_relu7b2_4_0_split
I0204 18:59:54.414418 25293 net.cpp:139] Top shape: 4 128 56 56 (1605632)
I0204 18:59:54.414423 25293 net.cpp:139] Top shape: 4 128 56 56 (1605632)
I0204 18:59:54.414428 25293 layer_factory.hpp:74] Creating layer fconv7b2_4to5_step1
I0204 18:59:54.414440 25293 net.cpp:102] Creating Layer fconv7b2_4to5_step1
I0204 18:59:54.414449 25293 net.cpp:422] fconv7b2_4to5_step1 <- fconv7b2_4+_relu7b2_4_0_split_0
I0204 18:59:54.414458 25293 net.cpp:380] fconv7b2_4to5_step1 -> fconv7b2_4to5_step1
I0204 18:59:54.414465 25293 net.cpp:132] Setting up fconv7b2_4to5_step1
I0204 18:59:54.433120 25293 net.cpp:139] Top shape: 4 64 56 56 (802816)
I0204 18:59:54.433135 25293 layer_factory.hpp:74] Creating layer relu7b2_4to5_step1
I0204 18:59:54.433145 25293 net.cpp:102] Creating Layer relu7b2_4to5_step1
I0204 18:59:54.433152 25293 net.cpp:422] relu7b2_4to5_step1 <- fconv7b2_4to5_step1
I0204 18:59:54.433159 25293 net.cpp:369] relu7b2_4to5_step1 -> fconv7b2_4to5_step1 (in-place)
I0204 18:59:54.433166 25293 net.cpp:132] Setting up relu7b2_4to5_step1
I0204 18:59:54.433233 25293 net.cpp:139] Top shape: 4 64 56 56 (802816)
I0204 18:59:54.433241 25293 layer_factory.hpp:74] Creating layer fconv7b2_4to5_step2
I0204 18:59:54.433254 25293 net.cpp:102] Creating Layer fconv7b2_4to5_step2
I0204 18:59:54.433260 25293 net.cpp:422] fconv7b2_4to5_step2 <- fconv7b2_4to5_step1
I0204 18:59:54.433269 25293 net.cpp:380] fconv7b2_4to5_step2 -> fconv7b2_4to5_step2
I0204 18:59:54.433279 25293 net.cpp:132] Setting up fconv7b2_4to5_step2
I0204 18:59:54.452003 25293 net.cpp:139] Top shape: 4 128 56 56 (1605632)
I0204 18:59:54.452021 25293 layer_factory.hpp:74] Creating layer fconv7b2_5
I0204 18:59:54.452034 25293 net.cpp:102] Creating Layer fconv7b2_5
I0204 18:59:54.452040 25293 net.cpp:422] fconv7b2_5 <- fconv6_bn_drop6_0_split_22
I0204 18:59:54.452054 25293 net.cpp:380] fconv7b2_5 -> fconv7b2_5
I0204 18:59:54.452064 25293 net.cpp:132] Setting up fconv7b2_5
I0204 18:59:54.456046 25293 net.cpp:139] Top shape: 4 128 56 56 (1605632)
I0204 18:59:54.456063 25293 layer_factory.hpp:74] Creating layer Pass_4to5
I0204 18:59:54.456073 25293 net.cpp:102] Creating Layer Pass_4to5
I0204 18:59:54.456080 25293 net.cpp:422] Pass_4to5 <- fconv7b2_4to5_step2
I0204 18:59:54.456086 25293 net.cpp:422] Pass_4to5 <- fconv7b2_5
I0204 18:59:54.456094 25293 net.cpp:380] Pass_4to5 -> fconv7b2_5+
I0204 18:59:54.456101 25293 net.cpp:132] Setting up Pass_4to5
I0204 18:59:54.456110 25293 net.cpp:139] Top shape: 4 128 56 56 (1605632)
I0204 18:59:54.456115 25293 layer_factory.hpp:74] Creating layer relu7b2_5
I0204 18:59:54.456121 25293 net.cpp:102] Creating Layer relu7b2_5
I0204 18:59:54.456128 25293 net.cpp:422] relu7b2_5 <- fconv7b2_5+
I0204 18:59:54.456136 25293 net.cpp:369] relu7b2_5 -> fconv7b2_5+ (in-place)
I0204 18:59:54.456143 25293 net.cpp:132] Setting up relu7b2_5
I0204 18:59:54.456207 25293 net.cpp:139] Top shape: 4 128 56 56 (1605632)
I0204 18:59:54.456217 25293 layer_factory.hpp:74] Creating layer fconv7b2_5+_relu7b2_5_0_split
I0204 18:59:54.456224 25293 net.cpp:102] Creating Layer fconv7b2_5+_relu7b2_5_0_split
I0204 18:59:54.456231 25293 net.cpp:422] fconv7b2_5+_relu7b2_5_0_split <- fconv7b2_5+
I0204 18:59:54.456241 25293 net.cpp:380] fconv7b2_5+_relu7b2_5_0_split -> fconv7b2_5+_relu7b2_5_0_split_0
I0204 18:59:54.456250 25293 net.cpp:380] fconv7b2_5+_relu7b2_5_0_split -> fconv7b2_5+_relu7b2_5_0_split_1
I0204 18:59:54.456261 25293 net.cpp:132] Setting up fconv7b2_5+_relu7b2_5_0_split
I0204 18:59:54.456269 25293 net.cpp:139] Top shape: 4 128 56 56 (1605632)
I0204 18:59:54.456274 25293 net.cpp:139] Top shape: 4 128 56 56 (1605632)
I0204 18:59:54.456279 25293 layer_factory.hpp:74] Creating layer fconv7b2_5to6_step1
I0204 18:59:54.456291 25293 net.cpp:102] Creating Layer fconv7b2_5to6_step1
I0204 18:59:54.456300 25293 net.cpp:422] fconv7b2_5to6_step1 <- fconv7b2_5+_relu7b2_5_0_split_0
I0204 18:59:54.456310 25293 net.cpp:380] fconv7b2_5to6_step1 -> fconv7b2_5to6_step1
I0204 18:59:54.456324 25293 net.cpp:132] Setting up fconv7b2_5to6_step1
I0204 18:59:54.474999 25293 net.cpp:139] Top shape: 4 64 56 56 (802816)
I0204 18:59:54.475015 25293 layer_factory.hpp:74] Creating layer relu7b2_5to6_step1
I0204 18:59:54.475023 25293 net.cpp:102] Creating Layer relu7b2_5to6_step1
I0204 18:59:54.475029 25293 net.cpp:422] relu7b2_5to6_step1 <- fconv7b2_5to6_step1
I0204 18:59:54.475036 25293 net.cpp:369] relu7b2_5to6_step1 -> fconv7b2_5to6_step1 (in-place)
I0204 18:59:54.475044 25293 net.cpp:132] Setting up relu7b2_5to6_step1
I0204 18:59:54.475252 25293 net.cpp:139] Top shape: 4 64 56 56 (802816)
I0204 18:59:54.475263 25293 layer_factory.hpp:74] Creating layer fconv7b2_5to6_step2
I0204 18:59:54.475276 25293 net.cpp:102] Creating Layer fconv7b2_5to6_step2
I0204 18:59:54.475282 25293 net.cpp:422] fconv7b2_5to6_step2 <- fconv7b2_5to6_step1
I0204 18:59:54.475291 25293 net.cpp:380] fconv7b2_5to6_step2 -> fconv7b2_5to6_step2
I0204 18:59:54.475299 25293 net.cpp:132] Setting up fconv7b2_5to6_step2
I0204 18:59:54.494036 25293 net.cpp:139] Top shape: 4 128 56 56 (1605632)
I0204 18:59:54.494053 25293 layer_factory.hpp:74] Creating layer fconv7b2_6
I0204 18:59:54.494067 25293 net.cpp:102] Creating Layer fconv7b2_6
I0204 18:59:54.494073 25293 net.cpp:422] fconv7b2_6 <- fconv6_bn_drop6_0_split_23
I0204 18:59:54.494084 25293 net.cpp:380] fconv7b2_6 -> fconv7b2_6
I0204 18:59:54.494094 25293 net.cpp:132] Setting up fconv7b2_6
I0204 18:59:54.498093 25293 net.cpp:139] Top shape: 4 128 56 56 (1605632)
I0204 18:59:54.498109 25293 layer_factory.hpp:74] Creating layer Pass_5to6
I0204 18:59:54.498121 25293 net.cpp:102] Creating Layer Pass_5to6
I0204 18:59:54.498127 25293 net.cpp:422] Pass_5to6 <- fconv7b2_5to6_step2
I0204 18:59:54.498134 25293 net.cpp:422] Pass_5to6 <- fconv7b2_6
I0204 18:59:54.498142 25293 net.cpp:380] Pass_5to6 -> fconv7b2_6+
I0204 18:59:54.498150 25293 net.cpp:132] Setting up Pass_5to6
I0204 18:59:54.498158 25293 net.cpp:139] Top shape: 4 128 56 56 (1605632)
I0204 18:59:54.498163 25293 layer_factory.hpp:74] Creating layer relu7b2_6
I0204 18:59:54.498169 25293 net.cpp:102] Creating Layer relu7b2_6
I0204 18:59:54.498181 25293 net.cpp:422] relu7b2_6 <- fconv7b2_6+
I0204 18:59:54.498188 25293 net.cpp:369] relu7b2_6 -> fconv7b2_6+ (in-place)
I0204 18:59:54.498195 25293 net.cpp:132] Setting up relu7b2_6
I0204 18:59:54.498262 25293 net.cpp:139] Top shape: 4 128 56 56 (1605632)
I0204 18:59:54.498271 25293 layer_factory.hpp:74] Creating layer fconv7b2_6+_relu7b2_6_0_split
I0204 18:59:54.498281 25293 net.cpp:102] Creating Layer fconv7b2_6+_relu7b2_6_0_split
I0204 18:59:54.498286 25293 net.cpp:422] fconv7b2_6+_relu7b2_6_0_split <- fconv7b2_6+
I0204 18:59:54.498294 25293 net.cpp:380] fconv7b2_6+_relu7b2_6_0_split -> fconv7b2_6+_relu7b2_6_0_split_0
I0204 18:59:54.498302 25293 net.cpp:380] fconv7b2_6+_relu7b2_6_0_split -> fconv7b2_6+_relu7b2_6_0_split_1
I0204 18:59:54.498309 25293 net.cpp:132] Setting up fconv7b2_6+_relu7b2_6_0_split
I0204 18:59:54.498319 25293 net.cpp:139] Top shape: 4 128 56 56 (1605632)
I0204 18:59:54.498324 25293 net.cpp:139] Top shape: 4 128 56 56 (1605632)
I0204 18:59:54.498329 25293 layer_factory.hpp:74] Creating layer fconv7b2_6to7_step1
I0204 18:59:54.498339 25293 net.cpp:102] Creating Layer fconv7b2_6to7_step1
I0204 18:59:54.498349 25293 net.cpp:422] fconv7b2_6to7_step1 <- fconv7b2_6+_relu7b2_6_0_split_0
I0204 18:59:54.498363 25293 net.cpp:380] fconv7b2_6to7_step1 -> fconv7b2_6to7_step1
I0204 18:59:54.498371 25293 net.cpp:132] Setting up fconv7b2_6to7_step1
I0204 18:59:54.517138 25293 net.cpp:139] Top shape: 4 64 56 56 (802816)
I0204 18:59:54.517156 25293 layer_factory.hpp:74] Creating layer relu7b2_6to7_step1
I0204 18:59:54.517168 25293 net.cpp:102] Creating Layer relu7b2_6to7_step1
I0204 18:59:54.517174 25293 net.cpp:422] relu7b2_6to7_step1 <- fconv7b2_6to7_step1
I0204 18:59:54.517180 25293 net.cpp:369] relu7b2_6to7_step1 -> fconv7b2_6to7_step1 (in-place)
I0204 18:59:54.517187 25293 net.cpp:132] Setting up relu7b2_6to7_step1
I0204 18:59:54.517252 25293 net.cpp:139] Top shape: 4 64 56 56 (802816)
I0204 18:59:54.517261 25293 layer_factory.hpp:74] Creating layer fconv7b2_6to7_step2
I0204 18:59:54.517273 25293 net.cpp:102] Creating Layer fconv7b2_6to7_step2
I0204 18:59:54.517279 25293 net.cpp:422] fconv7b2_6to7_step2 <- fconv7b2_6to7_step1
I0204 18:59:54.517289 25293 net.cpp:380] fconv7b2_6to7_step2 -> fconv7b2_6to7_step2
I0204 18:59:54.517298 25293 net.cpp:132] Setting up fconv7b2_6to7_step2
I0204 18:59:54.536075 25293 net.cpp:139] Top shape: 4 128 56 56 (1605632)
I0204 18:59:54.536092 25293 layer_factory.hpp:74] Creating layer fconv7b2_7
I0204 18:59:54.536106 25293 net.cpp:102] Creating Layer fconv7b2_7
I0204 18:59:54.536113 25293 net.cpp:422] fconv7b2_7 <- fconv6_bn_drop6_0_split_24
I0204 18:59:54.536123 25293 net.cpp:380] fconv7b2_7 -> fconv7b2_7
I0204 18:59:54.536133 25293 net.cpp:132] Setting up fconv7b2_7
I0204 18:59:54.540143 25293 net.cpp:139] Top shape: 4 128 56 56 (1605632)
I0204 18:59:54.540158 25293 layer_factory.hpp:74] Creating layer Pass_6to7
I0204 18:59:54.540169 25293 net.cpp:102] Creating Layer Pass_6to7
I0204 18:59:54.540174 25293 net.cpp:422] Pass_6to7 <- fconv7b2_6to7_step2
I0204 18:59:54.540180 25293 net.cpp:422] Pass_6to7 <- fconv7b2_7
I0204 18:59:54.540190 25293 net.cpp:380] Pass_6to7 -> fconv7b2_7+
I0204 18:59:54.540199 25293 net.cpp:132] Setting up Pass_6to7
I0204 18:59:54.540207 25293 net.cpp:139] Top shape: 4 128 56 56 (1605632)
I0204 18:59:54.540213 25293 layer_factory.hpp:74] Creating layer relu7b2_7
I0204 18:59:54.540220 25293 net.cpp:102] Creating Layer relu7b2_7
I0204 18:59:54.540226 25293 net.cpp:422] relu7b2_7 <- fconv7b2_7+
I0204 18:59:54.540232 25293 net.cpp:369] relu7b2_7 -> fconv7b2_7+ (in-place)
I0204 18:59:54.540240 25293 net.cpp:132] Setting up relu7b2_7
I0204 18:59:54.540454 25293 net.cpp:139] Top shape: 4 128 56 56 (1605632)
I0204 18:59:54.540467 25293 layer_factory.hpp:74] Creating layer fconv7b2_7+_relu7b2_7_0_split
I0204 18:59:54.540479 25293 net.cpp:102] Creating Layer fconv7b2_7+_relu7b2_7_0_split
I0204 18:59:54.540487 25293 net.cpp:422] fconv7b2_7+_relu7b2_7_0_split <- fconv7b2_7+
I0204 18:59:54.540494 25293 net.cpp:380] fconv7b2_7+_relu7b2_7_0_split -> fconv7b2_7+_relu7b2_7_0_split_0
I0204 18:59:54.540504 25293 net.cpp:380] fconv7b2_7+_relu7b2_7_0_split -> fconv7b2_7+_relu7b2_7_0_split_1
I0204 18:59:54.540513 25293 net.cpp:132] Setting up fconv7b2_7+_relu7b2_7_0_split
I0204 18:59:54.540523 25293 net.cpp:139] Top shape: 4 128 56 56 (1605632)
I0204 18:59:54.540529 25293 net.cpp:139] Top shape: 4 128 56 56 (1605632)
I0204 18:59:54.540534 25293 layer_factory.hpp:74] Creating layer fconv7b2_7to10_step1
I0204 18:59:54.540546 25293 net.cpp:102] Creating Layer fconv7b2_7to10_step1
I0204 18:59:54.540554 25293 net.cpp:422] fconv7b2_7to10_step1 <- fconv7b2_7+_relu7b2_7_0_split_0
I0204 18:59:54.540563 25293 net.cpp:380] fconv7b2_7to10_step1 -> fconv7b2_7to10_step1
I0204 18:59:54.540576 25293 net.cpp:132] Setting up fconv7b2_7to10_step1
I0204 18:59:54.559267 25293 net.cpp:139] Top shape: 4 64 56 56 (802816)
I0204 18:59:54.559283 25293 layer_factory.hpp:74] Creating layer relu7b2_7to10_step1
I0204 18:59:54.559295 25293 net.cpp:102] Creating Layer relu7b2_7to10_step1
I0204 18:59:54.559301 25293 net.cpp:422] relu7b2_7to10_step1 <- fconv7b2_7to10_step1
I0204 18:59:54.559309 25293 net.cpp:369] relu7b2_7to10_step1 -> fconv7b2_7to10_step1 (in-place)
I0204 18:59:54.559315 25293 net.cpp:132] Setting up relu7b2_7to10_step1
I0204 18:59:54.559382 25293 net.cpp:139] Top shape: 4 64 56 56 (802816)
I0204 18:59:54.559393 25293 layer_factory.hpp:74] Creating layer fconv7b2_7to10_step2
I0204 18:59:54.559404 25293 net.cpp:102] Creating Layer fconv7b2_7to10_step2
I0204 18:59:54.559411 25293 net.cpp:422] fconv7b2_7to10_step2 <- fconv7b2_7to10_step1
I0204 18:59:54.559420 25293 net.cpp:380] fconv7b2_7to10_step2 -> fconv7b2_7to10_step2
I0204 18:59:54.559429 25293 net.cpp:132] Setting up fconv7b2_7to10_step2
I0204 18:59:54.578254 25293 net.cpp:139] Top shape: 4 128 56 56 (1605632)
I0204 18:59:54.578274 25293 layer_factory.hpp:74] Creating layer fconv7b2_8
I0204 18:59:54.578286 25293 net.cpp:102] Creating Layer fconv7b2_8
I0204 18:59:54.578294 25293 net.cpp:422] fconv7b2_8 <- fconv6_bn_drop6_0_split_25
I0204 18:59:54.578305 25293 net.cpp:380] fconv7b2_8 -> fconv7b2_8
I0204 18:59:54.578315 25293 net.cpp:132] Setting up fconv7b2_8
I0204 18:59:54.582339 25293 net.cpp:139] Top shape: 4 128 56 56 (1605632)
I0204 18:59:54.582355 25293 layer_factory.hpp:74] Creating layer Pass_3to8
I0204 18:59:54.582365 25293 net.cpp:102] Creating Layer Pass_3to8
I0204 18:59:54.582372 25293 net.cpp:422] Pass_3to8 <- fconv7b2_3to8_step2
I0204 18:59:54.582379 25293 net.cpp:422] Pass_3to8 <- fconv7b2_8
I0204 18:59:54.582387 25293 net.cpp:380] Pass_3to8 -> fconv7b2_8+
I0204 18:59:54.582396 25293 net.cpp:132] Setting up Pass_3to8
I0204 18:59:54.582403 25293 net.cpp:139] Top shape: 4 128 56 56 (1605632)
I0204 18:59:54.582408 25293 layer_factory.hpp:74] Creating layer relu7b2_8
I0204 18:59:54.582419 25293 net.cpp:102] Creating Layer relu7b2_8
I0204 18:59:54.582424 25293 net.cpp:422] relu7b2_8 <- fconv7b2_8+
I0204 18:59:54.582432 25293 net.cpp:369] relu7b2_8 -> fconv7b2_8+ (in-place)
I0204 18:59:54.582437 25293 net.cpp:132] Setting up relu7b2_8
I0204 18:59:54.582506 25293 net.cpp:139] Top shape: 4 128 56 56 (1605632)
I0204 18:59:54.582516 25293 layer_factory.hpp:74] Creating layer fconv7b2_8+_relu7b2_8_0_split
I0204 18:59:54.582525 25293 net.cpp:102] Creating Layer fconv7b2_8+_relu7b2_8_0_split
I0204 18:59:54.582531 25293 net.cpp:422] fconv7b2_8+_relu7b2_8_0_split <- fconv7b2_8+
I0204 18:59:54.582542 25293 net.cpp:380] fconv7b2_8+_relu7b2_8_0_split -> fconv7b2_8+_relu7b2_8_0_split_0
I0204 18:59:54.582552 25293 net.cpp:380] fconv7b2_8+_relu7b2_8_0_split -> fconv7b2_8+_relu7b2_8_0_split_1
I0204 18:59:54.582561 25293 net.cpp:132] Setting up fconv7b2_8+_relu7b2_8_0_split
I0204 18:59:54.582568 25293 net.cpp:139] Top shape: 4 128 56 56 (1605632)
I0204 18:59:54.582573 25293 net.cpp:139] Top shape: 4 128 56 56 (1605632)
I0204 18:59:54.582578 25293 layer_factory.hpp:74] Creating layer fconv7b2_8to9_step1
I0204 18:59:54.582589 25293 net.cpp:102] Creating Layer fconv7b2_8to9_step1
I0204 18:59:54.582598 25293 net.cpp:422] fconv7b2_8to9_step1 <- fconv7b2_8+_relu7b2_8_0_split_0
I0204 18:59:54.582608 25293 net.cpp:380] fconv7b2_8to9_step1 -> fconv7b2_8to9_step1
I0204 18:59:54.582617 25293 net.cpp:132] Setting up fconv7b2_8to9_step1
I0204 18:59:54.601436 25293 net.cpp:139] Top shape: 4 64 56 56 (802816)
I0204 18:59:54.601455 25293 layer_factory.hpp:74] Creating layer relu7b2_8to9_step1
I0204 18:59:54.601464 25293 net.cpp:102] Creating Layer relu7b2_8to9_step1
I0204 18:59:54.601475 25293 net.cpp:422] relu7b2_8to9_step1 <- fconv7b2_8to9_step1
I0204 18:59:54.601482 25293 net.cpp:369] relu7b2_8to9_step1 -> fconv7b2_8to9_step1 (in-place)
I0204 18:59:54.601490 25293 net.cpp:132] Setting up relu7b2_8to9_step1
I0204 18:59:54.601562 25293 net.cpp:139] Top shape: 4 64 56 56 (802816)
I0204 18:59:54.601572 25293 layer_factory.hpp:74] Creating layer fconv7b2_8to9_step2
I0204 18:59:54.601583 25293 net.cpp:102] Creating Layer fconv7b2_8to9_step2
I0204 18:59:54.601588 25293 net.cpp:422] fconv7b2_8to9_step2 <- fconv7b2_8to9_step1
I0204 18:59:54.601598 25293 net.cpp:380] fconv7b2_8to9_step2 -> fconv7b2_8to9_step2
I0204 18:59:54.601613 25293 net.cpp:132] Setting up fconv7b2_8to9_step2
I0204 18:59:54.620537 25293 net.cpp:139] Top shape: 4 128 56 56 (1605632)
I0204 18:59:54.620560 25293 layer_factory.hpp:74] Creating layer fconv7b2_9
I0204 18:59:54.620571 25293 net.cpp:102] Creating Layer fconv7b2_9
I0204 18:59:54.620579 25293 net.cpp:422] fconv7b2_9 <- fconv6_bn_drop6_0_split_26
I0204 18:59:54.620590 25293 net.cpp:380] fconv7b2_9 -> fconv7b2_9
I0204 18:59:54.620602 25293 net.cpp:132] Setting up fconv7b2_9
I0204 18:59:54.624635 25293 net.cpp:139] Top shape: 4 128 56 56 (1605632)
I0204 18:59:54.624651 25293 layer_factory.hpp:74] Creating layer Pass_8to9
I0204 18:59:54.624662 25293 net.cpp:102] Creating Layer Pass_8to9
I0204 18:59:54.624670 25293 net.cpp:422] Pass_8to9 <- fconv7b2_8to9_step2
I0204 18:59:54.624676 25293 net.cpp:422] Pass_8to9 <- fconv7b2_9
I0204 18:59:54.624683 25293 net.cpp:380] Pass_8to9 -> fconv7b2_9+
I0204 18:59:54.624691 25293 net.cpp:132] Setting up Pass_8to9
I0204 18:59:54.624699 25293 net.cpp:139] Top shape: 4 128 56 56 (1605632)
I0204 18:59:54.624704 25293 layer_factory.hpp:74] Creating layer relu7b2_9
I0204 18:59:54.624713 25293 net.cpp:102] Creating Layer relu7b2_9
I0204 18:59:54.624722 25293 net.cpp:422] relu7b2_9 <- fconv7b2_9+
I0204 18:59:54.624729 25293 net.cpp:369] relu7b2_9 -> fconv7b2_9+ (in-place)
I0204 18:59:54.624737 25293 net.cpp:132] Setting up relu7b2_9
I0204 18:59:54.624960 25293 net.cpp:139] Top shape: 4 128 56 56 (1605632)
I0204 18:59:54.624972 25293 layer_factory.hpp:74] Creating layer fconv7b2_9+_relu7b2_9_0_split
I0204 18:59:54.624984 25293 net.cpp:102] Creating Layer fconv7b2_9+_relu7b2_9_0_split
I0204 18:59:54.624989 25293 net.cpp:422] fconv7b2_9+_relu7b2_9_0_split <- fconv7b2_9+
I0204 18:59:54.624996 25293 net.cpp:380] fconv7b2_9+_relu7b2_9_0_split -> fconv7b2_9+_relu7b2_9_0_split_0
I0204 18:59:54.625005 25293 net.cpp:380] fconv7b2_9+_relu7b2_9_0_split -> fconv7b2_9+_relu7b2_9_0_split_1
I0204 18:59:54.625013 25293 net.cpp:132] Setting up fconv7b2_9+_relu7b2_9_0_split
I0204 18:59:54.625023 25293 net.cpp:139] Top shape: 4 128 56 56 (1605632)
I0204 18:59:54.625030 25293 net.cpp:139] Top shape: 4 128 56 56 (1605632)
I0204 18:59:54.625033 25293 layer_factory.hpp:74] Creating layer fconv7b2_9to18_step1
I0204 18:59:54.625042 25293 net.cpp:102] Creating Layer fconv7b2_9to18_step1
I0204 18:59:54.625051 25293 net.cpp:422] fconv7b2_9to18_step1 <- fconv7b2_9+_relu7b2_9_0_split_0
I0204 18:59:54.625061 25293 net.cpp:380] fconv7b2_9to18_step1 -> fconv7b2_9to18_step1
I0204 18:59:54.625071 25293 net.cpp:132] Setting up fconv7b2_9to18_step1
I0204 18:59:54.646517 25293 net.cpp:139] Top shape: 4 64 56 56 (802816)
I0204 18:59:54.646548 25293 layer_factory.hpp:74] Creating layer relu7b2_9to18_step1
I0204 18:59:54.646561 25293 net.cpp:102] Creating Layer relu7b2_9to18_step1
I0204 18:59:54.646577 25293 net.cpp:422] relu7b2_9to18_step1 <- fconv7b2_9to18_step1
I0204 18:59:54.646585 25293 net.cpp:369] relu7b2_9to18_step1 -> fconv7b2_9to18_step1 (in-place)
I0204 18:59:54.646594 25293 net.cpp:132] Setting up relu7b2_9to18_step1
I0204 18:59:54.646662 25293 net.cpp:139] Top shape: 4 64 56 56 (802816)
I0204 18:59:54.646672 25293 layer_factory.hpp:74] Creating layer fconv7b2_9to18_step2
I0204 18:59:54.646684 25293 net.cpp:102] Creating Layer fconv7b2_9to18_step2
I0204 18:59:54.646690 25293 net.cpp:422] fconv7b2_9to18_step2 <- fconv7b2_9to18_step1
I0204 18:59:54.646700 25293 net.cpp:380] fconv7b2_9to18_step2 -> fconv7b2_9to18_step2
I0204 18:59:54.646714 25293 net.cpp:132] Setting up fconv7b2_9to18_step2
I0204 18:59:54.665416 25293 net.cpp:139] Top shape: 4 128 56 56 (1605632)
I0204 18:59:54.665438 25293 layer_factory.hpp:74] Creating layer fconv7b2_11
I0204 18:59:54.665452 25293 net.cpp:102] Creating Layer fconv7b2_11
I0204 18:59:54.665460 25293 net.cpp:422] fconv7b2_11 <- fconv6_bn_drop6_0_split_27
I0204 18:59:54.665473 25293 net.cpp:380] fconv7b2_11 -> fconv7b2_11
I0204 18:59:54.665490 25293 net.cpp:132] Setting up fconv7b2_11
I0204 18:59:54.669515 25293 net.cpp:139] Top shape: 4 128 56 56 (1605632)
I0204 18:59:54.669531 25293 layer_factory.hpp:74] Creating layer Pass_2to11
I0204 18:59:54.669544 25293 net.cpp:102] Creating Layer Pass_2to11
I0204 18:59:54.669553 25293 net.cpp:422] Pass_2to11 <- fconv7b2_2to11_step2
I0204 18:59:54.669564 25293 net.cpp:422] Pass_2to11 <- fconv7b2_11
I0204 18:59:54.669572 25293 net.cpp:380] Pass_2to11 -> fconv7b2_11+
I0204 18:59:54.669582 25293 net.cpp:132] Setting up Pass_2to11
I0204 18:59:54.669591 25293 net.cpp:139] Top shape: 4 128 56 56 (1605632)
I0204 18:59:54.669596 25293 layer_factory.hpp:74] Creating layer relu7b2_11
I0204 18:59:54.669605 25293 net.cpp:102] Creating Layer relu7b2_11
I0204 18:59:54.669610 25293 net.cpp:422] relu7b2_11 <- fconv7b2_11+
I0204 18:59:54.669615 25293 net.cpp:369] relu7b2_11 -> fconv7b2_11+ (in-place)
I0204 18:59:54.669622 25293 net.cpp:132] Setting up relu7b2_11
I0204 18:59:54.669690 25293 net.cpp:139] Top shape: 4 128 56 56 (1605632)
I0204 18:59:54.669700 25293 layer_factory.hpp:74] Creating layer fconv7b2_11+_relu7b2_11_0_split
I0204 18:59:54.669710 25293 net.cpp:102] Creating Layer fconv7b2_11+_relu7b2_11_0_split
I0204 18:59:54.669715 25293 net.cpp:422] fconv7b2_11+_relu7b2_11_0_split <- fconv7b2_11+
I0204 18:59:54.669723 25293 net.cpp:380] fconv7b2_11+_relu7b2_11_0_split -> fconv7b2_11+_relu7b2_11_0_split_0
I0204 18:59:54.669734 25293 net.cpp:380] fconv7b2_11+_relu7b2_11_0_split -> fconv7b2_11+_relu7b2_11_0_split_1
I0204 18:59:54.669749 25293 net.cpp:380] fconv7b2_11+_relu7b2_11_0_split -> fconv7b2_11+_relu7b2_11_0_split_2
I0204 18:59:54.669756 25293 net.cpp:132] Setting up fconv7b2_11+_relu7b2_11_0_split
I0204 18:59:54.669764 25293 net.cpp:139] Top shape: 4 128 56 56 (1605632)
I0204 18:59:54.669770 25293 net.cpp:139] Top shape: 4 128 56 56 (1605632)
I0204 18:59:54.669775 25293 net.cpp:139] Top shape: 4 128 56 56 (1605632)
I0204 18:59:54.669781 25293 layer_factory.hpp:74] Creating layer fconv7b2_11to12_step1
I0204 18:59:54.669792 25293 net.cpp:102] Creating Layer fconv7b2_11to12_step1
I0204 18:59:54.669797 25293 net.cpp:422] fconv7b2_11to12_step1 <- fconv7b2_11+_relu7b2_11_0_split_0
I0204 18:59:54.669806 25293 net.cpp:380] fconv7b2_11to12_step1 -> fconv7b2_11to12_step1
I0204 18:59:54.669813 25293 net.cpp:132] Setting up fconv7b2_11to12_step1
I0204 18:59:54.688488 25293 net.cpp:139] Top shape: 4 64 56 56 (802816)
I0204 18:59:54.688504 25293 layer_factory.hpp:74] Creating layer relu7b2_11to12_step1
I0204 18:59:54.688515 25293 net.cpp:102] Creating Layer relu7b2_11to12_step1
I0204 18:59:54.688522 25293 net.cpp:422] relu7b2_11to12_step1 <- fconv7b2_11to12_step1
I0204 18:59:54.688529 25293 net.cpp:369] relu7b2_11to12_step1 -> fconv7b2_11to12_step1 (in-place)
I0204 18:59:54.688544 25293 net.cpp:132] Setting up relu7b2_11to12_step1
I0204 18:59:54.688612 25293 net.cpp:139] Top shape: 4 64 56 56 (802816)
I0204 18:59:54.688621 25293 layer_factory.hpp:74] Creating layer fconv7b2_11to12_step2
I0204 18:59:54.688638 25293 net.cpp:102] Creating Layer fconv7b2_11to12_step2
I0204 18:59:54.688647 25293 net.cpp:422] fconv7b2_11to12_step2 <- fconv7b2_11to12_step1
I0204 18:59:54.688657 25293 net.cpp:380] fconv7b2_11to12_step2 -> fconv7b2_11to12_step2
I0204 18:59:54.688665 25293 net.cpp:132] Setting up fconv7b2_11to12_step2
I0204 18:59:54.707422 25293 net.cpp:139] Top shape: 4 128 56 56 (1605632)
I0204 18:59:54.707439 25293 layer_factory.hpp:74] Creating layer fconv7b2_11to16_step1
I0204 18:59:54.707451 25293 net.cpp:102] Creating Layer fconv7b2_11to16_step1
I0204 18:59:54.707459 25293 net.cpp:422] fconv7b2_11to16_step1 <- fconv7b2_11+_relu7b2_11_0_split_1
I0204 18:59:54.707468 25293 net.cpp:380] fconv7b2_11to16_step1 -> fconv7b2_11to16_step1
I0204 18:59:54.707478 25293 net.cpp:132] Setting up fconv7b2_11to16_step1
I0204 18:59:54.726275 25293 net.cpp:139] Top shape: 4 64 56 56 (802816)
I0204 18:59:54.726299 25293 layer_factory.hpp:74] Creating layer relu7b2_11to16_step1
I0204 18:59:54.726310 25293 net.cpp:102] Creating Layer relu7b2_11to16_step1
I0204 18:59:54.726315 25293 net.cpp:422] relu7b2_11to16_step1 <- fconv7b2_11to16_step1
I0204 18:59:54.726323 25293 net.cpp:369] relu7b2_11to16_step1 -> fconv7b2_11to16_step1 (in-place)
I0204 18:59:54.726332 25293 net.cpp:132] Setting up relu7b2_11to16_step1
I0204 18:59:54.726562 25293 net.cpp:139] Top shape: 4 64 56 56 (802816)
I0204 18:59:54.726573 25293 layer_factory.hpp:74] Creating layer fconv7b2_11to16_step2
I0204 18:59:54.726585 25293 net.cpp:102] Creating Layer fconv7b2_11to16_step2
I0204 18:59:54.726596 25293 net.cpp:422] fconv7b2_11to16_step2 <- fconv7b2_11to16_step1
I0204 18:59:54.726606 25293 net.cpp:380] fconv7b2_11to16_step2 -> fconv7b2_11to16_step2
I0204 18:59:54.726616 25293 net.cpp:132] Setting up fconv7b2_11to16_step2
I0204 18:59:54.745415 25293 net.cpp:139] Top shape: 4 128 56 56 (1605632)
I0204 18:59:54.745432 25293 layer_factory.hpp:74] Creating layer fconv7b2_12
I0204 18:59:54.745445 25293 net.cpp:102] Creating Layer fconv7b2_12
I0204 18:59:54.745452 25293 net.cpp:422] fconv7b2_12 <- fconv6_bn_drop6_0_split_28
I0204 18:59:54.745462 25293 net.cpp:380] fconv7b2_12 -> fconv7b2_12
I0204 18:59:54.745472 25293 net.cpp:132] Setting up fconv7b2_12
I0204 18:59:54.749474 25293 net.cpp:139] Top shape: 4 128 56 56 (1605632)
I0204 18:59:54.749490 25293 layer_factory.hpp:74] Creating layer Pass_11to12
I0204 18:59:54.749500 25293 net.cpp:102] Creating Layer Pass_11to12
I0204 18:59:54.749506 25293 net.cpp:422] Pass_11to12 <- fconv7b2_11to12_step2
I0204 18:59:54.749512 25293 net.cpp:422] Pass_11to12 <- fconv7b2_12
I0204 18:59:54.749522 25293 net.cpp:380] Pass_11to12 -> fconv7b2_12+
I0204 18:59:54.749532 25293 net.cpp:132] Setting up Pass_11to12
I0204 18:59:54.749553 25293 net.cpp:139] Top shape: 4 128 56 56 (1605632)
I0204 18:59:54.749559 25293 layer_factory.hpp:74] Creating layer relu7b2_12
I0204 18:59:54.749567 25293 net.cpp:102] Creating Layer relu7b2_12
I0204 18:59:54.749572 25293 net.cpp:422] relu7b2_12 <- fconv7b2_12+
I0204 18:59:54.749580 25293 net.cpp:369] relu7b2_12 -> fconv7b2_12+ (in-place)
I0204 18:59:54.749588 25293 net.cpp:132] Setting up relu7b2_12
I0204 18:59:54.749656 25293 net.cpp:139] Top shape: 4 128 56 56 (1605632)
I0204 18:59:54.749665 25293 layer_factory.hpp:74] Creating layer fconv7b2_12+_relu7b2_12_0_split
I0204 18:59:54.749673 25293 net.cpp:102] Creating Layer fconv7b2_12+_relu7b2_12_0_split
I0204 18:59:54.749678 25293 net.cpp:422] fconv7b2_12+_relu7b2_12_0_split <- fconv7b2_12+
I0204 18:59:54.749687 25293 net.cpp:380] fconv7b2_12+_relu7b2_12_0_split -> fconv7b2_12+_relu7b2_12_0_split_0
I0204 18:59:54.749701 25293 net.cpp:380] fconv7b2_12+_relu7b2_12_0_split -> fconv7b2_12+_relu7b2_12_0_split_1
I0204 18:59:54.749709 25293 net.cpp:132] Setting up fconv7b2_12+_relu7b2_12_0_split
I0204 18:59:54.749716 25293 net.cpp:139] Top shape: 4 128 56 56 (1605632)
I0204 18:59:54.749722 25293 net.cpp:139] Top shape: 4 128 56 56 (1605632)
I0204 18:59:54.749727 25293 layer_factory.hpp:74] Creating layer fconv7b2_12to13_step1
I0204 18:59:54.749737 25293 net.cpp:102] Creating Layer fconv7b2_12to13_step1
I0204 18:59:54.749743 25293 net.cpp:422] fconv7b2_12to13_step1 <- fconv7b2_12+_relu7b2_12_0_split_0
I0204 18:59:54.749750 25293 net.cpp:380] fconv7b2_12to13_step1 -> fconv7b2_12to13_step1
I0204 18:59:54.749759 25293 net.cpp:132] Setting up fconv7b2_12to13_step1
I0204 18:59:54.768476 25293 net.cpp:139] Top shape: 4 64 56 56 (802816)
I0204 18:59:54.768492 25293 layer_factory.hpp:74] Creating layer relu7b2_12to13_step1
I0204 18:59:54.768501 25293 net.cpp:102] Creating Layer relu7b2_12to13_step1
I0204 18:59:54.768507 25293 net.cpp:422] relu7b2_12to13_step1 <- fconv7b2_12to13_step1
I0204 18:59:54.768514 25293 net.cpp:369] relu7b2_12to13_step1 -> fconv7b2_12to13_step1 (in-place)
I0204 18:59:54.768522 25293 net.cpp:132] Setting up relu7b2_12to13_step1
I0204 18:59:54.768596 25293 net.cpp:139] Top shape: 4 64 56 56 (802816)
I0204 18:59:54.768607 25293 layer_factory.hpp:74] Creating layer fconv7b2_12to13_step2
I0204 18:59:54.768620 25293 net.cpp:102] Creating Layer fconv7b2_12to13_step2
I0204 18:59:54.768625 25293 net.cpp:422] fconv7b2_12to13_step2 <- fconv7b2_12to13_step1
I0204 18:59:54.768633 25293 net.cpp:380] fconv7b2_12to13_step2 -> fconv7b2_12to13_step2
I0204 18:59:54.768641 25293 net.cpp:132] Setting up fconv7b2_12to13_step2
I0204 18:59:54.787380 25293 net.cpp:139] Top shape: 4 128 56 56 (1605632)
I0204 18:59:54.787396 25293 layer_factory.hpp:74] Creating layer fconv7b2_13
I0204 18:59:54.787407 25293 net.cpp:102] Creating Layer fconv7b2_13
I0204 18:59:54.787415 25293 net.cpp:422] fconv7b2_13 <- fconv6_bn_drop6_0_split_29
I0204 18:59:54.787425 25293 net.cpp:380] fconv7b2_13 -> fconv7b2_13
I0204 18:59:54.787437 25293 net.cpp:132] Setting up fconv7b2_13
I0204 18:59:54.791451 25293 net.cpp:139] Top shape: 4 128 56 56 (1605632)
I0204 18:59:54.791474 25293 layer_factory.hpp:74] Creating layer Pass_12to13
I0204 18:59:54.791484 25293 net.cpp:102] Creating Layer Pass_12to13
I0204 18:59:54.791491 25293 net.cpp:422] Pass_12to13 <- fconv7b2_12to13_step2
I0204 18:59:54.791496 25293 net.cpp:422] Pass_12to13 <- fconv7b2_13
I0204 18:59:54.791503 25293 net.cpp:380] Pass_12to13 -> fconv7b2_13+
I0204 18:59:54.791512 25293 net.cpp:132] Setting up Pass_12to13
I0204 18:59:54.791520 25293 net.cpp:139] Top shape: 4 128 56 56 (1605632)
I0204 18:59:54.791524 25293 layer_factory.hpp:74] Creating layer relu7b2_13
I0204 18:59:54.791532 25293 net.cpp:102] Creating Layer relu7b2_13
I0204 18:59:54.791537 25293 net.cpp:422] relu7b2_13 <- fconv7b2_13+
I0204 18:59:54.791550 25293 net.cpp:369] relu7b2_13 -> fconv7b2_13+ (in-place)
I0204 18:59:54.791558 25293 net.cpp:132] Setting up relu7b2_13
I0204 18:59:54.791630 25293 net.cpp:139] Top shape: 4 128 56 56 (1605632)
I0204 18:59:54.791641 25293 layer_factory.hpp:74] Creating layer fconv7b2_13+_relu7b2_13_0_split
I0204 18:59:54.791649 25293 net.cpp:102] Creating Layer fconv7b2_13+_relu7b2_13_0_split
I0204 18:59:54.791656 25293 net.cpp:422] fconv7b2_13+_relu7b2_13_0_split <- fconv7b2_13+
I0204 18:59:54.791662 25293 net.cpp:380] fconv7b2_13+_relu7b2_13_0_split -> fconv7b2_13+_relu7b2_13_0_split_0
I0204 18:59:54.791671 25293 net.cpp:380] fconv7b2_13+_relu7b2_13_0_split -> fconv7b2_13+_relu7b2_13_0_split_1
I0204 18:59:54.791678 25293 net.cpp:132] Setting up fconv7b2_13+_relu7b2_13_0_split
I0204 18:59:54.791685 25293 net.cpp:139] Top shape: 4 128 56 56 (1605632)
I0204 18:59:54.791692 25293 net.cpp:139] Top shape: 4 128 56 56 (1605632)
…
I0204 18:59:57.385397 25293 net.cpp:132] Setting up Pass_2to11
I0204 18:59:57.385406 25293 net.cpp:139] Top shape: 2 128 56 56 (802816)
I0204 18:59:57.385411 25293 layer_factory.hpp:74] Creating layer relu7b2_11
I0204 18:59:57.385429 25293 net.cpp:102] Creating Layer relu7b2_11
I0204 18:59:57.385434 25293 net.cpp:422] relu7b2_11 <- fconv7b2_11+
I0204 18:59:57.385440 25293 net.cpp:369] relu7b2_11 -> fconv7b2_11+ (in-place)
I0204 18:59:57.385447 25293 net.cpp:132] Setting up relu7b2_11
I0204 18:59:57.385669 25293 net.cpp:139] Top shape: 2 128 56 56 (802816)
I0204 18:59:57.385680 25293 layer_factory.hpp:74] Creating layer fconv7b2_11+_relu7b2_11_0_split
I0204 18:59:57.385687 25293 net.cpp:102] Creating Layer fconv7b2_11+_relu7b2_11_0_split
I0204 18:59:57.385692 25293 net.cpp:422] fconv7b2_11+_relu7b2_11_0_split <- fconv7b2_11+
I0204 18:59:57.385701 25293 net.cpp:380] fconv7b2_11+_relu7b2_11_0_split -> fconv7b2_11+_relu7b2_11_0_split_0
I0204 18:59:57.385710 25293 net.cpp:380] fconv7b2_11+_relu7b2_11_0_split -> fconv7b2_11+_relu7b2_11_0_split_1
I0204 18:59:57.385718 25293 net.cpp:380] fconv7b2_11+_relu7b2_11_0_split -> fconv7b2_11+_relu7b2_11_0_split_2
I0204 18:59:57.385726 25293 net.cpp:132] Setting up fconv7b2_11+_relu7b2_11_0_split
I0204 18:59:57.385733 25293 net.cpp:139] Top shape: 2 128 56 56 (802816)
I0204 18:59:57.385740 25293 net.cpp:139] Top shape: 2 128 56 56 (802816)
I0204 18:59:57.385745 25293 net.cpp:139] Top shape: 2 128 56 56 (802816)
I0204 18:59:57.385748 25293 layer_factory.hpp:74] Creating layer fconv7b2_11to12_step1
I0204 18:59:57.385758 25293 net.cpp:102] Creating Layer fconv7b2_11to12_step1
I0204 18:59:57.385766 25293 net.cpp:422] fconv7b2_11to12_step1 <- fconv7b2_11+_relu7b2_11_0_split_0
I0204 18:59:57.385772 25293 net.cpp:380] fconv7b2_11to12_step1 -> fconv7b2_11to12_step1
I0204 18:59:57.385779 25293 net.cpp:132] Setting up fconv7b2_11to12_step1
I0204 18:59:57.402883 25293 net.cpp:139] Top shape: 2 64 56 56 (401408)
I0204 18:59:57.402901 25293 layer_factory.hpp:74] Creating layer relu7b2_11to12_step1
I0204 18:59:57.402909 25293 net.cpp:102] Creating Layer relu7b2_11to12_step1
I0204 18:59:57.402928 25293 net.cpp:422] relu7b2_11to12_step1 <- fconv7b2_11to12_step1
I0204 18:59:57.402937 25293 net.cpp:369] relu7b2_11to12_step1 -> fconv7b2_11to12_step1 (in-place)
I0204 18:59:57.402945 25293 net.cpp:132] Setting up relu7b2_11to12_step1
I0204 18:59:57.403022 25293 net.cpp:139] Top shape: 2 64 56 56 (401408)
I0204 18:59:57.403031 25293 layer_factory.hpp:74] Creating layer fconv7b2_11to12_step2
I0204 18:59:57.403043 25293 net.cpp:102] Creating Layer fconv7b2_11to12_step2
I0204 18:59:57.403049 25293 net.cpp:422] fconv7b2_11to12_step2 <- fconv7b2_11to12_step1
I0204 18:59:57.403056 25293 net.cpp:380] fconv7b2_11to12_step2 -> fconv7b2_11to12_step2
I0204 18:59:57.403064 25293 net.cpp:132] Setting up fconv7b2_11to12_step2
I0204 18:59:57.419855 25293 net.cpp:139] Top shape: 2 128 56 56 (802816)
I0204 18:59:57.419868 25293 layer_factory.hpp:74] Creating layer fconv7b2_11to16_step1
I0204 18:59:57.419880 25293 net.cpp:102] Creating Layer fconv7b2_11to16_step1
I0204 18:59:57.419885 25293 net.cpp:422] fconv7b2_11to16_step1 <- fconv7b2_11+_relu7b2_11_0_split_1
I0204 18:59:57.419911 25293 net.cpp:380] fconv7b2_11to16_step1 -> fconv7b2_11to16_step1
I0204 18:59:57.419919 25293 net.cpp:132] Setting up fconv7b2_11to16_step1
I0204 18:59:57.437121 25293 net.cpp:139] Top shape: 2 64 56 56 (401408)
I0204 18:59:57.437135 25293 layer_factory.hpp:74] Creating layer relu7b2_11to16_step1
I0204 18:59:57.437147 25293 net.cpp:102] Creating Layer relu7b2_11to16_step1
I0204 18:59:57.437166 25293 net.cpp:422] relu7b2_11to16_step1 <- fconv7b2_11to16_step1
I0204 18:59:57.437172 25293 net.cpp:369] relu7b2_11to16_step1 -> fconv7b2_11to16_step1 (in-place)
I0204 18:59:57.437180 25293 net.cpp:132] Setting up relu7b2_11to16_step1
I0204 18:59:57.437259 25293 net.cpp:139] Top shape: 2 64 56 56 (401408)
I0204 18:59:57.437268 25293 layer_factory.hpp:74] Creating layer fconv7b2_11to16_step2
I0204 18:59:57.437281 25293 net.cpp:102] Creating Layer fconv7b2_11to16_step2
I0204 18:59:57.437288 25293 net.cpp:422] fconv7b2_11to16_step2 <- fconv7b2_11to16_step1
I0204 18:59:57.437296 25293 net.cpp:380] fconv7b2_11to16_step2 -> fconv7b2_11to16_step2
I0204 18:59:57.437304 25293 net.cpp:132] Setting up fconv7b2_11to16_step2
I0204 18:59:57.454392 25293 net.cpp:139] Top shape: 2 128 56 56 (802816)
I0204 18:59:57.454407 25293 layer_factory.hpp:74] Creating layer fconv7b2_12
I0204 18:59:57.454419 25293 net.cpp:102] Creating Layer fconv7b2_12
I0204 18:59:57.454438 25293 net.cpp:422] fconv7b2_12 <- fconv6_bn_drop6_0_split_28
I0204 18:59:57.454448 25293 net.cpp:380] fconv7b2_12 -> fconv7b2_12
I0204 18:59:57.454458 25293 net.cpp:132] Setting up fconv7b2_12
I0204 18:59:57.458091 25293 net.cpp:139] Top shape: 2 128 56 56 (802816)
I0204 18:59:57.458103 25293 layer_factory.hpp:74] Creating layer Pass_11to12
I0204 18:59:57.458125 25293 net.cpp:102] Creating Layer Pass_11to12
I0204 18:59:57.458130 25293 net.cpp:422] Pass_11to12 <- fconv7b2_11to12_step2
I0204 18:59:57.458137 25293 net.cpp:422] Pass_11to12 <- fconv7b2_12
I0204 18:59:57.458144 25293 net.cpp:380] Pass_11to12 -> fconv7b2_12+
I0204 18:59:57.458153 25293 net.cpp:132] Setting up Pass_11to12
I0204 18:59:57.458160 25293 net.cpp:139] Top shape: 2 128 56 56 (802816)
I0204 18:59:57.458165 25293 layer_factory.hpp:74] Creating layer relu7b2_12
I0204 18:59:57.458184 25293 net.cpp:102] Creating Layer relu7b2_12
I0204 18:59:57.458189 25293 net.cpp:422] relu7b2_12 <- fconv7b2_12+
I0204 18:59:57.458197 25293 net.cpp:369] relu7b2_12 -> fconv7b2_12+ (in-place)
I0204 18:59:57.458204 25293 net.cpp:132] Setting up relu7b2_12
I0204 18:59:57.458287 25293 net.cpp:139] Top shape: 2 128 56 56 (802816)
I0204 18:59:57.458297 25293 layer_factory.hpp:74] Creating layer fconv7b2_12+_relu7b2_12_0_split
I0204 18:59:57.458307 25293 net.cpp:102] Creating Layer fconv7b2_12+_relu7b2_12_0_split
I0204 18:59:57.458312 25293 net.cpp:422] fconv7b2_12+_relu7b2_12_0_split <- fconv7b2_12+
I0204 18:59:57.458318 25293 net.cpp:380] fconv7b2_12+_relu7b2_12_0_split -> fconv7b2_12+_relu7b2_12_0_split_0
I0204 18:59:57.458326 25293 net.cpp:380] fconv7b2_12+_relu7b2_12_0_split -> fconv7b2_12+_relu7b2_12_0_split_1
I0204 18:59:57.458333 25293 net.cpp:132] Setting up fconv7b2_12+_relu7b2_12_0_split
I0204 18:59:57.458343 25293 net.cpp:139] Top shape: 2 128 56 56 (802816)
I0204 18:59:57.458348 25293 net.cpp:139] Top shape: 2 128 56 56 (802816)
I0204 18:59:57.458353 25293 layer_factory.hpp:74] Creating layer fconv7b2_12to13_step1
I0204 18:59:57.458364 25293 net.cpp:102] Creating Layer fconv7b2_12to13_step1
I0204 18:59:57.458370 25293 net.cpp:422] fconv7b2_12to13_step1 <- fconv7b2_12+_relu7b2_12_0_split_0
I0204 18:59:57.458380 25293 net.cpp:380] fconv7b2_12to13_step1 -> fconv7b2_12to13_step1
I0204 18:59:57.458389 25293 net.cpp:132] Setting up fconv7b2_12to13_step1
I0204 18:59:57.475064 25293 net.cpp:139] Top shape: 2 64 56 56 (401408)
I0204 18:59:57.475091 25293 layer_factory.hpp:74] Creating layer relu7b2_12to13_step1
I0204 18:59:57.475101 25293 net.cpp:102] Creating Layer relu7b2_12to13_step1
I0204 18:59:57.475107 25293 net.cpp:422] relu7b2_12to13_step1 <- fconv7b2_12to13_step1
I0204 18:59:57.475113 25293 net.cpp:369] relu7b2_12to13_step1 -> fconv7b2_12to13_step1 (in-place)
I0204 18:59:57.475121 25293 net.cpp:132] Setting up relu7b2_12to13_step1
I0204 18:59:57.475360 25293 net.cpp:139] Top shape: 2 64 56 56 (401408)
I0204 18:59:57.475371 25293 layer_factory.hpp:74] Creating layer fconv7b2_12to13_step2
I0204 18:59:57.475383 25293 net.cpp:102] Creating Layer fconv7b2_12to13_step2
I0204 18:59:57.475389 25293 net.cpp:422] fconv7b2_12to13_step2 <- fconv7b2_12to13_step1
I0204 18:59:57.475399 25293 net.cpp:380] fconv7b2_12to13_step2 -> fconv7b2_12to13_step2
I0204 18:59:57.475414 25293 net.cpp:132] Setting up fconv7b2_12to13_step2
I0204 18:59:57.492594 25293 net.cpp:139] Top shape: 2 128 56 56 (802816)
I0204 18:59:57.492612 25293 layer_factory.hpp:74] Creating layer fconv7b2_13
I0204 18:59:57.492624 25293 net.cpp:102] Creating Layer fconv7b2_13
I0204 18:59:57.492642 25293 net.cpp:422] fconv7b2_13 <- fconv6_bn_drop6_0_split_29
I0204 18:59:57.492653 25293 net.cpp:380] fconv7b2_13 -> fconv7b2_13
I0204 18:59:57.492666 25293 net.cpp:132] Setting up fconv7b2_13
I0204 18:59:57.496371 25293 net.cpp:139] Top shape: 2 128 56 56 (802816)
I0204 18:59:57.496386 25293 layer_factory.hpp:74] Creating layer Pass_12to13
I0204 18:59:57.496393 25293 net.cpp:102] Creating Layer Pass_12to13
I0204 18:59:57.496412 25293 net.cpp:422] Pass_12to13 <- fconv7b2_12to13_step2
I0204 18:59:57.496419 25293 net.cpp:422] Pass_12to13 <- fconv7b2_13
I0204 18:59:57.496425 25293 net.cpp:380] Pass_12to13 -> fconv7b2_13+
I0204 18:59:57.496433 25293 net.cpp:132] Setting up Pass_12to13
I0204 18:59:57.496441 25293 net.cpp:139] Top shape: 2 128 56 56 (802816)
I0204 18:59:57.496445 25293 layer_factory.hpp:74] Creating layer relu7b2_13
I0204 18:59:57.496454 25293 net.cpp:102] Creating Layer relu7b2_13
I0204 18:59:57.496471 25293 net.cpp:422] relu7b2_13 <- fconv7b2_13+
I0204 18:59:57.496479 25293 net.cpp:369] relu7b2_13 -> fconv7b2_13+ (in-place)
I0204 18:59:57.496485 25293 net.cpp:132] Setting up relu7b2_13
I0204 18:59:57.496554 25293 net.cpp:139] Top shape: 2 128 56 56 (802816)
I0204 18:59:57.496564 25293 layer_factory.hpp:74] Creating layer fconv7b2_13+_relu7b2_13_0_split
I0204 18:59:57.496573 25293 net.cpp:102] Creating Layer fconv7b2_13+_relu7b2_13_0_split
I0204 18:59:57.496578 25293 net.cpp:422] fconv7b2_13+_relu7b2_13_0_split <- fconv7b2_13+
I0204 18:59:57.496584 25293 net.cpp:380] fconv7b2_13+_relu7b2_13_0_split -> fconv7b2_13+_relu7b2_13_0_split_0
I0204 18:59:57.496593 25293 net.cpp:380] fconv7b2_13+_relu7b2_13_0_split -> fconv7b2_13+_relu7b2_13_0_split_1
I0204 18:59:57.496600 25293 net.cpp:132] Setting up fconv7b2_13+_relu7b2_13_0_split
I0204 18:59:57.496608 25293 net.cpp:139] Top shape: 2 128 56 56 (802816)
I0204 18:59:57.496614 25293 net.cpp:139] Top shape: 2 128 56 56 (802816)
I0204 18:59:57.496618 25293 layer_factory.hpp:74] Creating layer fconv7b2_13to14_step1
I0204 18:59:57.496628 25293 net.cpp:102] Creating Layer fconv7b2_13to14_step1
I0204 18:59:57.496634 25293 net.cpp:422] fconv7b2_13to14_step1 <- fconv7b2_13+_relu7b2_13_0_split_0
I0204 18:59:57.496642 25293 net.cpp:380] fconv7b2_13to14_step1 -> fconv7b2_13to14_step1
I0204 18:59:57.496654 25293 net.cpp:132] Setting up fconv7b2_13to14_step1
I0204 18:59:57.513911 25293 net.cpp:139] Top shape: 2 64 56 56 (401408)
I0204 18:59:57.513926 25293 layer_factory.hpp:74] Creating layer relu7b2_13to14_step1
I0204 18:59:57.513933 25293 net.cpp:102] Creating Layer relu7b2_13to14_step1
I0204 18:59:57.513953 25293 net.cpp:422] relu7b2_13to14_step1 <- fconv7b2_13to14_step1
I0204 18:59:57.513960 25293 net.cpp:369] relu7b2_13to14_step1 -> fconv7b2_13to14_step1 (in-place)
I0204 18:59:57.513967 25293 net.cpp:132] Setting up relu7b2_13to14_step1
I0204 18:59:57.514049 25293 net.cpp:139] Top shape: 2 64 56 56 (401408)
I0204 18:59:57.514057 25293 layer_factory.hpp:74] Creating layer fconv7b2_13to14_step2
I0204 18:59:57.514070 25293 net.cpp:102] Creating Layer fconv7b2_13to14_step2
I0204 18:59:57.514075 25293 net.cpp:422] fconv7b2_13to14_step2 <- fconv7b2_13to14_step1
I0204 18:59:57.514084 25293 net.cpp:380] fconv7b2_13to14_step2 -> fconv7b2_13to14_step2
I0204 18:59:57.514096 25293 net.cpp:132] Setting up fconv7b2_13to14_step2
I0204 18:59:57.531211 25293 net.cpp:139] Top shape: 2 128 56 56 (802816)
I0204 18:59:57.531226 25293 layer_factory.hpp:74] Creating layer fconv7b2_14
I0204 18:59:57.531237 25293 net.cpp:102] Creating Layer fconv7b2_14
I0204 18:59:57.531256 25293 net.cpp:422] fconv7b2_14 <- fconv6_bn_drop6_0_split_30
I0204 18:59:57.531267 25293 net.cpp:380] fconv7b2_14 -> fconv7b2_14
I0204 18:59:57.531277 25293 net.cpp:132] Setting up fconv7b2_14
I0204 18:59:57.534935 25293 net.cpp:139] Top shape: 2 128 56 56 (802816)
I0204 18:59:57.534962 25293 layer_factory.hpp:74] Creating layer Pass_13to14
I0204 18:59:57.534973 25293 net.cpp:102] Creating Layer Pass_13to14
I0204 18:59:57.534978 25293 net.cpp:422] Pass_13to14 <- fconv7b2_13to14_step2
I0204 18:59:57.534984 25293 net.cpp:422] Pass_13to14 <- fconv7b2_14
I0204 18:59:57.534991 25293 net.cpp:380] Pass_13to14 -> fconv7b2_14+
I0204 18:59:57.534998 25293 net.cpp:132] Setting up Pass_13to14
I0204 18:59:57.535006 25293 net.cpp:139] Top shape: 2 128 56 56 (802816)
I0204 18:59:57.535009 25293 layer_factory.hpp:74] Creating layer relu7b2_14
I0204 18:59:57.535028 25293 net.cpp:102] Creating Layer relu7b2_14
I0204 18:59:57.535033 25293 net.cpp:422] relu7b2_14 <- fconv7b2_14+
I0204 18:59:57.535042 25293 net.cpp:369] relu7b2_14 -> fconv7b2_14+ (in-place)
I0204 18:59:57.535048 25293 net.cpp:132] Setting up relu7b2_14
I0204 18:59:57.535125 25293 net.cpp:139] Top shape: 2 128 56 56 (802816)
I0204 18:59:57.535133 25293 layer_factory.hpp:74] Creating layer fconv7b2_14+_relu7b2_14_0_split
I0204 18:59:57.535141 25293 net.cpp:102] Creating Layer fconv7b2_14+_relu7b2_14_0_split
I0204 18:59:57.535146 25293 net.cpp:422] fconv7b2_14+_relu7b2_14_0_split <- fconv7b2_14+
I0204 18:59:57.535156 25293 net.cpp:380] fconv7b2_14+_relu7b2_14_0_split -> fconv7b2_14+_relu7b2_14_0_split_0
I0204 18:59:57.535167 25293 net.cpp:380] fconv7b2_14+_relu7b2_14_0_split -> fconv7b2_14+_relu7b2_14_0_split_1
I0204 18:59:57.535176 25293 net.cpp:132] Setting up fconv7b2_14+_relu7b2_14_0_split
I0204 18:59:57.535182 25293 net.cpp:139] Top shape: 2 128 56 56 (802816)
I0204 18:59:57.535187 25293 net.cpp:139] Top shape: 2 128 56 56 (802816)
I0204 18:59:57.535192 25293 layer_factory.hpp:74] Creating layer fconv7b2_14to15_step1
I0204 18:59:57.535202 25293 net.cpp:102] Creating Layer fconv7b2_14to15_step1
I0204 18:59:57.535207 25293 net.cpp:422] fconv7b2_14to15_step1 <- fconv7b2_14+_relu7b2_14_0_split_0
I0204 18:59:57.535215 25293 net.cpp:380] fconv7b2_14to15_step1 -> fconv7b2_14to15_step1
I0204 18:59:57.535226 25293 net.cpp:132] Setting up fconv7b2_14to15_step1
I0204 18:59:57.552705 25293 net.cpp:139] Top shape: 2 64 56 56 (401408)
I0204 18:59:57.552732 25293 layer_factory.hpp:74] Creating layer relu7b2_14to15_step1
I0204 18:59:57.552742 25293 net.cpp:102] Creating Layer relu7b2_14to15_step1
I0204 18:59:57.552747 25293 net.cpp:422] relu7b2_14to15_step1 <- fconv7b2_14to15_step1
I0204 18:59:57.552753 25293 net.cpp:369] relu7b2_14to15_step1 -> fconv7b2_14to15_step1 (in-place)
I0204 18:59:57.552760 25293 net.cpp:132] Setting up relu7b2_14to15_step1
I0204 18:59:57.552973 25293 net.cpp:139] Top shape: 2 64 56 56 (401408)
I0204 18:59:57.552984 25293 layer_factory.hpp:74] Creating layer fconv7b2_14to15_step2
I0204 18:59:57.552995 25293 net.cpp:102] Creating Layer fconv7b2_14to15_step2
I0204 18:59:57.553001 25293 net.cpp:422] fconv7b2_14to15_step2 <- fconv7b2_14to15_step1
I0204 18:59:57.553014 25293 net.cpp:380] fconv7b2_14to15_step2 -> fconv7b2_14to15_step2
I0204 18:59:57.553022 25293 net.cpp:132] Setting up fconv7b2_14to15_step2
I0204 18:59:57.570659 25293 net.cpp:139] Top shape: 2 128 56 56 (802816)
I0204 18:59:57.570674 25293 layer_factory.hpp:74] Creating layer fconv7b2_15
I0204 18:59:57.570686 25293 net.cpp:102] Creating Layer fconv7b2_15
I0204 18:59:57.570693 25293 net.cpp:422] fconv7b2_15 <- fconv6_bn_drop6_0_split_31
I0204 18:59:57.570703 25293 net.cpp:380] fconv7b2_15 -> fconv7b2_15
I0204 18:59:57.570710 25293 net.cpp:132] Setting up fconv7b2_15
I0204 18:59:57.574414 25293 net.cpp:139] Top shape: 2 128 56 56 (802816)
I0204 18:59:57.574427 25293 layer_factory.hpp:74] Creating layer Pass_14to15
I0204 18:59:57.574435 25293 net.cpp:102] Creating Layer Pass_14to15
I0204 18:59:57.574440 25293 net.cpp:422] Pass_14to15 <- fconv7b2_14to15_step2
I0204 18:59:57.574460 25293 net.cpp:422] Pass_14to15 <- fconv7b2_15
I0204 18:59:57.574468 25293 net.cpp:380] Pass_14to15 -> fconv7b2_15+
I0204 18:59:57.574481 25293 net.cpp:132] Setting up Pass_14to15
I0204 18:59:57.574488 25293 net.cpp:139] Top shape: 2 128 56 56 (802816)
I0204 18:59:57.574493 25293 layer_factory.hpp:74] Creating layer relu7b2_15
I0204 18:59:57.574499 25293 net.cpp:102] Creating Layer relu7b2_15
I0204 18:59:57.574517 25293 net.cpp:422] relu7b2_15 <- fconv7b2_15+
I0204 18:59:57.574525 25293 net.cpp:369] relu7b2_15 -> fconv7b2_15+ (in-place)
I0204 18:59:57.574532 25293 net.cpp:132] Setting up relu7b2_15
I0204 18:59:57.574602 25293 net.cpp:139] Top shape: 2 128 56 56 (802816)
I0204 18:59:57.574611 25293 layer_factory.hpp:74] Creating layer fconv7b2_15+_relu7b2_15_0_split
I0204 18:59:57.574621 25293 net.cpp:102] Creating Layer fconv7b2_15+_relu7b2_15_0_split
I0204 18:59:57.574627 25293 net.cpp:422] fconv7b2_15+_relu7b2_15_0_split <- fconv7b2_15+
I0204 18:59:57.574633 25293 net.cpp:380] fconv7b2_15+_relu7b2_15_0_split -> fconv7b2_15+_relu7b2_15_0_split_0
I0204 18:59:57.574642 25293 net.cpp:380] fconv7b2_15+_relu7b2_15_0_split -> fconv7b2_15+_relu7b2_15_0_split_1
I0204 18:59:57.574650 25293 net.cpp:132] Setting up fconv7b2_15+_relu7b2_15_0_split
I0204 18:59:57.574657 25293 net.cpp:139] Top shape: 2 128 56 56 (802816)
I0204 18:59:57.574663 25293 net.cpp:139] Top shape: 2 128 56 56 (802816)
I0204 18:59:57.574667 25293 layer_factory.hpp:74] Creating layer fconv7b2_15to18_step1
I0204 18:59:57.574676 25293 net.cpp:102] Creating Layer fconv7b2_15to18_step1
I0204 18:59:57.574681 25293 net.cpp:422] fconv7b2_15to18_step1 <- fconv7b2_15+_relu7b2_15_0_split_0
I0204 18:59:57.574690 25293 net.cpp:380] fconv7b2_15to18_step1 -> fconv7b2_15to18_step1
I0204 18:59:57.574703 25293 net.cpp:132] Setting up fconv7b2_15to18_step1
I0204 18:59:57.592242 25293 net.cpp:139] Top shape: 2 64 56 56 (401408)
I0204 18:59:57.592257 25293 layer_factory.hpp:74] Creating layer relu7b2_15to18_step1
I0204 18:59:57.592267 25293 net.cpp:102] Creating Layer relu7b2_15to18_step1
I0204 18:59:57.592285 25293 net.cpp:422] relu7b2_15to18_step1 <- fconv7b2_15to18_step1
I0204 18:59:57.592293 25293 net.cpp:369] relu7b2_15to18_step1 -> fconv7b2_15to18_step1 (in-place)
I0204 18:59:57.592299 25293 net.cpp:132] Setting up relu7b2_15to18_step1
I0204 18:59:57.592366 25293 net.cpp:139] Top shape: 2 64 56 56 (401408)
I0204 18:59:57.592376 25293 layer_factory.hpp:74] Creating layer fconv7b2_15to18_step2
I0204 18:59:57.592506 25293 net.cpp:102] Creating Layer fconv7b2_15to18_step2
I0204 18:59:57.592515 25293 net.cpp:422] fconv7b2_15to18_step2 <- fconv7b2_15to18_step1
I0204 18:59:57.592524 25293 net.cpp:380] fconv7b2_15to18_step2 -> fconv7b2_15to18_step2
I0204 18:59:57.592532 25293 net.cpp:132] Setting up fconv7b2_15to18_step2
I0204 18:59:57.609694 25293 net.cpp:139] Top shape: 2 128 56 56 (802816)
I0204 18:59:57.609709 25293 layer_factory.hpp:74] Creating layer fconv7b2_16
I0204 18:59:57.609720 25293 net.cpp:102] Creating Layer fconv7b2_16
I0204 18:59:57.609741 25293 net.cpp:422] fconv7b2_16 <- fconv6_bn_drop6_0_split_32
I0204 18:59:57.609750 25293 net.cpp:380] fconv7b2_16 -> fconv7b2_16
I0204 18:59:57.609758 25293 net.cpp:132] Setting up fconv7b2_16
I0204 18:59:57.613461 25293 net.cpp:139] Top shape: 2 128 56 56 (802816)
I0204 18:59:57.613476 25293 layer_factory.hpp:74] Creating layer Pass_11to16
I0204 18:59:57.613484 25293 net.cpp:102] Creating Layer Pass_11to16
I0204 18:59:57.613503 25293 net.cpp:422] Pass_11to16 <- fconv7b2_11to16_step2
I0204 18:59:57.613510 25293 net.cpp:422] Pass_11to16 <- fconv7b2_16
I0204 18:59:57.613519 25293 net.cpp:380] Pass_11to16 -> fconv7b2_16+
I0204 18:59:57.613528 25293 net.cpp:132] Setting up Pass_11to16
I0204 18:59:57.613535 25293 net.cpp:139] Top shape: 2 128 56 56 (802816)
I0204 18:59:57.613543 25293 layer_factory.hpp:74] Creating layer relu7b2_16
I0204 18:59:57.613550 25293 net.cpp:102] Creating Layer relu7b2_16
I0204 18:59:57.613569 25293 net.cpp:422] relu7b2_16 <- fconv7b2_16+
I0204 18:59:57.613575 25293 net.cpp:369] relu7b2_16 -> fconv7b2_16+ (in-place)
I0204 18:59:57.613581 25293 net.cpp:132] Setting up relu7b2_16
I0204 18:59:57.613800 25293 net.cpp:139] Top shape: 2 128 56 56 (802816)
I0204 18:59:57.613811 25293 layer_factory.hpp:74] Creating layer fconv7b2_16+_relu7b2_16_0_split
I0204 18:59:57.613819 25293 net.cpp:102] Creating Layer fconv7b2_16+_relu7b2_16_0_split
I0204 18:59:57.613826 25293 net.cpp:422] fconv7b2_16+_relu7b2_16_0_split <- fconv7b2_16+
I0204 18:59:57.613832 25293 net.cpp:380] fconv7b2_16+_relu7b2_16_0_split -> fconv7b2_16+_relu7b2_16_0_split_0
I0204 18:59:57.613893 25293 net.cpp:380] fconv7b2_16+_relu7b2_16_0_split -> fconv7b2_16+_relu7b2_16_0_split_1
I0204 18:59:57.613903 25293 net.cpp:132] Setting up fconv7b2_16+_relu7b2_16_0_split
I0204 18:59:57.613914 25293 net.cpp:139] Top shape: 2 128 56 56 (802816)
I0204 18:59:57.613920 25293 net.cpp:139] Top shape: 2 128 56 56 (802816)
I0204 18:59:57.613924 25293 layer_factory.hpp:74] Creating layer fconv7b2_16to17_step1
I0204 18:59:57.613934 25293 net.cpp:102] Creating Layer fconv7b2_16to17_step1
I0204 18:59:57.613939 25293 net.cpp:422] fconv7b2_16to17_step1 <- fconv7b2_16+_relu7b2_16_0_split_0
I0204 18:59:57.613945 25293 net.cpp:380] fconv7b2_16to17_step1 -> fconv7b2_16to17_step1
I0204 18:59:57.613953 25293 net.cpp:132] Setting up fconv7b2_16to17_step1
I0204 18:59:57.631196 25293 net.cpp:139] Top shape: 2 64 56 56 (401408)
I0204 18:59:57.631211 25293 layer_factory.hpp:74] Creating layer relu7b2_16to17_step1
I0204 18:59:57.631217 25293 net.cpp:102] Creating Layer relu7b2_16to17_step1
I0204 18:59:57.631237 25293 net.cpp:422] relu7b2_16to17_step1 <- fconv7b2_16to17_step1
I0204 18:59:57.631243 25293 net.cpp:369] relu7b2_16to17_step1 -> fconv7b2_16to17_step1 (in-place)
I0204 18:59:57.631250 25293 net.cpp:132] Setting up relu7b2_16to17_step1
I0204 18:59:57.631331 25293 net.cpp:139] Top shape: 2 64 56 56 (401408)
I0204 18:59:57.631341 25293 layer_factory.hpp:74] Creating layer fconv7b2_16to17_step2
I0204 18:59:57.631352 25293 net.cpp:102] Creating Layer fconv7b2_16to17_step2
I0204 18:59:57.631361 25293 net.cpp:422] fconv7b2_16to17_step2 <- fconv7b2_16to17_step1
I0204 18:59:57.631368 25293 net.cpp:380] fconv7b2_16to17_step2 -> fconv7b2_16to17_step2
I0204 18:59:57.631376 25293 net.cpp:132] Setting up fconv7b2_16to17_step2
I0204 18:59:57.648493 25293 net.cpp:139] Top shape: 2 128 56 56 (802816)
I0204 18:59:57.648507 25293 layer_factory.hpp:74] Creating layer fconv7b2_17
I0204 18:59:57.648519 25293 net.cpp:102] Creating Layer fconv7b2_17
I0204 18:59:57.648536 25293 net.cpp:422] fconv7b2_17 <- fconv6_bn_drop6_0_split_33
I0204 18:59:57.648550 25293 net.cpp:380] fconv7b2_17 -> fconv7b2_17
I0204 18:59:57.648558 25293 net.cpp:132] Setting up fconv7b2_17
I0204 18:59:57.652303 25293 net.cpp:139] Top shape: 2 128 56 56 (802816)
I0204 18:59:57.652318 25293 layer_factory.hpp:74] Creating layer Pass_16to17
I0204 18:59:57.652339 25293 net.cpp:102] Creating Layer Pass_16to17
I0204 18:59:57.652345 25293 net.cpp:422] Pass_16to17 <- fconv7b2_16to17_step2
I0204 18:59:57.652351 25293 net.cpp:422] Pass_16to17 <- fconv7b2_17
I0204 18:59:57.652357 25293 net.cpp:380] Pass_16to17 -> fconv7b2_17+
I0204 18:59:57.652365 25293 net.cpp:132] Setting up Pass_16to17
I0204 18:59:57.652374 25293 net.cpp:139] Top shape: 2 128 56 56 (802816)
I0204 18:59:57.652377 25293 layer_factory.hpp:74] Creating layer relu7b2_17
I0204 18:59:57.652384 25293 net.cpp:102] Creating Layer relu7b2_17
I0204 18:59:57.652401 25293 net.cpp:422] relu7b2_17 <- fconv7b2_17+
I0204 18:59:57.652411 25293 net.cpp:369] relu7b2_17 -> fconv7b2_17+ (in-place)
I0204 18:59:57.652421 25293 net.cpp:132] Setting up relu7b2_17
I0204 18:59:57.652493 25293 net.cpp:139] Top shape: 2 128 56 56 (802816)
I0204 18:59:57.652501 25293 layer_factory.hpp:74] Creating layer fconv7b2_17+_relu7b2_17_0_split
I0204 18:59:57.652509 25293 net.cpp:102] Creating Layer fconv7b2_17+_relu7b2_17_0_split
I0204 18:59:57.652514 25293 net.cpp:422] fconv7b2_17+_relu7b2_17_0_split <- fconv7b2_17+
I0204 18:59:57.652521 25293 net.cpp:380] fconv7b2_17+_relu7b2_17_0_split -> fconv7b2_17+_relu7b2_17_0_split_0
I0204 18:59:57.652529 25293 net.cpp:380] fconv7b2_17+_relu7b2_17_0_split -> fconv7b2_17+_relu7b2_17_0_split_1
I0204 18:59:57.652536 25293 net.cpp:132] Setting up fconv7b2_17+_relu7b2_17_0_split
I0204 18:59:57.652549 25293 net.cpp:139] Top shape: 2 128 56 56 (802816)
I0204 18:59:57.652554 25293 net.cpp:139] Top shape: 2 128 56 56 (802816)
I0204 18:59:57.652559 25293 layer_factory.hpp:74] Creating layer fconv7b2_17to10_step1
I0204 18:59:57.652570 25293 net.cpp:102] Creating Layer fconv7b2_17to10_step1
I0204 18:59:57.652577 25293 net.cpp:422] fconv7b2_17to10_step1 <- fconv7b2_17+_relu7b2_17_0_split_0
I0204 18:59:57.652586 25293 net.cpp:380] fconv7b2_17to10_step1 -> fconv7b2_17to10_step1
I0204 18:59:57.652595 25293 net.cpp:132] Setting up fconv7b2_17to10_step1
I0204 18:59:57.669692 25293 net.cpp:139] Top shape: 2 64 56 56 (401408)
I0204 18:59:57.669706 25293 layer_factory.hpp:74] Creating layer relu7b2_17to10_step1
I0204 18:59:57.669713 25293 net.cpp:102] Creating Layer relu7b2_17to10_step1
I0204 18:59:57.669731 25293 net.cpp:422] relu7b2_17to10_step1 <- fconv7b2_17to10_step1
I0204 18:59:57.669741 25293 net.cpp:369] relu7b2_17to10_step1 -> fconv7b2_17to10_step1 (in-place)
I0204 18:59:57.669749 25293 net.cpp:132] Setting up relu7b2_17to10_step1
I0204 18:59:57.669827 25293 net.cpp:139] Top shape: 2 64 56 56 (401408)
I0204 18:59:57.669837 25293 layer_factory.hpp:74] Creating layer fconv7b2_17to10_step2
I0204 18:59:57.669848 25293 net.cpp:102] Creating Layer fconv7b2_17to10_step2
I0204 18:59:57.669854 25293 net.cpp:422] fconv7b2_17to10_step2 <- fconv7b2_17to10_step1
I0204 18:59:57.669864 25293 net.cpp:380] fconv7b2_17to10_step2 -> fconv7b2_17to10_step2
I0204 18:59:57.669872 25293 net.cpp:132] Setting up fconv7b2_17to10_step2
I0204 18:59:57.687062 25293 net.cpp:139] Top shape: 2 128 56 56 (802816)
I0204 18:59:57.687075 25293 layer_factory.hpp:74] Creating layer fconv7b2_10
I0204 18:59:57.687088 25293 net.cpp:102] Creating Layer fconv7b2_10
I0204 18:59:57.687106 25293 net.cpp:422] fconv7b2_10 <- fconv6_bn_drop6_0_split_34
I0204 18:59:57.687116 25293 net.cpp:380] fconv7b2_10 -> fconv7b2_10
I0204 18:59:57.687125 25293 net.cpp:132] Setting up fconv7b2_10
I0204 18:59:57.690809 25293 net.cpp:139] Top shape: 2 128 56 56 (802816)
I0204 18:59:57.690836 25293 layer_factory.hpp:74] Creating layer Pass_9to10
I0204 18:59:57.690845 25293 net.cpp:102] Creating Layer Pass_9to10
I0204 18:59:57.690850 25293 net.cpp:422] Pass_9to10 <- fconv7b2_17to10_step2
I0204 18:59:57.690857 25293 net.cpp:422] Pass_9to10 <- fconv7b2_7to10_step2
I0204 18:59:57.690865 25293 net.cpp:422] Pass_9to10 <- fconv7b2_10
I0204 18:59:57.690872 25293 net.cpp:380] Pass_9to10 -> fconv7b2_10+
I0204 18:59:57.690881 25293 net.cpp:132] Setting up Pass_9to10
I0204 18:59:57.690901 25293 net.cpp:139] Top shape: 2 128 56 56 (802816)
I0204 18:59:57.690907 25293 layer_factory.hpp:74] Creating layer relu7b2_10
I0204 18:59:57.690913 25293 net.cpp:102] Creating Layer relu7b2_10
I0204 18:59:57.690918 25293 net.cpp:422] relu7b2_10 <- fconv7b2_10+
I0204 18:59:57.690925 25293 net.cpp:369] relu7b2_10 -> fconv7b2_10+ (in-place)
I0204 18:59:57.690932 25293 net.cpp:132] Setting up relu7b2_10
I0204 18:59:57.691175 25293 net.cpp:139] Top shape: 2 128 56 56 (802816)
I0204 18:59:57.691189 25293 layer_factory.hpp:74] Creating layer fconv7b2_18
I0204 18:59:57.691200 25293 net.cpp:102] Creating Layer fconv7b2_18
I0204 18:59:57.691205 25293 net.cpp:422] fconv7b2_18 <- fconv6_bn_drop6_0_split_35
I0204 18:59:57.691212 25293 net.cpp:380] fconv7b2_18 -> fconv7b2_18
I0204 18:59:57.691221 25293 net.cpp:132] Setting up fconv7b2_18
I0204 18:59:57.695096 25293 net.cpp:139] Top shape: 2 128 56 56 (802816)
I0204 18:59:57.695122 25293 layer_factory.hpp:74] Creating layer Pass_17to18
I0204 18:59:57.695133 25293 net.cpp:102] Creating Layer Pass_17to18
I0204 18:59:57.695140 25293 net.cpp:422] Pass_17to18 <- fconv7b2_9to18_step2
I0204 18:59:57.695147 25293 net.cpp:422] Pass_17to18 <- fconv7b2_15to18_step2
I0204 18:59:57.695152 25293 net.cpp:422] Pass_17to18 <- fconv7b2_18
I0204 18:59:57.695159 25293 net.cpp:380] Pass_17to18 -> fconv7b2_18+
I0204 18:59:57.695168 25293 net.cpp:132] Setting up Pass_17to18
I0204 18:59:57.695188 25293 net.cpp:139] Top shape: 2 128 56 56 (802816)
I0204 18:59:57.695194 25293 layer_factory.hpp:74] Creating layer relu7b2_18
I0204 18:59:57.695200 25293 net.cpp:102] Creating Layer relu7b2_18
I0204 18:59:57.695205 25293 net.cpp:422] relu7b2_18 <- fconv7b2_18+
I0204 18:59:57.695214 25293 net.cpp:369] relu7b2_18 -> fconv7b2_18+ (in-place)
I0204 18:59:57.695220 25293 net.cpp:132] Setting up relu7b2_18
I0204 18:59:57.695291 25293 net.cpp:139] Top shape: 2 128 56 56 (802816)
I0204 18:59:57.695300 25293 layer_factory.hpp:74] Creating layer fconv7b2_19
I0204 18:59:57.695308 25293 net.cpp:102] Creating Layer fconv7b2_19
I0204 18:59:57.695313 25293 net.cpp:422] fconv7b2_19 <- fconv6_bn_drop6_0_split_36
I0204 18:59:57.695323 25293 net.cpp:380] fconv7b2_19 -> fconv7b2_19
I0204 18:59:57.695333 25293 net.cpp:132] Setting up fconv7b2_19
I0204 18:59:57.709007 25293 net.cpp:139] Top shape: 2 512 56 56 (3211264)
I0204 18:59:57.709022 25293 layer_factory.hpp:74] Creating layer relu7b2_19
I0204 18:59:57.709029 25293 net.cpp:102] Creating Layer relu7b2_19
I0204 18:59:57.709034 25293 net.cpp:422] relu7b2_19 <- fconv7b2_19
I0204 18:59:57.709056 25293 net.cpp:369] relu7b2_19 -> fconv7b2_19 (in-place)
I0204 18:59:57.709064 25293 net.cpp:132] Setting up relu7b2_19
I0204 18:59:57.709143 25293 net.cpp:139] Top shape: 2 512 56 56 (3211264)
I0204 18:59:57.709152 25293 layer_factory.hpp:74] Creating layer drop7_19
I0204 18:59:57.709163 25293 net.cpp:102] Creating Layer drop7_19
I0204 18:59:57.709169 25293 net.cpp:422] drop7_19 <- fconv7b2_19
I0204 18:59:57.709175 25293 net.cpp:369] drop7_19 -> fconv7b2_19 (in-place)
I0204 18:59:57.709182 25293 net.cpp:132] Setting up drop7_19
I0204 18:59:57.709195 25293 net.cpp:139] Top shape: 2 512 56 56 (3211264)
I0204 18:59:57.709203 25293 layer_factory.hpp:74] Creating layer fconv8_19
I0204 18:59:57.709213 25293 net.cpp:102] Creating Layer fconv8_19
I0204 18:59:57.709218 25293 net.cpp:422] fconv8_19 <- fconv7b2_19
I0204 18:59:57.709225 25293 net.cpp:380] fconv8_19 -> fconv8_19
I0204 18:59:57.709233 25293 net.cpp:132] Setting up fconv8_19
I0204 18:59:57.709647 25293 net.cpp:139] Top shape: 2 1 56 56 (6272)
I0204 18:59:57.709661 25293 layer_factory.hpp:74] Creating layer fconv7_1_concat
I0204 18:59:57.709669 25293 net.cpp:102] Creating Layer fconv7_1_concat
I0204 18:59:57.709691 25293 net.cpp:422] fconv7_1_concat <- fconv7_1+
I0204 18:59:57.709697 25293 net.cpp:422] fconv7_1_concat <- fconv7b2_1+_relu7b2_1_0_split_1
I0204 18:59:57.709707 25293 net.cpp:380] fconv7_1_concat -> fconv7_1_concat
I0204 18:59:57.709715 25293 net.cpp:132] Setting up fconv7_1_concat
I0204 18:59:57.709723 25293 net.cpp:139] Top shape: 2 256 56 56 (1605632)
I0204 18:59:57.709733 25293 layer_factory.hpp:74] Creating layer fconv7_2_concat
I0204 18:59:57.709743 25293 net.cpp:102] Creating Layer fconv7_2_concat
I0204 18:59:57.709748 25293 net.cpp:422] fconv7_2_concat <- fconv7_2+_relu7_2_0_split_1
I0204 18:59:57.709754 25293 net.cpp:422] fconv7_2_concat <- fconv7b2_2+_relu7b2_2_0_split_2
I0204 18:59:57.709763 25293 net.cpp:380] fconv7_2_concat -> fconv7_2_concat
I0204 18:59:57.709769 25293 net.cpp:132] Setting up fconv7_2_concat
I0204 18:59:57.709776 25293 net.cpp:139] Top shape: 2 256 56 56 (1605632)
I0204 18:59:57.709781 25293 layer_factory.hpp:74] Creating layer fconv7_3_concat
I0204 18:59:57.709789 25293 net.cpp:102] Creating Layer fconv7_3_concat
I0204 18:59:57.709795 25293 net.cpp:422] fconv7_3_concat <- fconv7_3+_relu7_3_0_split_1
I0204 18:59:57.709802 25293 net.cpp:422] fconv7_3_concat <- fconv7b2_3+_relu7b2_3_0_split_2
I0204 18:59:57.709810 25293 net.cpp:380] fconv7_3_concat -> fconv7_3_concat
I0204 18:59:57.709817 25293 net.cpp:132] Setting up fconv7_3_concat
I0204 18:59:57.709825 25293 net.cpp:139] Top shape: 2 256 56 56 (1605632)
I0204 18:59:57.709828 25293 layer_factory.hpp:74] Creating layer fconv7_4_concat
I0204 18:59:57.709836 25293 net.cpp:102] Creating Layer fconv7_4_concat
I0204 18:59:57.709841 25293 net.cpp:422] fconv7_4_concat <- fconv7_4+_relu7_4_0_split_1
I0204 18:59:57.709846 25293 net.cpp:422] fconv7_4_concat <- fconv7b2_4+_relu7b2_4_0_split_1
I0204 18:59:57.709853 25293 net.cpp:380] fconv7_4_concat -> fconv7_4_concat
I0204 18:59:57.709861 25293 net.cpp:132] Setting up fconv7_4_concat
I0204 18:59:57.709867 25293 net.cpp:139] Top shape: 2 256 56 56 (1605632)
I0204 18:59:57.709872 25293 layer_factory.hpp:74] Creating layer fconv7_5_concat
I0204 18:59:57.709879 25293 net.cpp:102] Creating Layer fconv7_5_concat
I0204 18:59:57.709885 25293 net.cpp:422] fconv7_5_concat <- fconv7_5+_relu7_5_0_split_1
I0204 18:59:57.709892 25293 net.cpp:422] fconv7_5_concat <- fconv7b2_5+_relu7b2_5_0_split_1
I0204 18:59:57.709898 25293 net.cpp:380] fconv7_5_concat -> fconv7_5_concat
I0204 18:59:57.709904 25293 net.cpp:132] Setting up fconv7_5_concat
I0204 18:59:57.709911 25293 net.cpp:139] Top shape: 2 256 56 56 (1605632)
I0204 18:59:57.709915 25293 layer_factory.hpp:74] Creating layer fconv7_6_concat
I0204 18:59:57.709923 25293 net.cpp:102] Creating Layer fconv7_6_concat
I0204 18:59:57.709928 25293 net.cpp:422] fconv7_6_concat <- fconv7_6+_relu7_6_0_split_1
I0204 18:59:57.709934 25293 net.cpp:422] fconv7_6_concat <- fconv7b2_6+_relu7b2_6_0_split_1
I0204 18:59:57.709941 25293 net.cpp:380] fconv7_6_concat -> fconv7_6_concat
I0204 18:59:57.709949 25293 net.cpp:132] Setting up fconv7_6_concat
I0204 18:59:57.709955 25293 net.cpp:139] Top shape: 2 256 56 56 (1605632)
I0204 18:59:57.709959 25293 layer_factory.hpp:74] Creating layer fconv7_7_concat
I0204 18:59:57.709966 25293 net.cpp:102] Creating Layer fconv7_7_concat
I0204 18:59:57.709971 25293 net.cpp:422] fconv7_7_concat <- fconv7_7+_relu7_7_0_split_1
I0204 18:59:57.709976 25293 net.cpp:422] fconv7_7_concat <- fconv7b2_7+_relu7b2_7_0_split_1
I0204 18:59:57.709985 25293 net.cpp:380] fconv7_7_concat -> fconv7_7_concat
I0204 18:59:57.709992 25293 net.cpp:132] Setting up fconv7_7_concat
I0204 18:59:57.709998 25293 net.cpp:139] Top shape: 2 256 56 56 (1605632)
I0204 18:59:57.710003 25293 layer_factory.hpp:74] Creating layer fconv7_8_concat
I0204 18:59:57.710010 25293 net.cpp:102] Creating Layer fconv7_8_concat
I0204 18:59:57.710013 25293 net.cpp:422] fconv7_8_concat <- fconv7_8+_relu7_8_0_split_1
I0204 18:59:57.710021 25293 net.cpp:422] fconv7_8_concat <- fconv7b2_8+_relu7b2_8_0_split_1
I0204 18:59:57.710028 25293 net.cpp:380] fconv7_8_concat -> fconv7_8_concat
I0204 18:59:57.710036 25293 net.cpp:132] Setting up fconv7_8_concat
I0204 18:59:57.710042 25293 net.cpp:139] Top shape: 2 256 56 56 (1605632)
I0204 18:59:57.710047 25293 layer_factory.hpp:74] Creating layer fconv7_9_concat
I0204 18:59:57.710054 25293 net.cpp:102] Creating Layer fconv7_9_concat
I0204 18:59:57.710058 25293 net.cpp:422] fconv7_9_concat <- fconv7_9+_relu7_9_0_split_1
I0204 18:59:57.710064 25293 net.cpp:422] fconv7_9_concat <- fconv7b2_9+_relu7b2_9_0_split_1
I0204 18:59:57.710072 25293 net.cpp:380] fconv7_9_concat -> fconv7_9_concat
I0204 18:59:57.710078 25293 net.cpp:132] Setting up fconv7_9_concat
I0204 18:59:57.710084 25293 net.cpp:139] Top shape: 2 256 56 56 (1605632)
I0204 18:59:57.710088 25293 layer_factory.hpp:74] Creating layer fconv7_10_concat
I0204 18:59:57.710095 25293 net.cpp:102] Creating Layer fconv7_10_concat
I0204 18:59:57.710100 25293 net.cpp:422] fconv7_10_concat <- fconv7_10+_relu7_10_0_split_1
I0204 18:59:57.710106 25293 net.cpp:422] fconv7_10_concat <- fconv7b2_10+
I0204 18:59:57.710115 25293 net.cpp:380] fconv7_10_concat -> fconv7_10_concat
I0204 18:59:57.710122 25293 net.cpp:132] Setting up fconv7_10_concat
I0204 18:59:57.710129 25293 net.cpp:139] Top shape: 2 256 56 56 (1605632)
I0204 18:59:57.710134 25293 layer_factory.hpp:74] Creating layer fconv7_11_concat
I0204 18:59:57.710139 25293 net.cpp:102] Creating Layer fconv7_11_concat
I0204 18:59:57.710144 25293 net.cpp:422] fconv7_11_concat <- fconv7_11+_relu7_11_0_split_1
I0204 18:59:57.710150 25293 net.cpp:422] fconv7_11_concat <- fconv7b2_11+_relu7b2_11_0_split_2
I0204 18:59:57.710160 25293 net.cpp:380] fconv7_11_concat -> fconv7_11_concat
I0204 18:59:57.710168 25293 net.cpp:132] Setting up fconv7_11_concat
I0204 18:59:57.710175 25293 net.cpp:139] Top shape: 2 256 56 56 (1605632)
I0204 18:59:57.710180 25293 layer_factory.hpp:74] Creating layer fconv7_12_concat
I0204 18:59:57.710186 25293 net.cpp:102] Creating Layer fconv7_12_concat
I0204 18:59:57.710191 25293 net.cpp:422] fconv7_12_concat <- fconv7_12+_relu7_12_0_split_1
I0204 18:59:57.710197 25293 net.cpp:422] fconv7_12_concat <- fconv7b2_12+_relu7b2_12_0_split_1
I0204 18:59:57.710203 25293 net.cpp:380] fconv7_12_concat -> fconv7_12_concat
I0204 18:59:57.710211 25293 net.cpp:132] Setting up fconv7_12_concat
I0204 18:59:57.710217 25293 net.cpp:139] Top shape: 2 256 56 56 (1605632)
I0204 18:59:57.710222 25293 layer_factory.hpp:74] Creating layer fconv7_13_concat
I0204 18:59:57.710230 25293 net.cpp:102] Creating Layer fconv7_13_concat
I0204 18:59:57.710237 25293 net.cpp:422] fconv7_13_concat <- fconv7_13+_relu7_13_0_split_1
I0204 18:59:57.710242 25293 net.cpp:422] fconv7_13_concat <- fconv7b2_13+_relu7b2_13_0_split_1
I0204 18:59:57.710249 25293 net.cpp:380] fconv7_13_concat -> fconv7_13_concat
I0204 18:59:57.710257 25293 net.cpp:132] Setting up fconv7_13_concat
I0204 18:59:57.710263 25293 net.cpp:139] Top shape: 2 256 56 56 (1605632)
I0204 18:59:57.710268 25293 layer_factory.hpp:74] Creating layer fconv7_14_concat
I0204 18:59:57.710275 25293 net.cpp:102] Creating Layer fconv7_14_concat
I0204 18:59:57.710280 25293 net.cpp:422] fconv7_14_concat <- fconv7_14+_relu7_14_0_split_1
I0204 18:59:57.710286 25293 net.cpp:422] fconv7_14_concat <- fconv7b2_14+_relu7b2_14_0_split_1
I0204 18:59:57.710294 25293 net.cpp:380] fconv7_14_concat -> fconv7_14_concat
I0204 18:59:57.710300 25293 net.cpp:132] Setting up fconv7_14_concat
I0204 18:59:57.710306 25293 net.cpp:139] Top shape: 2 256 56 56 (1605632)
I0204 18:59:57.710311 25293 layer_factory.hpp:74] Creating layer fconv7_15_concat
I0204 18:59:57.710317 25293 net.cpp:102] Creating Layer fconv7_15_concat
I0204 18:59:57.710322 25293 net.cpp:422] fconv7_15_concat <- fconv7_15+_relu7_15_0_split_1
I0204 18:59:57.710327 25293 net.cpp:422] fconv7_15_concat <- fconv7b2_15+_relu7b2_15_0_split_1
I0204 18:59:57.710336 25293 net.cpp:380] fconv7_15_concat -> fconv7_15_concat
I0204 18:59:57.710345 25293 net.cpp:132] Setting up fconv7_15_concat
I0204 18:59:57.710350 25293 net.cpp:139] Top shape: 2 256 56 56 (1605632)
I0204 18:59:57.710355 25293 layer_factory.hpp:74] Creating layer fconv7_16_concat
I0204 18:59:57.710361 25293 net.cpp:102] Creating Layer fconv7_16_concat
I0204 18:59:57.710366 25293 net.cpp:422] fconv7_16_concat <- fconv7_16+_relu7_16_0_split_1
I0204 18:59:57.710372 25293 net.cpp:422] fconv7_16_concat <- fconv7b2_16+_relu7b2_16_0_split_1
I0204 18:59:57.710379 25293 net.cpp:380] fconv7_16_concat -> fconv7_16_concat
I0204 18:59:57.710386 25293 net.cpp:132] Setting up fconv7_16_concat
I0204 18:59:57.710392 25293 net.cpp:139] Top shape: 2 256 56 56 (1605632)
I0204 18:59:57.710397 25293 layer_factory.hpp:74] Creating layer fconv7_17_concat
I0204 18:59:57.710403 25293 net.cpp:102] Creating Layer fconv7_17_concat
I0204 18:59:57.710408 25293 net.cpp:422] fconv7_17_concat <- fconv7_17+_relu7_17_0_split_1
I0204 18:59:57.710414 25293 net.cpp:422] fconv7_17_concat <- fconv7b2_17+_relu7b2_17_0_split_1
I0204 18:59:57.710422 25293 net.cpp:380] fconv7_17_concat -> fconv7_17_concat
I0204 18:59:57.710428 25293 net.cpp:132] Setting up fconv7_17_concat
I0204 18:59:57.710434 25293 net.cpp:139] Top shape: 2 256 56 56 (1605632)
I0204 18:59:57.710439 25293 layer_factory.hpp:74] Creating layer fconv7_18_concat
I0204 18:59:57.710445 25293 net.cpp:102] Creating Layer fconv7_18_concat
I0204 18:59:57.710449 25293 net.cpp:422] fconv7_18_concat <- fconv7_18+_relu7_18_0_split_1
I0204 18:59:57.710455 25293 net.cpp:422] fconv7_18_concat <- fconv7b2_18+
I0204 18:59:57.710464 25293 net.cpp:380] fconv7_18_concat -> fconv7_18_concat
I0204 18:59:57.710471 25293 net.cpp:132] Setting up fconv7_18_concat
I0204 18:59:57.710477 25293 net.cpp:139] Top shape: 2 256 56 56 (1605632)
I0204 18:59:57.710482 25293 layer_factory.hpp:74] Creating layer fconv8_1
I0204 18:59:57.710490 25293 net.cpp:102] Creating Layer fconv8_1
I0204 18:59:57.710495 25293 net.cpp:422] fconv8_1 <- fconv7_1_concat
I0204 18:59:57.710502 25293 net.cpp:380] fconv8_1 -> fconv8_1
I0204 18:59:57.710515 25293 net.cpp:132] Setting up fconv8_1
I0204 18:59:57.710983 25293 net.cpp:139] Top shape: 2 13 56 56 (81536)
I0204 18:59:57.710997 25293 layer_factory.hpp:74] Creating layer fconv8_2
I0204 18:59:57.711009 25293 net.cpp:102] Creating Layer fconv8_2
I0204 18:59:57.711016 25293 net.cpp:422] fconv8_2 <- fconv7_2_concat
I0204 18:59:57.711024 25293 net.cpp:380] fconv8_2 -> fconv8_2
I0204 18:59:57.711032 25293 net.cpp:132] Setting up fconv8_2
I0204 18:59:57.711597 25293 net.cpp:139] Top shape: 2 13 56 56 (81536)
I0204 18:59:57.711611 25293 layer_factory.hpp:74] Creating layer fconv8_3
I0204 18:59:57.711622 25293 net.cpp:102] Creating Layer fconv8_3
I0204 18:59:57.711628 25293 net.cpp:422] fconv8_3 <- fconv7_3_concat
I0204 18:59:57.711637 25293 net.cpp:380] fconv8_3 -> fconv8_3
I0204 18:59:57.711644 25293 net.cpp:132] Setting up fconv8_3
I0204 18:59:57.712178 25293 net.cpp:139] Top shape: 2 13 56 56 (81536)
I0204 18:59:57.712191 25293 layer_factory.hpp:74] Creating layer fconv8_4
I0204 18:59:57.712204 25293 net.cpp:102] Creating Layer fconv8_4
I0204 18:59:57.712209 25293 net.cpp:422] fconv8_4 <- fconv7_4_concat
I0204 18:59:57.712218 25293 net.cpp:380] fconv8_4 -> fconv8_4
I0204 18:59:57.712225 25293 net.cpp:132] Setting up fconv8_4
I0204 18:59:57.712723 25293 net.cpp:139] Top shape: 2 13 56 56 (81536)
I0204 18:59:57.712738 25293 layer_factory.hpp:74] Creating layer fconv8_5
I0204 18:59:57.712752 25293 net.cpp:102] Creating Layer fconv8_5
I0204 18:59:57.712759 25293 net.cpp:422] fconv8_5 <- fconv7_5_concat
I0204 18:59:57.712769 25293 net.cpp:380] fconv8_5 -> fconv8_5
I0204 18:59:57.712777 25293 net.cpp:132] Setting up fconv8_5
I0204 18:59:57.713237 25293 net.cpp:139] Top shape: 2 13 56 56 (81536)
I0204 18:59:57.713250 25293 layer_factory.hpp:74] Creating layer fconv8_6
I0204 18:59:57.713263 25293 net.cpp:102] Creating Layer fconv8_6
I0204 18:59:57.713268 25293 net.cpp:422] fconv8_6 <- fconv7_6_concat
I0204 18:59:57.713277 25293 net.cpp:380] fconv8_6 -> fconv8_6
I0204 18:59:57.713299 25293 net.cpp:132] Setting up fconv8_6
I0204 18:59:57.713778 25293 net.cpp:139] Top shape: 2 13 56 56 (81536)
I0204 18:59:57.713848 25293 layer_factory.hpp:74] Creating layer fconv8_7
I0204 18:59:57.713861 25293 net.cpp:102] Creating Layer fconv8_7
I0204 18:59:57.713866 25293 net.cpp:422] fconv8_7 <- fconv7_7_concat
I0204 18:59:57.713874 25293 net.cpp:380] fconv8_7 -> fconv8_7
I0204 18:59:57.713883 25293 net.cpp:132] Setting up fconv8_7
I0204 18:59:57.714429 25293 net.cpp:139] Top shape: 2 13 56 56 (81536)
I0204 18:59:57.714443 25293 layer_factory.hpp:74] Creating layer fconv8_8
I0204 18:59:57.714455 25293 net.cpp:102] Creating Layer fconv8_8
I0204 18:59:57.714460 25293 net.cpp:422] fconv8_8 <- fconv7_8_concat
I0204 18:59:57.714481 25293 net.cpp:380] fconv8_8 -> fconv8_8
I0204 18:59:57.714490 25293 net.cpp:132] Setting up fconv8_8
I0204 18:59:57.715035 25293 net.cpp:139] Top shape: 2 13 56 56 (81536)
I0204 18:59:57.715049 25293 layer_factory.hpp:74] Creating layer fconv8_9
I0204 18:59:57.715060 25293 net.cpp:102] Creating Layer fconv8_9
I0204 18:59:57.715066 25293 net.cpp:422] fconv8_9 <- fconv7_9_concat
I0204 18:59:57.715075 25293 net.cpp:380] fconv8_9 -> fconv8_9
I0204 18:59:57.715083 25293 net.cpp:132] Setting up fconv8_9
I0204 18:59:57.715625 25293 net.cpp:139] Top shape: 2 13 56 56 (81536)
I0204 18:59:57.715639 25293 layer_factory.hpp:74] Creating layer fconv8_10
I0204 18:59:57.715651 25293 net.cpp:102] Creating Layer fconv8_10
I0204 18:59:57.715656 25293 net.cpp:422] fconv8_10 <- fconv7_10_concat
I0204 18:59:57.715665 25293 net.cpp:380] fconv8_10 -> fconv8_10
I0204 18:59:57.715675 25293 net.cpp:132] Setting up fconv8_10
I0204 18:59:57.716204 25293 net.cpp:139] Top shape: 2 13 56 56 (81536)
I0204 18:59:57.716219 25293 layer_factory.hpp:74] Creating layer fconv8_11
I0204 18:59:57.716229 25293 net.cpp:102] Creating Layer fconv8_11
I0204 18:59:57.716234 25293 net.cpp:422] fconv8_11 <- fconv7_11_concat
I0204 18:59:57.716246 25293 net.cpp:380] fconv8_11 -> fconv8_11
I0204 18:59:57.716258 25293 net.cpp:132] Setting up fconv8_11
I0204 18:59:57.716727 25293 net.cpp:139] Top shape: 2 13 56 56 (81536)
I0204 18:59:57.716740 25293 layer_factory.hpp:74] Creating layer fconv8_12
I0204 18:59:57.716749 25293 net.cpp:102] Creating Layer fconv8_12
I0204 18:59:57.716755 25293 net.cpp:422] fconv8_12 <- fconv7_12_concat
I0204 18:59:57.716765 25293 net.cpp:380] fconv8_12 -> fconv8_12
I0204 18:59:57.716776 25293 net.cpp:132] Setting up fconv8_12
I0204 18:59:57.717242 25293 net.cpp:139] Top shape: 2 13 56 56 (81536)
I0204 18:59:57.717255 25293 layer_factory.hpp:74] Creating layer fconv8_13
I0204 18:59:57.717265 25293 net.cpp:102] Creating Layer fconv8_13
I0204 18:59:57.717272 25293 net.cpp:422] fconv8_13 <- fconv7_13_concat
I0204 18:59:57.717281 25293 net.cpp:380] fconv8_13 -> fconv8_13
I0204 18:59:57.717289 25293 net.cpp:132] Setting up fconv8_13
I0204 18:59:57.717751 25293 net.cpp:139] Top shape: 2 13 56 56 (81536)
I0204 18:59:57.717766 25293 layer_factory.hpp:74] Creating layer fconv8_14
I0204 18:59:57.717778 25293 net.cpp:102] Creating Layer fconv8_14
I0204 18:59:57.717783 25293 net.cpp:422] fconv8_14 <- fconv7_14_concat
I0204 18:59:57.717792 25293 net.cpp:380] fconv8_14 -> fconv8_14
I0204 18:59:57.717800 25293 net.cpp:132] Setting up fconv8_14
I0204 18:59:57.718263 25293 net.cpp:139] Top shape: 2 13 56 56 (81536)
I0204 18:59:57.718276 25293 layer_factory.hpp:74] Creating layer fconv8_15
I0204 18:59:57.718288 25293 net.cpp:102] Creating Layer fconv8_15
I0204 18:59:57.718293 25293 net.cpp:422] fconv8_15 <- fconv7_15_concat
I0204 18:59:57.718303 25293 net.cpp:380] fconv8_15 -> fconv8_15
I0204 18:59:57.718312 25293 net.cpp:132] Setting up fconv8_15
I0204 18:59:57.718776 25293 net.cpp:139] Top shape: 2 13 56 56 (81536)
I0204 18:59:57.718791 25293 layer_factory.hpp:74] Creating layer fconv8_16
I0204 18:59:57.718801 25293 net.cpp:102] Creating Layer fconv8_16
I0204 18:59:57.718808 25293 net.cpp:422] fconv8_16 <- fconv7_16_concat
I0204 18:59:57.718816 25293 net.cpp:380] fconv8_16 -> fconv8_16
I0204 18:59:57.718825 25293 net.cpp:132] Setting up fconv8_16
I0204 18:59:57.719292 25293 net.cpp:139] Top shape: 2 13 56 56 (81536)
I0204 18:59:57.719305 25293 layer_factory.hpp:74] Creating layer fconv8_17
I0204 18:59:57.719317 25293 net.cpp:102] Creating Layer fconv8_17
I0204 18:59:57.719322 25293 net.cpp:422] fconv8_17 <- fconv7_17_concat
I0204 18:59:57.719331 25293 net.cpp:380] fconv8_17 -> fconv8_17
I0204 18:59:57.719338 25293 net.cpp:132] Setting up fconv8_17
I0204 18:59:57.719807 25293 net.cpp:139] Top shape: 2 13 56 56 (81536)
I0204 18:59:57.719821 25293 layer_factory.hpp:74] Creating layer fconv8_18
I0204 18:59:57.719833 25293 net.cpp:102] Creating Layer fconv8_18
I0204 18:59:57.719841 25293 net.cpp:422] fconv8_18 <- fconv7_18_concat
I0204 18:59:57.719848 25293 net.cpp:380] fconv8_18 -> fconv8_18
I0204 18:59:57.719856 25293 net.cpp:132] Setting up fconv8_18
I0204 18:59:57.720320 25293 net.cpp:139] Top shape: 2 13 56 56 (81536)
I0204 18:59:57.720334 25293 layer_factory.hpp:74] Creating layer fconv9
I0204 18:59:57.720345 25293 net.cpp:102] Creating Layer fconv9
I0204 18:59:57.720351 25293 net.cpp:422] fconv9 <- fconv8_1
I0204 18:59:57.720356 25293 net.cpp:422] fconv9 <- fconv8_2
I0204 18:59:57.720362 25293 net.cpp:422] fconv9 <- fconv8_3
I0204 18:59:57.720367 25293 net.cpp:422] fconv9 <- fconv8_4
I0204 18:59:57.720372 25293 net.cpp:422] fconv9 <- fconv8_5
I0204 18:59:57.720376 25293 net.cpp:422] fconv9 <- fconv8_6
I0204 18:59:57.720381 25293 net.cpp:422] fconv9 <- fconv8_7
I0204 18:59:57.720386 25293 net.cpp:422] fconv9 <- fconv8_8
I0204 18:59:57.720391 25293 net.cpp:422] fconv9 <- fconv8_9
I0204 18:59:57.720396 25293 net.cpp:422] fconv9 <- fconv8_10
I0204 18:59:57.720399 25293 net.cpp:422] fconv9 <- fconv8_11
I0204 18:59:57.720403 25293 net.cpp:422] fconv9 <- fconv8_12
I0204 18:59:57.720407 25293 net.cpp:422] fconv9 <- fconv8_13
I0204 18:59:57.720412 25293 net.cpp:422] fconv9 <- fconv8_14
I0204 18:59:57.720417 25293 net.cpp:422] fconv9 <- fconv8_15
I0204 18:59:57.720420 25293 net.cpp:422] fconv9 <- fconv8_16
I0204 18:59:57.720424 25293 net.cpp:422] fconv9 <- fconv8_17
I0204 18:59:57.720429 25293 net.cpp:422] fconv9 <- fconv8_18
I0204 18:59:57.720433 25293 net.cpp:422] fconv9 <- fconv8_19
I0204 18:59:57.720440 25293 net.cpp:380] fconv9 -> fconv9
I0204 18:59:57.720449 25293 net.cpp:132] Setting up fconv9
I0204 18:59:57.720458 25293 net.cpp:139] Top shape: 2 235 56 56 (1473920)
I0204 18:59:57.720461 25293 layer_factory.hpp:74] Creating layer slice_pred_mask
I0204 18:59:57.720471 25293 net.cpp:102] Creating Layer slice_pred_mask
I0204 18:59:57.720476 25293 net.cpp:422] slice_pred_mask <- mask
I0204 18:59:57.720485 25293 net.cpp:380] slice_pred_mask -> mask_use
I0204 18:59:57.720494 25293 net.cpp:380] slice_pred_mask -> mask_abn
I0204 18:59:57.720501 25293 net.cpp:132] Setting up slice_pred_mask
I0204 18:59:57.720511 25293 net.cpp:139] Top shape: 2 1 56 56 (6272)
I0204 18:59:57.720516 25293 net.cpp:139] Top shape: 2 17 56 56 (106624)
I0204 18:59:57.720520 25293 layer_factory.hpp:74] Creating layer remove_mask_abn
I0204 18:59:57.720527 25293 net.cpp:102] Creating Layer remove_mask_abn
I0204 18:59:57.720531 25293 net.cpp:422] remove_mask_abn <- mask_abn
I0204 18:59:57.720536 25293 net.cpp:132] Setting up remove_mask_abn
I0204 18:59:57.720546 25293 layer_factory.hpp:74] Creating layer loss
I0204 18:59:57.720556 25293 net.cpp:102] Creating Layer loss
…
